HloModule SyncTensorsGraph.13295, input_output_alias={ {0}: (30, {}, may-alias), {1}: (29, {}, may-alias), {2}: (28, {}, may-alias), {3}: (27, {}, may-alias), {4}: (26, {}, may-alias), {5}: (281, {}, may-alias), {6}: (46, {}, may-alias), {7}: (45, {}, may-alias), {8}: (44, {}, may-alias), {9}: (43, {}, may-alias), {10}: (42, {}, may-alias), {11}: (288, {}, may-alias), {12}: (41, {}, may-alias), {13}: (40, {}, may-alias), {14}: (39, {}, may-alias), {15}: (38, {}, may-alias), {16}: (37, {}, may-alias), {17}: (295, {}, may-alias), {18}: (36, {}, may-alias), {19}: (35, {}, may-alias), {20}: (34, {}, may-alias), {21}: (33, {}, may-alias), {22}: (32, {}, may-alias), {23}: (302, {}, may-alias), {24}: (25, {}, may-alias), {25}: (24, {}, may-alias), {26}: (23, {}, may-alias), {27}: (22, {}, may-alias), {28}: (21, {}, may-alias), {29}: (309, {}, may-alias), {30}: (61, {}, may-alias), {31}: (60, {}, may-alias), {32}: (59, {}, may-alias), {33}: (58, {}, may-alias), {34}: (57, {}, may-alias), {35}: (316, {}, may-alias), {36}: (56, {}, may-alias), {37}: (55, {}, may-alias), {38}: (54, {}, may-alias), {39}: (53, {}, may-alias), {40}: (52, {}, may-alias), {41}: (323, {}, may-alias), {42}: (51, {}, may-alias), {43}: (50, {}, may-alias), {44}: (49, {}, may-alias), {45}: (48, {}, may-alias), {46}: (47, {}, may-alias), {47}: (330, {}, may-alias), {48}: (76, {}, may-alias), {49}: (75, {}, may-alias), {50}: (74, {}, may-alias), {51}: (73, {}, may-alias), {52}: (72, {}, may-alias), {53}: (337, {}, may-alias), {54}: (71, {}, may-alias), {55}: (70, {}, may-alias), {56}: (69, {}, may-alias), {57}: (68, {}, may-alias), {58}: (67, {}, may-alias), {59}: (344, {}, may-alias), {60}: (66, {}, may-alias), {61}: (65, {}, may-alias), {62}: (64, {}, may-alias), {63}: (63, {}, may-alias), {64}: (62, {}, may-alias), {65}: (351, {}, may-alias), {66}: (91, {}, may-alias), {67}: (90, {}, may-alias), {68}: (89, {}, may-alias), {69}: (88, {}, may-alias), {70}: (87, {}, may-alias), {71}: (358, {}, may-alias), {72}: (86, {}, may-alias), {73}: (85, {}, may-alias), {74}: (84, {}, may-alias), {75}: (83, {}, may-alias), {76}: (82, {}, may-alias), {77}: (365, {}, may-alias), {78}: (81, {}, may-alias), {79}: (80, {}, may-alias), {80}: (79, {}, may-alias), {81}: (78, {}, may-alias), {82}: (77, {}, may-alias), {83}: (372, {}, may-alias), {84}: (20, {}, may-alias), {85}: (19, {}, may-alias), {86}: (18, {}, may-alias), {87}: (17, {}, may-alias), {88}: (16, {}, may-alias), {89}: (379, {}, may-alias), {90}: (106, {}, may-alias), {91}: (105, {}, may-alias), {92}: (104, {}, may-alias), {93}: (103, {}, may-alias), {94}: (102, {}, may-alias), {95}: (386, {}, may-alias), {96}: (101, {}, may-alias), {97}: (100, {}, may-alias), {98}: (99, {}, may-alias), {99}: (98, {}, may-alias), {100}: (97, {}, may-alias), {101}: (393, {}, may-alias), {102}: (96, {}, may-alias), {103}: (95, {}, may-alias), {104}: (94, {}, may-alias), {105}: (93, {}, may-alias), {106}: (92, {}, may-alias), {107}: (400, {}, may-alias), {108}: (121, {}, may-alias), {109}: (120, {}, may-alias), {110}: (119, {}, may-alias), {111}: (118, {}, may-alias), {112}: (117, {}, may-alias), {113}: (407, {}, may-alias), {114}: (116, {}, may-alias), {115}: (115, {}, may-alias), {116}: (114, {}, may-alias), {117}: (113, {}, may-alias), {118}: (112, {}, may-alias), {119}: (414, {}, may-alias), {120}: (111, {}, may-alias), {121}: (110, {}, may-alias), {122}: (109, {}, may-alias), {123}: (108, {}, may-alias), {124}: (107, {}, may-alias), {125}: (421, {}, may-alias), {126}: (136, {}, may-alias), {127}: (135, {}, may-alias), {128}: (134, {}, may-alias), {129}: (133, {}, may-alias), {130}: (132, {}, may-alias), {131}: (428, {}, may-alias), {132}: (131, {}, may-alias), {133}: (130, {}, may-alias), {134}: (129, {}, may-alias), {135}: (128, {}, may-alias), {136}: (127, {}, may-alias), {137}: (435, {}, may-alias), {138}: (126, {}, may-alias), {139}: (125, {}, may-alias), {140}: (124, {}, may-alias), {141}: (123, {}, may-alias), {142}: (122, {}, may-alias), {143}: (442, {}, may-alias), {144}: (151, {}, may-alias), {145}: (150, {}, may-alias), {146}: (149, {}, may-alias), {147}: (148, {}, may-alias), {148}: (147, {}, may-alias), {149}: (449, {}, may-alias), {150}: (146, {}, may-alias), {151}: (145, {}, may-alias), {152}: (144, {}, may-alias), {153}: (143, {}, may-alias), {154}: (142, {}, may-alias), {155}: (456, {}, may-alias), {156}: (141, {}, may-alias), {157}: (140, {}, may-alias), {158}: (139, {}, may-alias), {159}: (138, {}, may-alias), {160}: (137, {}, may-alias), {161}: (463, {}, may-alias), {162}: (15, {}, may-alias), {163}: (14, {}, may-alias), {164}: (13, {}, may-alias), {165}: (12, {}, may-alias), {166}: (11, {}, may-alias), {167}: (470, {}, may-alias), {168}: (166, {}, may-alias), {169}: (165, {}, may-alias), {170}: (164, {}, may-alias), {171}: (163, {}, may-alias), {172}: (162, {}, may-alias), {173}: (477, {}, may-alias), {174}: (161, {}, may-alias), {175}: (160, {}, may-alias), {176}: (159, {}, may-alias), {177}: (158, {}, may-alias), {178}: (157, {}, may-alias), {179}: (484, {}, may-alias), {180}: (156, {}, may-alias), {181}: (155, {}, may-alias), {182}: (154, {}, may-alias), {183}: (153, {}, may-alias), {184}: (152, {}, may-alias), {185}: (491, {}, may-alias), {186}: (181, {}, may-alias), {187}: (180, {}, may-alias), {188}: (179, {}, may-alias), {189}: (178, {}, may-alias), {190}: (177, {}, may-alias), {191}: (498, {}, may-alias), {192}: (176, {}, may-alias), {193}: (175, {}, may-alias), {194}: (174, {}, may-alias), {195}: (173, {}, may-alias), {196}: (172, {}, may-alias), {197}: (505, {}, may-alias), {198}: (171, {}, may-alias), {199}: (170, {}, may-alias), {200}: (169, {}, may-alias), {201}: (168, {}, may-alias), {202}: (167, {}, may-alias), {203}: (512, {}, may-alias), {204}: (196, {}, may-alias), {205}: (195, {}, may-alias), {206}: (194, {}, may-alias), {207}: (193, {}, may-alias), {208}: (192, {}, may-alias), {209}: (519, {}, may-alias), {210}: (191, {}, may-alias), {211}: (190, {}, may-alias), {212}: (189, {}, may-alias), {213}: (188, {}, may-alias), {214}: (187, {}, may-alias), {215}: (526, {}, may-alias), {216}: (186, {}, may-alias), {217}: (185, {}, may-alias), {218}: (184, {}, may-alias), {219}: (183, {}, may-alias), {220}: (182, {}, may-alias), {221}: (533, {}, may-alias), {222}: (211, {}, may-alias), {223}: (210, {}, may-alias), {224}: (209, {}, may-alias), {225}: (208, {}, may-alias), {226}: (207, {}, may-alias), {227}: (540, {}, may-alias), {228}: (206, {}, may-alias), {229}: (205, {}, may-alias), {230}: (204, {}, may-alias), {231}: (203, {}, may-alias), {232}: (202, {}, may-alias), {233}: (547, {}, may-alias), {234}: (201, {}, may-alias), {235}: (200, {}, may-alias), {236}: (199, {}, may-alias), {237}: (198, {}, may-alias), {238}: (197, {}, may-alias), {239}: (554, {}, may-alias), {240}: (226, {}, may-alias), {241}: (225, {}, may-alias), {242}: (224, {}, may-alias), {243}: (223, {}, may-alias), {244}: (222, {}, may-alias), {245}: (561, {}, may-alias), {246}: (221, {}, may-alias), {247}: (220, {}, may-alias), {248}: (219, {}, may-alias), {249}: (218, {}, may-alias), {250}: (217, {}, may-alias), {251}: (568, {}, may-alias), {252}: (216, {}, may-alias), {253}: (215, {}, may-alias), {254}: (214, {}, may-alias), {255}: (213, {}, may-alias), {256}: (212, {}, may-alias), {257}: (575, {}, may-alias), {258}: (241, {}, may-alias), {259}: (240, {}, may-alias), {260}: (239, {}, may-alias), {261}: (238, {}, may-alias), {262}: (237, {}, may-alias), {263}: (582, {}, may-alias), {264}: (236, {}, may-alias), {265}: (235, {}, may-alias), {266}: (234, {}, may-alias), {267}: (233, {}, may-alias), {268}: (232, {}, may-alias), {269}: (589, {}, may-alias), {270}: (231, {}, may-alias), {271}: (230, {}, may-alias), {272}: (229, {}, may-alias), {273}: (228, {}, may-alias), {274}: (227, {}, may-alias), {275}: (596, {}, may-alias), {276}: (10, {}, may-alias), {277}: (9, {}, may-alias), {278}: (8, {}, may-alias), {279}: (7, {}, may-alias), {280}: (6, {}, may-alias), {281}: (603, {}, may-alias), {282}: (256, {}, may-alias), {283}: (255, {}, may-alias), {284}: (254, {}, may-alias), {285}: (253, {}, may-alias), {286}: (252, {}, may-alias), {287}: (610, {}, may-alias), {288}: (251, {}, may-alias), {289}: (250, {}, may-alias), {290}: (249, {}, may-alias), {291}: (248, {}, may-alias), {292}: (247, {}, may-alias), {293}: (617, {}, may-alias), {294}: (246, {}, may-alias), {295}: (245, {}, may-alias), {296}: (244, {}, may-alias), {297}: (243, {}, may-alias), {298}: (242, {}, may-alias), {299}: (624, {}, may-alias), {300}: (271, {}, may-alias), {301}: (270, {}, may-alias), {302}: (269, {}, may-alias), {303}: (268, {}, may-alias), {304}: (267, {}, may-alias), {305}: (631, {}, may-alias), {306}: (266, {}, may-alias), {307}: (265, {}, may-alias), {308}: (264, {}, may-alias), {309}: (263, {}, may-alias), {310}: (262, {}, may-alias), {311}: (638, {}, may-alias), {312}: (261, {}, may-alias), {313}: (260, {}, may-alias), {314}: (259, {}, may-alias), {315}: (258, {}, may-alias), {316}: (257, {}, may-alias), {317}: (645, {}, may-alias), {318}: (5, {}, may-alias), {319}: (4, {}, may-alias), {481}: (275, {}, may-alias), {482}: (278, {}, may-alias), {483}: (280, {}, may-alias), {484}: (283, {}, may-alias), {485}: (285, {}, may-alias), {486}: (287, {}, may-alias), {487}: (290, {}, may-alias), {488}: (292, {}, may-alias), {489}: (294, {}, may-alias), {490}: (297, {}, may-alias), {491}: (299, {}, may-alias), {492}: (301, {}, may-alias), {493}: (304, {}, may-alias), {494}: (306, {}, may-alias), {495}: (308, {}, may-alias), {496}: (311, {}, may-alias), {497}: (313, {}, may-alias), {498}: (315, {}, may-alias), {499}: (318, {}, may-alias), {500}: (320, {}, may-alias), {501}: (322, {}, may-alias), {502}: (325, {}, may-alias), {503}: (327, {}, may-alias), {504}: (329, {}, may-alias), {505}: (332, {}, may-alias), {506}: (334, {}, may-alias), {507}: (336, {}, may-alias), {508}: (339, {}, may-alias), {509}: (341, {}, may-alias), {510}: (343, {}, may-alias), {511}: (346, {}, may-alias), {512}: (348, {}, may-alias), {513}: (350, {}, may-alias), {514}: (353, {}, may-alias), {515}: (355, {}, may-alias), {516}: (357, {}, may-alias), {517}: (360, {}, may-alias), {518}: (362, {}, may-alias), {519}: (364, {}, may-alias), {520}: (367, {}, may-alias), {521}: (369, {}, may-alias), {522}: (371, {}, may-alias), {523}: (374, {}, may-alias), {524}: (376, {}, may-alias), {525}: (378, {}, may-alias), {526}: (381, {}, may-alias), {527}: (383, {}, may-alias), {528}: (385, {}, may-alias), {529}: (388, {}, may-alias), {530}: (390, {}, may-alias), {531}: (392, {}, may-alias), {532}: (395, {}, may-alias), {533}: (397, {}, may-alias), {534}: (399, {}, may-alias), {535}: (402, {}, may-alias), {536}: (404, {}, may-alias), {537}: (406, {}, may-alias), {538}: (409, {}, may-alias), {539}: (411, {}, may-alias), {540}: (413, {}, may-alias), {541}: (416, {}, may-alias), {542}: (418, {}, may-alias), {543}: (420, {}, may-alias), {544}: (423, {}, may-alias), {545}: (425, {}, may-alias), {546}: (427, {}, may-alias), {547}: (430, {}, may-alias), {548}: (432, {}, may-alias), {549}: (434, {}, may-alias), {550}: (437, {}, may-alias), {551}: (439, {}, may-alias), {552}: (441, {}, may-alias), {553}: (444, {}, may-alias), {554}: (446, {}, may-alias), {555}: (448, {}, may-alias), {556}: (451, {}, may-alias), {557}: (453, {}, may-alias), {558}: (455, {}, may-alias), {559}: (458, {}, may-alias), {560}: (460, {}, may-alias), {561}: (462, {}, may-alias), {562}: (465, {}, may-alias), {563}: (467, {}, may-alias), {564}: (469, {}, may-alias), {565}: (472, {}, may-alias), {566}: (474, {}, may-alias), {567}: (476, {}, may-alias), {568}: (479, {}, may-alias), {569}: (481, {}, may-alias), {570}: (483, {}, may-alias), {571}: (486, {}, may-alias), {572}: (488, {}, may-alias), {573}: (490, {}, may-alias), {574}: (493, {}, may-alias), {575}: (495, {}, may-alias), {576}: (497, {}, may-alias), {577}: (500, {}, may-alias), {578}: (502, {}, may-alias), {579}: (504, {}, may-alias), {580}: (507, {}, may-alias), {581}: (509, {}, may-alias), {582}: (511, {}, may-alias), {583}: (514, {}, may-alias), {584}: (516, {}, may-alias), {585}: (518, {}, may-alias), {586}: (521, {}, may-alias), {587}: (523, {}, may-alias), {588}: (525, {}, may-alias), {589}: (528, {}, may-alias), {590}: (530, {}, may-alias), {591}: (532, {}, may-alias), {592}: (535, {}, may-alias), {593}: (537, {}, may-alias), {594}: (539, {}, may-alias), {595}: (542, {}, may-alias), {596}: (544, {}, may-alias), {597}: (546, {}, may-alias), {598}: (549, {}, may-alias), {599}: (551, {}, may-alias), {600}: (553, {}, may-alias), {601}: (556, {}, may-alias), {602}: (558, {}, may-alias), {603}: (560, {}, may-alias), {604}: (563, {}, may-alias), {605}: (565, {}, may-alias), {606}: (567, {}, may-alias), {607}: (570, {}, may-alias), {608}: (572, {}, may-alias), {609}: (574, {}, may-alias), {610}: (577, {}, may-alias), {611}: (579, {}, may-alias), {612}: (581, {}, may-alias), {613}: (584, {}, may-alias), {614}: (586, {}, may-alias), {615}: (588, {}, may-alias), {616}: (591, {}, may-alias), {617}: (593, {}, may-alias), {618}: (595, {}, may-alias), {619}: (598, {}, may-alias), {620}: (600, {}, may-alias), {621}: (602, {}, may-alias), {622}: (605, {}, may-alias), {623}: (607, {}, may-alias), {624}: (609, {}, may-alias), {625}: (612, {}, may-alias), {626}: (614, {}, may-alias), {627}: (616, {}, may-alias), {628}: (619, {}, may-alias), {629}: (621, {}, may-alias), {630}: (623, {}, may-alias), {631}: (626, {}, may-alias), {632}: (628, {}, may-alias), {633}: (630, {}, may-alias), {634}: (633, {}, may-alias), {635}: (635, {}, may-alias), {636}: (637, {}, may-alias), {637}: (640, {}, may-alias), {638}: (642, {}, may-alias), {639}: (644, {}, may-alias), {640}: (647, {}, may-alias), {641}: (649, {}, may-alias), {642}: (274, {}, may-alias), {643}: (277, {}, may-alias), {644}: (279, {}, may-alias), {645}: (282, {}, may-alias), {646}: (284, {}, may-alias), {647}: (286, {}, may-alias), {648}: (289, {}, may-alias), {649}: (291, {}, may-alias), {650}: (293, {}, may-alias), {651}: (296, {}, may-alias), {652}: (298, {}, may-alias), {653}: (300, {}, may-alias), {654}: (303, {}, may-alias), {655}: (305, {}, may-alias), {656}: (307, {}, may-alias), {657}: (310, {}, may-alias), {658}: (312, {}, may-alias), {659}: (314, {}, may-alias), {660}: (317, {}, may-alias), {661}: (319, {}, may-alias), {662}: (321, {}, may-alias), {663}: (324, {}, may-alias), {664}: (326, {}, may-alias), {665}: (328, {}, may-alias), {666}: (331, {}, may-alias), {667}: (333, {}, may-alias), {668}: (335, {}, may-alias), {669}: (338, {}, may-alias), {670}: (340, {}, may-alias), {671}: (342, {}, may-alias), {672}: (345, {}, may-alias), {673}: (347, {}, may-alias), {674}: (349, {}, may-alias), {675}: (352, {}, may-alias), {676}: (354, {}, may-alias), {677}: (356, {}, may-alias), {678}: (359, {}, may-alias), {679}: (361, {}, may-alias), {680}: (363, {}, may-alias), {681}: (366, {}, may-alias), {682}: (368, {}, may-alias), {683}: (370, {}, may-alias), {684}: (373, {}, may-alias), {685}: (375, {}, may-alias), {686}: (377, {}, may-alias), {687}: (380, {}, may-alias), {688}: (382, {}, may-alias), {689}: (384, {}, may-alias), {690}: (387, {}, may-alias), {691}: (389, {}, may-alias), {692}: (391, {}, may-alias), {693}: (394, {}, may-alias), {694}: (396, {}, may-alias), {695}: (398, {}, may-alias), {696}: (401, {}, may-alias), {697}: (403, {}, may-alias), {698}: (405, {}, may-alias), {699}: (408, {}, may-alias), {700}: (410, {}, may-alias), {701}: (412, {}, may-alias), {702}: (415, {}, may-alias), {703}: (417, {}, may-alias), {704}: (419, {}, may-alias), {705}: (422, {}, may-alias), {706}: (424, {}, may-alias), {707}: (426, {}, may-alias), {708}: (429, {}, may-alias), {709}: (431, {}, may-alias), {710}: (433, {}, may-alias), {711}: (436, {}, may-alias), {712}: (438, {}, may-alias), {713}: (440, {}, may-alias), {714}: (443, {}, may-alias), {715}: (445, {}, may-alias), {716}: (447, {}, may-alias), {717}: (450, {}, may-alias), {718}: (452, {}, may-alias), {719}: (454, {}, may-alias), {720}: (457, {}, may-alias), {721}: (459, {}, may-alias), {722}: (461, {}, may-alias), {723}: (464, {}, may-alias), {724}: (466, {}, may-alias), {725}: (468, {}, may-alias), {726}: (471, {}, may-alias), {727}: (473, {}, may-alias), {728}: (475, {}, may-alias), {729}: (478, {}, may-alias), {730}: (480, {}, may-alias), {731}: (482, {}, may-alias), {732}: (485, {}, may-alias), {733}: (487, {}, may-alias), {734}: (489, {}, may-alias), {735}: (492, {}, may-alias), {736}: (494, {}, may-alias), {737}: (496, {}, may-alias), {738}: (499, {}, may-alias), {739}: (501, {}, may-alias), {740}: (503, {}, may-alias), {741}: (506, {}, may-alias), {742}: (508, {}, may-alias), {743}: (510, {}, may-alias), {744}: (513, {}, may-alias), {745}: (515, {}, may-alias), {746}: (517, {}, may-alias), {747}: (520, {}, may-alias), {748}: (522, {}, may-alias), {749}: (524, {}, may-alias), {750}: (527, {}, may-alias), {751}: (529, {}, may-alias), {752}: (531, {}, may-alias), {753}: (534, {}, may-alias), {754}: (536, {}, may-alias), {755}: (538, {}, may-alias), {756}: (541, {}, may-alias), {757}: (543, {}, may-alias), {758}: (545, {}, may-alias), {759}: (548, {}, may-alias), {760}: (550, {}, may-alias), {761}: (552, {}, may-alias), {762}: (555, {}, may-alias), {763}: (557, {}, may-alias), {764}: (559, {}, may-alias), {765}: (562, {}, may-alias), {766}: (564, {}, may-alias), {767}: (566, {}, may-alias), {768}: (569, {}, may-alias), {769}: (571, {}, may-alias), {770}: (573, {}, may-alias), {771}: (576, {}, may-alias), {772}: (578, {}, may-alias), {773}: (580, {}, may-alias), {774}: (583, {}, may-alias), {775}: (585, {}, may-alias), {776}: (587, {}, may-alias), {777}: (590, {}, may-alias), {778}: (592, {}, may-alias), {779}: (594, {}, may-alias), {780}: (597, {}, may-alias), {781}: (599, {}, may-alias), {782}: (601, {}, may-alias), {783}: (604, {}, may-alias), {784}: (606, {}, may-alias), {785}: (608, {}, may-alias), {786}: (611, {}, may-alias), {787}: (613, {}, may-alias), {788}: (615, {}, may-alias), {789}: (618, {}, may-alias), {790}: (620, {}, may-alias), {791}: (622, {}, may-alias), {792}: (625, {}, may-alias), {793}: (627, {}, may-alias), {794}: (629, {}, may-alias), {795}: (632, {}, may-alias), {796}: (634, {}, may-alias), {797}: (636, {}, may-alias), {798}: (639, {}, may-alias), {799}: (641, {}, may-alias), {800}: (643, {}, may-alias), {801}: (646, {}, may-alias), {802}: (648, {}, may-alias) }, entry_computation_layout={(f32[],f32[],f32[],f32[],f32[1000]{0},f32[1000,2048]{1,0},f32[2048]{0},f32[2048]{0},f32[2048]{0},f32[2048]{0},f32[2048,1024,1,1]{3,2,1,0},f32[1024]{0},f32[1024]{0},f32[1024]{0},f32[1024]{0},f32[1024,512,1,1]{3,2,1,0},f32[512]{0},f32[512]{0},f32[512]{0},f32[512]{0},f32[512,256,1,1]{3,2,1,0},f32[256]{0},f32[256]{0},f32[256]{0},f32[256]{0},f32[256,64,1,1]{3,2,1,0},f32[64]{0},f32[64]{0},f32[64]{0},f32[64]{0},f32[64,3,7,7]{3,2,1,0},f32[128,3,224,224]{3,2,1,0},f32[256]{0},f32[256]{0},f32[256]{0},f32[256]{0},f32[256,64,1,1]{3,2,1,0},f32[64]{0},f32[64]{0},f32[64]{0},f32[64]{0},f32[64,64,3,3]{3,2,1,0},f32[64]{0},f32[64]{0},f32[64]{0},f32[64]{0},f32[64,64,1,1]{3,2,1,0},f32[256]{0},f32[256]{0},f32[256]{0},f32[256]{0},f32[256,64,1,1]{3,2,1,0},f32[64]{0},f32[64]{0},f32[64]{0},f32[64]{0},f32[64,64,3,3]{3,2,1,0},f32[64]{0},f32[64]{0},f32[64]{0},f32[64]{0},f32[64,256,1,1]{3,2,1,0},f32[256]{0},f32[256]{0},f32[256]{0},f32[256]{0},f32[256,64,1,1]{3,2,1,0},f32[64]{0},f32[64]{0},f32[64]{0},f32[64]{0},f32[64,64,3,3]{3,2,1,0},f32[64]{0},f32[64]{0},f32[64]{0},f32[64]{0},f32[64,256,1,1]{3,2,1,0},f32[512]{0},f32[512]{0},f32[512]{0},f32[512]{0},f32[512,128,1,1]{3,2,1,0},f32[128]{0},f32[128]{0},f32[128]{0},f32[128]{0},f32[128,128,3,3]{3,2,1,0},f32[128]{0},f32[128]{0},f32[128]{0},f32[128]{0},f32[128,256,1,1]{3,2,1,0},f32[512]{0},f32[512]{0},f32[512]{0},f32[512]{0},f32[512,128,1,1]{3,2,1,0},f32[128]{0},f32[128]{0},f32[128]{0},f32[128]{0},f32[128,128,3,3]{3,2,1,0},f32[128]{0},f32[128]{0},f32[128]{0},f32[128]{0},f32[128,512,1,1]{3,2,1,0},f32[512]{0},f32[512]{0},f32[512]{0},f32[512]{0},f32[512,128,1,1]{3,2,1,0},f32[128]{0},f32[128]{0},f32[128]{0},f32[128]{0},f32[128,128,3,3]{3,2,1,0},f32[128]{0},f32[128]{0},f32[128]{0},f32[128]{0},f32[128,512,1,1]{3,2,1,0},f32[512]{0},f32[512]{0},f32[512]{0},f32[512]{0},f32[512,128,1,1]{3,2,1,0},f32[128]{0},f32[128]{0},f32[128]{0},f32[128]{0},f32[128,128,3,3]{3,2,1,0},f32[128]{0},f32[128]{0},f32[128]{0},f32[128]{0},f32[128,512,1,1]{3,2,1,0},f32[1024]{0},f32[1024]{0},f32[1024]{0},f32[1024]{0},f32[1024,256,1,1]{3,2,1,0},f32[256]{0},f32[256]{0},f32[256]{0},f32[256]{0},f32[256,256,3,3]{3,2,1,0},f32[256]{0},f32[256]{0},f32[256]{0},f32[256]{0},f32[256,512,1,1]{3,2,1,0},f32[1024]{0},f32[1024]{0},f32[1024]{0},f32[1024]{0},f32[1024,256,1,1]{3,2,1,0},f32[256]{0},f32[256]{0},f32[256]{0},f32[256]{0},f32[256,256,3,3]{3,2,1,0},f32[256]{0},f32[256]{0},f32[256]{0},f32[256]{0},f32[256,1024,1,1]{3,2,1,0},f32[1024]{0},f32[1024]{0},f32[1024]{0},f32[1024]{0},f32[1024,256,1,1]{3,2,1,0},f32[256]{0},f32[256]{0},f32[256]{0},f32[256]{0},f32[256,256,3,3]{3,2,1,0},f32[256]{0},f32[256]{0},f32[256]{0},f32[256]{0},f32[256,1024,1,1]{3,2,1,0},f32[1024]{0},f32[1024]{0},f32[1024]{0},f32[1024]{0},f32[1024,256,1,1]{3,2,1,0},f32[256]{0},f32[256]{0},f32[256]{0},f32[256]{0},f32[256,256,3,3]{3,2,1,0},f32[256]{0},f32[256]{0},f32[256]{0},f32[256]{0},f32[256,1024,1,1]{3,2,1,0},f32[1024]{0},f32[1024]{0},f32[1024]{0},f32[1024]{0},f32[1024,256,1,1]{3,2,1,0},f32[256]{0},f32[256]{0},f32[256]{0},f32[256]{0},f32[256,256,3,3]{3,2,1,0},f32[256]{0},f32[256]{0},f32[256]{0},f32[256]{0},f32[256,1024,1,1]{3,2,1,0},f32[1024]{0},f32[1024]{0},f32[1024]{0},f32[1024]{0},f32[1024,256,1,1]{3,2,1,0},f32[256]{0},f32[256]{0},f32[256]{0},f32[256]{0},f32[256,256,3,3]{3,2,1,0},f32[256]{0},f32[256]{0},f32[256]{0},f32[256]{0},f32[256,1024,1,1]{3,2,1,0},f32[2048]{0},f32[2048]{0},f32[2048]{0},f32[2048]{0},f32[2048,512,1,1]{3,2,1,0},f32[512]{0},f32[512]{0},f32[512]{0},f32[512]{0},f32[512,512,3,3]{3,2,1,0},f32[512]{0},f32[512]{0},f32[512]{0},f32[512]{0},f32[512,1024,1,1]{3,2,1,0},f32[2048]{0},f32[2048]{0},f32[2048]{0},f32[2048]{0},f32[2048,512,1,1]{3,2,1,0},f32[512]{0},f32[512]{0},f32[512]{0},f32[512]{0},f32[512,512,3,3]{3,2,1,0},f32[512]{0},f32[512]{0},f32[512]{0},f32[512]{0},f32[512,2048,1,1]{3,2,1,0},f32[2048]{0},f32[2048]{0},f32[2048]{0},f32[2048]{0},f32[2048,512,1,1]{3,2,1,0},f32[512]{0},f32[512]{0},f32[512]{0},f32[512]{0},f32[512,512,3,3]{3,2,1,0},f32[512]{0},f32[512]{0},f32[512]{0},f32[512]{0},f32[512,2048,1,1]{3,2,1,0},s64[128]{0},f32[],f32[64,3,7,7]{3,2,1,0},f32[],f32[],f32[64]{0},f32[],f32[64]{0},f32[],s64[],f32[64,64,1,1]{3,2,1,0},f32[],f32[64]{0},f32[],f32[64]{0},f32[],s64[],f32[64,64,3,3]{3,2,1,0},f32[],f32[64]{0},f32[],f32[64]{0},f32[],s64[],f32[256,64,1,1]{3,2,1,0},f32[],f32[256]{0},f32[],f32[256]{0},f32[],s64[],f32[256,64,1,1]{3,2,1,0},f32[],f32[256]{0},f32[],f32[256]{0},f32[],s64[],f32[64,256,1,1]{3,2,1,0},f32[],f32[64]{0},f32[],f32[64]{0},f32[],s64[],f32[64,64,3,3]{3,2,1,0},f32[],f32[64]{0},f32[],f32[64]{0},f32[],s64[],f32[256,64,1,1]{3,2,1,0},f32[],f32[256]{0},f32[],f32[256]{0},f32[],s64[],f32[64,256,1,1]{3,2,1,0},f32[],f32[64]{0},f32[],f32[64]{0},f32[],s64[],f32[64,64,3,3]{3,2,1,0},f32[],f32[64]{0},f32[],f32[64]{0},f32[],s64[],f32[256,64,1,1]{3,2,1,0},f32[],f32[256]{0},f32[],f32[256]{0},f32[],s64[],f32[128,256,1,1]{3,2,1,0},f32[],f32[128]{0},f32[],f32[128]{0},f32[],s64[],f32[128,128,3,3]{3,2,1,0},f32[],f32[128]{0},f32[],f32[128]{0},f32[],s64[],f32[512,128,1,1]{3,2,1,0},f32[],f32[512]{0},f32[],f32[512]{0},f32[],s64[],f32[512,256,1,1]{3,2,1,0},f32[],f32[512]{0},f32[],f32[512]{0},f32[],s64[],f32[128,512,1,1]{3,2,1,0},f32[],f32[128]{0},f32[],f32[128]{0},f32[],s64[],f32[128,128,3,3]{3,2,1,0},f32[],f32[128]{0},f32[],f32[128]{0},f32[],s64[],f32[512,128,1,1]{3,2,1,0},f32[],f32[512]{0},f32[],f32[512]{0},f32[],s64[],f32[128,512,1,1]{3,2,1,0},f32[],f32[128]{0},f32[],f32[128]{0},f32[],s64[],f32[128,128,3,3]{3,2,1,0},f32[],f32[128]{0},f32[],f32[128]{0},f32[],s64[],f32[512,128,1,1]{3,2,1,0},f32[],f32[512]{0},f32[],f32[512]{0},f32[],s64[],f32[128,512,1,1]{3,2,1,0},f32[],f32[128]{0},f32[],f32[128]{0},f32[],s64[],f32[128,128,3,3]{3,2,1,0},f32[],f32[128]{0},f32[],f32[128]{0},f32[],s64[],f32[512,128,1,1]{3,2,1,0},f32[],f32[512]{0},f32[],f32[512]{0},f32[],s64[],f32[256,512,1,1]{3,2,1,0},f32[],f32[256]{0},f32[],f32[256]{0},f32[],s64[],f32[256,256,3,3]{3,2,1,0},f32[],f32[256]{0},f32[],f32[256]{0},f32[],s64[],f32[1024,256,1,1]{3,2,1,0},f32[],f32[1024]{0},f32[],f32[1024]{0},f32[],s64[],f32[1024,512,1,1]{3,2,1,0},f32[],f32[1024]{0},f32[],f32[1024]{0},f32[],s64[],f32[256,1024,1,1]{3,2,1,0},f32[],f32[256]{0},f32[],f32[256]{0},f32[],s64[],f32[256,256,3,3]{3,2,1,0},f32[],f32[256]{0},f32[],f32[256]{0},f32[],s64[],f32[1024,256,1,1]{3,2,1,0},f32[],f32[1024]{0},f32[],f32[1024]{0},f32[],s64[],f32[256,1024,1,1]{3,2,1,0},f32[],f32[256]{0},f32[],f32[256]{0},f32[],s64[],f32[256,256,3,3]{3,2,1,0},f32[],f32[256]{0},f32[],f32[256]{0},f32[],s64[],f32[1024,256,1,1]{3,2,1,0},f32[],f32[1024]{0},f32[],f32[1024]{0},f32[],s64[],f32[256,1024,1,1]{3,2,1,0},f32[],f32[256]{0},f32[],f32[256]{0},f32[],s64[],f32[256,256,3,3]{3,2,1,0},f32[],f32[256]{0},f32[],f32[256]{0},f32[],s64[],f32[1024,256,1,1]{3,2,1,0},f32[],f32[1024]{0},f32[],f32[1024]{0},f32[],s64[],f32[256,1024,1,1]{3,2,1,0},f32[],f32[256]{0},f32[],f32[256]{0},f32[],s64[],f32[256,256,3,3]{3,2,1,0},f32[],f32[256]{0},f32[],f32[256]{0},f32[],s64[],f32[1024,256,1,1]{3,2,1,0},f32[],f32[1024]{0},f32[],f32[1024]{0},f32[],s64[],f32[256,1024,1,1]{3,2,1,0},f32[],f32[256]{0},f32[],f32[256]{0},f32[],s64[],f32[256,256,3,3]{3,2,1,0},f32[],f32[256]{0},f32[],f32[256]{0},f32[],s64[],f32[1024,256,1,1]{3,2,1,0},f32[],f32[1024]{0},f32[],f32[1024]{0},f32[],s64[],f32[512,1024,1,1]{3,2,1,0},f32[],f32[512]{0},f32[],f32[512]{0},f32[],s64[],f32[512,512,3,3]{3,2,1,0},f32[],f32[512]{0},f32[],f32[512]{0},f32[],s64[],f32[2048,512,1,1]{3,2,1,0},f32[],f32[2048]{0},f32[],f32[2048]{0},f32[],s64[],f32[2048,1024,1,1]{3,2,1,0},f32[],f32[2048]{0},f32[],f32[2048]{0},f32[],s64[],f32[512,2048,1,1]{3,2,1,0},f32[],f32[512]{0},f32[],f32[512]{0},f32[],s64[],f32[512,512,3,3]{3,2,1,0},f32[],f32[512]{0},f32[],f32[512]{0},f32[],s64[],f32[2048,512,1,1]{3,2,1,0},f32[],f32[2048]{0},f32[],f32[2048]{0},f32[],s64[],f32[512,2048,1,1]{3,2,1,0},f32[],f32[512]{0},f32[],f32[512]{0},f32[],s64[],f32[512,512,3,3]{3,2,1,0},f32[],f32[512]{0},f32[],f32[512]{0},f32[],s64[],f32[2048,512,1,1]{3,2,1,0},f32[],f32[2048]{0},f32[],f32[2048]{0},f32[],s64[],f32[1000,2048]{1,0},f32[],f32[1000]{0},f32[])->(f32[64,3,7,7]{3,2,1,0}, f32[64]{0}, f32[64]{0}, f32[64]{0}, f32[64]{0}, /*index=5*/s64[], f32[64,64,1,1]{3,2,1,0}, f32[64]{0}, f32[64]{0}, f32[64]{0}, /*index=10*/f32[64]{0}, s64[], f32[64,64,3,3]{3,2,1,0}, f32[64]{0}, f32[64]{0}, /*index=15*/f32[64]{0}, f32[64]{0}, s64[], f32[256,64,1,1]{3,2,1,0}, f32[256]{0}, /*index=20*/f32[256]{0}, f32[256]{0}, f32[256]{0}, s64[], f32[256,64,1,1]{3,2,1,0}, /*index=25*/f32[256]{0}, f32[256]{0}, f32[256]{0}, f32[256]{0}, s64[], /*index=30*/f32[64,256,1,1]{3,2,1,0}, f32[64]{0}, f32[64]{0}, f32[64]{0}, f32[64]{0}, /*index=35*/s64[], f32[64,64,3,3]{3,2,1,0}, f32[64]{0}, f32[64]{0}, f32[64]{0}, /*index=40*/f32[64]{0}, s64[], f32[256,64,1,1]{3,2,1,0}, f32[256]{0}, f32[256]{0}, /*index=45*/f32[256]{0}, f32[256]{0}, s64[], f32[64,256,1,1]{3,2,1,0}, f32[64]{0}, /*index=50*/f32[64]{0}, f32[64]{0}, f32[64]{0}, s64[], f32[64,64,3,3]{3,2,1,0}, /*index=55*/f32[64]{0}, f32[64]{0}, f32[64]{0}, f32[64]{0}, s64[], /*index=60*/f32[256,64,1,1]{3,2,1,0}, f32[256]{0}, f32[256]{0}, f32[256]{0}, f32[256]{0}, /*index=65*/s64[], f32[128,256,1,1]{3,2,1,0}, f32[128]{0}, f32[128]{0}, f32[128]{0}, /*index=70*/f32[128]{0}, s64[], f32[128,128,3,3]{3,2,1,0}, f32[128]{0}, f32[128]{0}, /*index=75*/f32[128]{0}, f32[128]{0}, s64[], f32[512,128,1,1]{3,2,1,0}, f32[512]{0}, /*index=80*/f32[512]{0}, f32[512]{0}, f32[512]{0}, s64[], f32[512,256,1,1]{3,2,1,0}, /*index=85*/f32[512]{0}, f32[512]{0}, f32[512]{0}, f32[512]{0}, s64[], /*index=90*/f32[128,512,1,1]{3,2,1,0}, f32[128]{0}, f32[128]{0}, f32[128]{0}, f32[128]{0}, /*index=95*/s64[], f32[128,128,3,3]{3,2,1,0}, f32[128]{0}, f32[128]{0}, f32[128]{0}, /*index=100*/f32[128]{0}, s64[], f32[512,128,1,1]{3,2,1,0}, f32[512]{0}, f32[512]{0}, /*index=105*/f32[512]{0}, f32[512]{0}, s64[], f32[128,512,1,1]{3,2,1,0}, f32[128]{0}, /*index=110*/f32[128]{0}, f32[128]{0}, f32[128]{0}, s64[], f32[128,128,3,3]{3,2,1,0}, /*index=115*/f32[128]{0}, f32[128]{0}, f32[128]{0}, f32[128]{0}, s64[], /*index=120*/f32[512,128,1,1]{3,2,1,0}, f32[512]{0}, f32[512]{0}, f32[512]{0}, f32[512]{0}, /*index=125*/s64[], f32[128,512,1,1]{3,2,1,0}, f32[128]{0}, f32[128]{0}, f32[128]{0}, /*index=130*/f32[128]{0}, s64[], f32[128,128,3,3]{3,2,1,0}, f32[128]{0}, f32[128]{0}, /*index=135*/f32[128]{0}, f32[128]{0}, s64[], f32[512,128,1,1]{3,2,1,0}, f32[512]{0}, /*index=140*/f32[512]{0}, f32[512]{0}, f32[512]{0}, s64[], f32[256,512,1,1]{3,2,1,0}, /*index=145*/f32[256]{0}, f32[256]{0}, f32[256]{0}, f32[256]{0}, s64[], /*index=150*/f32[256,256,3,3]{3,2,1,0}, f32[256]{0}, f32[256]{0}, f32[256]{0}, f32[256]{0}, /*index=155*/s64[], f32[1024,256,1,1]{3,2,1,0}, f32[1024]{0}, f32[1024]{0}, f32[1024]{0}, /*index=160*/f32[1024]{0}, s64[], f32[1024,512,1,1]{3,2,1,0}, f32[1024]{0}, f32[1024]{0}, /*index=165*/f32[1024]{0}, f32[1024]{0}, s64[], f32[256,1024,1,1]{3,2,1,0}, f32[256]{0}, /*index=170*/f32[256]{0}, f32[256]{0}, f32[256]{0}, s64[], f32[256,256,3,3]{3,2,1,0}, /*index=175*/f32[256]{0}, f32[256]{0}, f32[256]{0}, f32[256]{0}, s64[], /*index=180*/f32[1024,256,1,1]{3,2,1,0}, f32[1024]{0}, f32[1024]{0}, f32[1024]{0}, f32[1024]{0}, /*index=185*/s64[], f32[256,1024,1,1]{3,2,1,0}, f32[256]{0}, f32[256]{0}, f32[256]{0}, /*index=190*/f32[256]{0}, s64[], f32[256,256,3,3]{3,2,1,0}, f32[256]{0}, f32[256]{0}, /*index=195*/f32[256]{0}, f32[256]{0}, s64[], f32[1024,256,1,1]{3,2,1,0}, f32[1024]{0}, /*index=200*/f32[1024]{0}, f32[1024]{0}, f32[1024]{0}, s64[], f32[256,1024,1,1]{3,2,1,0}, /*index=205*/f32[256]{0}, f32[256]{0}, f32[256]{0}, f32[256]{0}, s64[], /*index=210*/f32[256,256,3,3]{3,2,1,0}, f32[256]{0}, f32[256]{0}, f32[256]{0}, f32[256]{0}, /*index=215*/s64[], f32[1024,256,1,1]{3,2,1,0}, f32[1024]{0}, f32[1024]{0}, f32[1024]{0}, /*index=220*/f32[1024]{0}, s64[], f32[256,1024,1,1]{3,2,1,0}, f32[256]{0}, f32[256]{0}, /*index=225*/f32[256]{0}, f32[256]{0}, s64[], f32[256,256,3,3]{3,2,1,0}, f32[256]{0}, /*index=230*/f32[256]{0}, f32[256]{0}, f32[256]{0}, s64[], f32[1024,256,1,1]{3,2,1,0}, /*index=235*/f32[1024]{0}, f32[1024]{0}, f32[1024]{0}, f32[1024]{0}, s64[], /*index=240*/f32[256,1024,1,1]{3,2,1,0}, f32[256]{0}, f32[256]{0}, f32[256]{0}, f32[256]{0}, /*index=245*/s64[], f32[256,256,3,3]{3,2,1,0}, f32[256]{0}, f32[256]{0}, f32[256]{0}, /*index=250*/f32[256]{0}, s64[], f32[1024,256,1,1]{3,2,1,0}, f32[1024]{0}, f32[1024]{0}, /*index=255*/f32[1024]{0}, f32[1024]{0}, s64[], f32[512,1024,1,1]{3,2,1,0}, f32[512]{0}, /*index=260*/f32[512]{0}, f32[512]{0}, f32[512]{0}, s64[], f32[512,512,3,3]{3,2,1,0}, /*index=265*/f32[512]{0}, f32[512]{0}, f32[512]{0}, f32[512]{0}, s64[], /*index=270*/f32[2048,512,1,1]{3,2,1,0}, f32[2048]{0}, f32[2048]{0}, f32[2048]{0}, f32[2048]{0}, /*index=275*/s64[], f32[2048,1024,1,1]{3,2,1,0}, f32[2048]{0}, f32[2048]{0}, f32[2048]{0}, /*index=280*/f32[2048]{0}, s64[], f32[512,2048,1,1]{3,2,1,0}, f32[512]{0}, f32[512]{0}, /*index=285*/f32[512]{0}, f32[512]{0}, s64[], f32[512,512,3,3]{3,2,1,0}, f32[512]{0}, /*index=290*/f32[512]{0}, f32[512]{0}, f32[512]{0}, s64[], f32[2048,512,1,1]{3,2,1,0}, /*index=295*/f32[2048]{0}, f32[2048]{0}, f32[2048]{0}, f32[2048]{0}, s64[], /*index=300*/f32[512,2048,1,1]{3,2,1,0}, f32[512]{0}, f32[512]{0}, f32[512]{0}, f32[512]{0}, /*index=305*/s64[], f32[512,512,3,3]{3,2,1,0}, f32[512]{0}, f32[512]{0}, f32[512]{0}, /*index=310*/f32[512]{0}, s64[], f32[2048,512,1,1]{3,2,1,0}, f32[2048]{0}, f32[2048]{0}, /*index=315*/f32[2048]{0}, f32[2048]{0}, s64[], f32[1000,2048]{1,0}, f32[1000]{0}, /*index=320*/f32[1000]{0}, f32[1000,2048]{1,0}, f32[2048]{0}, f32[2048]{0}, f32[2048,512,1,1]{3,2,1,0}, /*index=325*/f32[512]{0}, f32[512]{0}, f32[512,512,3,3]{3,2,1,0}, f32[512]{0}, f32[512]{0}, /*index=330*/f32[512,2048,1,1]{3,2,1,0}, f32[2048]{0}, f32[2048]{0}, f32[2048,512,1,1]{3,2,1,0}, f32[512]{0}, /*index=335*/f32[512]{0}, f32[512,512,3,3]{3,2,1,0}, f32[512]{0}, f32[512]{0}, f32[512,2048,1,1]{3,2,1,0}, /*index=340*/f32[2048]{0}, f32[2048]{0}, f32[2048,1024,1,1]{3,2,1,0}, f32[2048]{0}, f32[2048]{0}, /*index=345*/f32[2048,512,1,1]{3,2,1,0}, f32[512]{0}, f32[512]{0}, f32[512,512,3,3]{3,2,1,0}, f32[512]{0}, /*index=350*/f32[512]{0}, f32[512,1024,1,1]{3,2,1,0}, f32[1024]{0}, f32[1024]{0}, f32[1024,256,1,1]{3,2,1,0}, /*index=355*/f32[256]{0}, f32[256]{0}, f32[256,256,3,3]{3,2,1,0}, f32[256]{0}, f32[256]{0}, /*index=360*/f32[256,1024,1,1]{3,2,1,0}, f32[1024]{0}, f32[1024]{0}, f32[1024,256,1,1]{3,2,1,0}, f32[256]{0}, /*index=365*/f32[256]{0}, f32[256,256,3,3]{3,2,1,0}, f32[256]{0}, f32[256]{0}, f32[256,1024,1,1]{3,2,1,0}, /*index=370*/f32[1024]{0}, f32[1024]{0}, f32[1024,256,1,1]{3,2,1,0}, f32[256]{0}, f32[256]{0}, /*index=375*/f32[256,256,3,3]{3,2,1,0}, f32[256]{0}, f32[256]{0}, f32[256,1024,1,1]{3,2,1,0}, f32[1024]{0}, /*index=380*/f32[1024]{0}, f32[1024,256,1,1]{3,2,1,0}, f32[256]{0}, f32[256]{0}, f32[256,256,3,3]{3,2,1,0}, /*index=385*/f32[256]{0}, f32[256]{0}, f32[256,1024,1,1]{3,2,1,0}, f32[1024]{0}, f32[1024]{0}, /*index=390*/f32[1024,256,1,1]{3,2,1,0}, f32[256]{0}, f32[256]{0}, f32[256,256,3,3]{3,2,1,0}, f32[256]{0}, /*index=395*/f32[256]{0}, f32[256,1024,1,1]{3,2,1,0}, f32[1024]{0}, f32[1024]{0}, f32[1024,512,1,1]{3,2,1,0}, /*index=400*/f32[1024]{0}, f32[1024]{0}, f32[1024,256,1,1]{3,2,1,0}, f32[256]{0}, f32[256]{0}, /*index=405*/f32[256,256,3,3]{3,2,1,0}, f32[256]{0}, f32[256]{0}, f32[256,512,1,1]{3,2,1,0}, f32[512]{0}, /*index=410*/f32[512]{0}, f32[512,128,1,1]{3,2,1,0}, f32[128]{0}, f32[128]{0}, f32[128,128,3,3]{3,2,1,0}, /*index=415*/f32[128]{0}, f32[128]{0}, f32[128,512,1,1]{3,2,1,0}, f32[512]{0}, f32[512]{0}, /*index=420*/f32[512,128,1,1]{3,2,1,0}, f32[128]{0}, f32[128]{0}, f32[128,128,3,3]{3,2,1,0}, f32[128]{0}, /*index=425*/f32[128]{0}, f32[128,512,1,1]{3,2,1,0}, f32[512]{0}, f32[512]{0}, f32[512,128,1,1]{3,2,1,0}, /*index=430*/f32[128]{0}, f32[128]{0}, f32[128,128,3,3]{3,2,1,0}, f32[128]{0}, f32[128]{0}, /*index=435*/f32[128,512,1,1]{3,2,1,0}, f32[512]{0}, f32[512]{0}, f32[512,256,1,1]{3,2,1,0}, f32[512]{0}, /*index=440*/f32[512]{0}, f32[512,128,1,1]{3,2,1,0}, f32[128]{0}, f32[128]{0}, f32[128,128,3,3]{3,2,1,0}, /*index=445*/f32[128]{0}, f32[128]{0}, f32[128,256,1,1]{3,2,1,0}, f32[256]{0}, f32[256]{0}, /*index=450*/f32[256,64,1,1]{3,2,1,0}, f32[64]{0}, f32[64]{0}, f32[64,64,3,3]{3,2,1,0}, f32[64]{0}, /*index=455*/f32[64]{0}, f32[64,256,1,1]{3,2,1,0}, f32[256]{0}, f32[256]{0}, f32[256,64,1,1]{3,2,1,0}, /*index=460*/f32[64]{0}, f32[64]{0}, f32[64,64,3,3]{3,2,1,0}, f32[64]{0}, f32[64]{0}, /*index=465*/f32[64,256,1,1]{3,2,1,0}, f32[256]{0}, f32[256]{0}, f32[256,64,1,1]{3,2,1,0}, f32[256]{0}, /*index=470*/f32[256]{0}, f32[256,64,1,1]{3,2,1,0}, f32[64]{0}, f32[64]{0}, f32[64,64,3,3]{3,2,1,0}, /*index=475*/f32[64]{0}, f32[64]{0}, f32[64,64,1,1]{3,2,1,0}, f32[64]{0}, f32[64]{0}, /*index=480*/f32[64,3,7,7]{3,2,1,0}, f32[], f32[], f32[], f32[], /*index=485*/f32[], f32[], f32[], f32[], f32[], /*index=490*/f32[], f32[], f32[], f32[], f32[], /*index=495*/f32[], f32[], f32[], f32[], f32[], /*index=500*/f32[], f32[], f32[], f32[], f32[], /*index=505*/f32[], f32[], f32[], f32[], f32[], /*index=510*/f32[], f32[], f32[], f32[], f32[], /*index=515*/f32[], f32[], f32[], f32[], f32[], /*index=520*/f32[], f32[], f32[], f32[], f32[], /*index=525*/f32[], f32[], f32[], f32[], f32[], /*index=530*/f32[], f32[], f32[], f32[], f32[], /*index=535*/f32[], f32[], f32[], f32[], f32[], /*index=540*/f32[], f32[], f32[], f32[], f32[], /*index=545*/f32[], f32[], f32[], f32[], f32[], /*index=550*/f32[], f32[], f32[], f32[], f32[], /*index=555*/f32[], f32[], f32[], f32[], f32[], /*index=560*/f32[], f32[], f32[], f32[], f32[], /*index=565*/f32[], f32[], f32[], f32[], f32[], /*index=570*/f32[], f32[], f32[], f32[], f32[], /*index=575*/f32[], f32[], f32[], f32[], f32[], /*index=580*/f32[], f32[], f32[], f32[], f32[], /*index=585*/f32[], f32[], f32[], f32[], f32[], /*index=590*/f32[], f32[], f32[], f32[], f32[], /*index=595*/f32[], f32[], f32[], f32[], f32[], /*index=600*/f32[], f32[], f32[], f32[], f32[], /*index=605*/f32[], f32[], f32[], f32[], f32[], /*index=610*/f32[], f32[], f32[], f32[], f32[], /*index=615*/f32[], f32[], f32[], f32[], f32[], /*index=620*/f32[], f32[], f32[], f32[], f32[], /*index=625*/f32[], f32[], f32[], f32[], f32[], /*index=630*/f32[], f32[], f32[], f32[], f32[], /*index=635*/f32[], f32[], f32[], f32[], f32[], /*index=640*/f32[], f32[], f32[64,3,7,7]{3,2,1,0}, f32[64]{0}, f32[64]{0}, /*index=645*/f32[64,64,1,1]{3,2,1,0}, f32[64]{0}, f32[64]{0}, f32[64,64,3,3]{3,2,1,0}, f32[64]{0}, /*index=650*/f32[64]{0}, f32[256,64,1,1]{3,2,1,0}, f32[256]{0}, f32[256]{0}, f32[256,64,1,1]{3,2,1,0}, /*index=655*/f32[256]{0}, f32[256]{0}, f32[64,256,1,1]{3,2,1,0}, f32[64]{0}, f32[64]{0}, /*index=660*/f32[64,64,3,3]{3,2,1,0}, f32[64]{0}, f32[64]{0}, f32[256,64,1,1]{3,2,1,0}, f32[256]{0}, /*index=665*/f32[256]{0}, f32[64,256,1,1]{3,2,1,0}, f32[64]{0}, f32[64]{0}, f32[64,64,3,3]{3,2,1,0}, /*index=670*/f32[64]{0}, f32[64]{0}, f32[256,64,1,1]{3,2,1,0}, f32[256]{0}, f32[256]{0}, /*index=675*/f32[128,256,1,1]{3,2,1,0}, f32[128]{0}, f32[128]{0}, f32[128,128,3,3]{3,2,1,0}, f32[128]{0}, /*index=680*/f32[128]{0}, f32[512,128,1,1]{3,2,1,0}, f32[512]{0}, f32[512]{0}, f32[512,256,1,1]{3,2,1,0}, /*index=685*/f32[512]{0}, f32[512]{0}, f32[128,512,1,1]{3,2,1,0}, f32[128]{0}, f32[128]{0}, /*index=690*/f32[128,128,3,3]{3,2,1,0}, f32[128]{0}, f32[128]{0}, f32[512,128,1,1]{3,2,1,0}, f32[512]{0}, /*index=695*/f32[512]{0}, f32[128,512,1,1]{3,2,1,0}, f32[128]{0}, f32[128]{0}, f32[128,128,3,3]{3,2,1,0}, /*index=700*/f32[128]{0}, f32[128]{0}, f32[512,128,1,1]{3,2,1,0}, f32[512]{0}, f32[512]{0}, /*index=705*/f32[128,512,1,1]{3,2,1,0}, f32[128]{0}, f32[128]{0}, f32[128,128,3,3]{3,2,1,0}, f32[128]{0}, /*index=710*/f32[128]{0}, f32[512,128,1,1]{3,2,1,0}, f32[512]{0}, f32[512]{0}, f32[256,512,1,1]{3,2,1,0}, /*index=715*/f32[256]{0}, f32[256]{0}, f32[256,256,3,3]{3,2,1,0}, f32[256]{0}, f32[256]{0}, /*index=720*/f32[1024,256,1,1]{3,2,1,0}, f32[1024]{0}, f32[1024]{0}, f32[1024,512,1,1]{3,2,1,0}, f32[1024]{0}, /*index=725*/f32[1024]{0}, f32[256,1024,1,1]{3,2,1,0}, f32[256]{0}, f32[256]{0}, f32[256,256,3,3]{3,2,1,0}, /*index=730*/f32[256]{0}, f32[256]{0}, f32[1024,256,1,1]{3,2,1,0}, f32[1024]{0}, f32[1024]{0}, /*index=735*/f32[256,1024,1,1]{3,2,1,0}, f32[256]{0}, f32[256]{0}, f32[256,256,3,3]{3,2,1,0}, f32[256]{0}, /*index=740*/f32[256]{0}, f32[1024,256,1,1]{3,2,1,0}, f32[1024]{0}, f32[1024]{0}, f32[256,1024,1,1]{3,2,1,0}, /*index=745*/f32[256]{0}, f32[256]{0}, f32[256,256,3,3]{3,2,1,0}, f32[256]{0}, f32[256]{0}, /*index=750*/f32[1024,256,1,1]{3,2,1,0}, f32[1024]{0}, f32[1024]{0}, f32[256,1024,1,1]{3,2,1,0}, f32[256]{0}, /*index=755*/f32[256]{0}, f32[256,256,3,3]{3,2,1,0}, f32[256]{0}, f32[256]{0}, f32[1024,256,1,1]{3,2,1,0}, /*index=760*/f32[1024]{0}, f32[1024]{0}, f32[256,1024,1,1]{3,2,1,0}, f32[256]{0}, f32[256]{0}, /*index=765*/f32[256,256,3,3]{3,2,1,0}, f32[256]{0}, f32[256]{0}, f32[1024,256,1,1]{3,2,1,0}, f32[1024]{0}, /*index=770*/f32[1024]{0}, f32[512,1024,1,1]{3,2,1,0}, f32[512]{0}, f32[512]{0}, f32[512,512,3,3]{3,2,1,0}, /*index=775*/f32[512]{0}, f32[512]{0}, f32[2048,512,1,1]{3,2,1,0}, f32[2048]{0}, f32[2048]{0}, /*index=780*/f32[2048,1024,1,1]{3,2,1,0}, f32[2048]{0}, f32[2048]{0}, f32[512,2048,1,1]{3,2,1,0}, f32[512]{0}, /*index=785*/f32[512]{0}, f32[512,512,3,3]{3,2,1,0}, f32[512]{0}, f32[512]{0}, f32[2048,512,1,1]{3,2,1,0}, /*index=790*/f32[2048]{0}, f32[2048]{0}, f32[512,2048,1,1]{3,2,1,0}, f32[512]{0}, f32[512]{0}, /*index=795*/f32[512,512,3,3]{3,2,1,0}, f32[512]{0}, f32[512]{0}, f32[2048,512,1,1]{3,2,1,0}, f32[2048]{0}, /*index=800*/f32[2048]{0}, f32[1000,2048]{1,0}, f32[1000]{0}, f32[128,1000]{1,0}, f32[])}

max_F32.151 {
  lhs.152 = f32[] parameter(0)
  rhs.153 = f32[] parameter(1)
  ROOT maximum.154 = f32[] maximum(lhs.152, rhs.153)
}

ge_F32.166 {
  lhs.167 = f32[] parameter(0)
  rhs.168 = f32[] parameter(1)
  ROOT compare.169 = pred[] compare(lhs.167, rhs.168), direction=GE
}

max_F32.170 {
  lhs.171 = f32[] parameter(0)
  rhs.172 = f32[] parameter(1)
  ROOT maximum.173 = f32[] maximum(lhs.171, rhs.172)
}

min_U32.174 {
  lhs.175 = u32[] parameter(0)
  rhs.176 = u32[] parameter(1)
  ROOT minimum.177 = u32[] minimum(lhs.175, rhs.176)
}

ComputeMaxPoolIndices_body.178 {
  parameter.179 = (u32[], u32[], f32[128,64,114,114]{3,2,1,0}, f32[128,64,56,56]{3,2,1,0}, u32[128,64,114,114]{3,2,1,0}, /*index=5*/u32[25690112]{0}) parameter(0)
  get-tuple-element.180 = u32[] get-tuple-element(parameter.179), index=0
  constant.186 = u32[] constant(200704)
  remainder.190 = u32[] remainder(get-tuple-element.180, constant.186)
  constant.191 = u32[] constant(3136)
  remainder.195 = u32[] remainder(remainder.190, constant.191)
  constant.196 = u32[] constant(56)
  remainder.200 = u32[] remainder(remainder.195, constant.196)
  constant.201 = u32[] constant(1)
  remainder.205 = u32[] remainder(remainder.200, constant.201)
  constant.218 = u32[] constant(1)
  add.219 = u32[] add(get-tuple-element.180, constant.218)
  get-tuple-element.181 = u32[] get-tuple-element(parameter.179), index=1
  get-tuple-element.182 = f32[128,64,114,114]{3,2,1,0} get-tuple-element(parameter.179), index=2
  get-tuple-element.183 = f32[128,64,56,56]{3,2,1,0} get-tuple-element(parameter.179), index=3
  get-tuple-element.184 = u32[128,64,114,114]{3,2,1,0} get-tuple-element(parameter.179), index=4
  get-tuple-element.185 = u32[25690112]{0} get-tuple-element(parameter.179), index=5
  constant.187 = u32[] constant(1)
  divide.188 = u32[] divide(get-tuple-element.180, constant.186)
  multiply.189 = u32[] multiply(constant.187, divide.188)
  constant.192 = u32[] constant(1)
  divide.193 = u32[] divide(remainder.190, constant.191)
  multiply.194 = u32[] multiply(constant.192, divide.193)
  constant.197 = u32[] constant(2)
  divide.198 = u32[] divide(remainder.195, constant.196)
  multiply.199 = u32[] multiply(constant.197, divide.198)
  constant.202 = u32[] constant(2)
  divide.203 = u32[] divide(remainder.200, constant.201)
  multiply.204 = u32[] multiply(constant.202, divide.203)
  dynamic-slice.206 = f32[1,1,3,3]{3,2,1,0} dynamic-slice(get-tuple-element.182, multiply.189, multiply.194, multiply.199, multiply.204), dynamic_slice_sizes={1,1,3,3}
  dynamic-slice.208 = f32[1,1,1,1]{3,2,1,0} dynamic-slice(get-tuple-element.183, divide.188, divide.193, divide.198, divide.203), dynamic_slice_sizes={1,1,1,1}
  constant.209 = f32[] constant(-inf)
  select-and-scatter.210 = f32[1,1,3,3]{3,2,1,0} select-and-scatter(dynamic-slice.206, dynamic-slice.208, constant.209), window={size=1x1x3x3 stride=1x1x2x2}, select=ge_F32.166, scatter=max_F32.170
  broadcast.213 = f32[1,1,3,3]{3,2,1,0} broadcast(constant.209), dimensions={}
  compare.214 = pred[1,1,3,3]{3,2,1,0} compare(select-and-scatter.210, broadcast.213), direction=NE
  dynamic-slice.207 = u32[1,1,3,3]{3,2,1,0} dynamic-slice(get-tuple-element.184, multiply.189, multiply.194, multiply.199, multiply.204), dynamic_slice_sizes={1,1,3,3}
  constant.211 = u32[] constant(4294967295)
  broadcast.212 = u32[1,1,3,3]{3,2,1,0} broadcast(constant.211), dimensions={}
  select.215 = u32[1,1,3,3]{3,2,1,0} select(compare.214, dynamic-slice.207, broadcast.212)
  reduce-window.216 = u32[1,1,1,1]{3,2,1,0} reduce-window(select.215, constant.211), window={size=1x1x3x3 stride=1x1x2x2}, to_apply=min_U32.174
  reshape.217 = u32[1]{0} reshape(reduce-window.216)
  dynamic-update-slice.220 = u32[25690112]{0} dynamic-update-slice(get-tuple-element.185, reshape.217, get-tuple-element.180)
  ROOT tuple.221 = (u32[], u32[], f32[128,64,114,114]{3,2,1,0}, f32[128,64,56,56]{3,2,1,0}, u32[128,64,114,114]{3,2,1,0}, /*index=5*/u32[25690112]{0}) tuple(add.219, get-tuple-element.181, get-tuple-element.182, get-tuple-element.183, get-tuple-element.184, /*index=5*/dynamic-update-slice.220)
}

ComputeMaxPoolIndices_condition.222 {
  parameter.223 = (u32[], u32[], f32[128,64,114,114]{3,2,1,0}, f32[128,64,56,56]{3,2,1,0}, u32[128,64,114,114]{3,2,1,0}, /*index=5*/u32[25690112]{0}) parameter(0)
  get-tuple-element.226 = f32[128,64,114,114]{3,2,1,0} get-tuple-element(parameter.223), index=2
  get-tuple-element.227 = f32[128,64,56,56]{3,2,1,0} get-tuple-element(parameter.223), index=3
  get-tuple-element.228 = u32[128,64,114,114]{3,2,1,0} get-tuple-element(parameter.223), index=4
  get-tuple-element.229 = u32[25690112]{0} get-tuple-element(parameter.223), index=5
  get-tuple-element.224 = u32[] get-tuple-element(parameter.223), index=0
  get-tuple-element.225 = u32[] get-tuple-element(parameter.223), index=1
  ROOT compare.230 = pred[] compare(get-tuple-element.224, get-tuple-element.225), direction=LT
}

AddComputation.1125 {
  x.1126 = f32[] parameter(0)
  y.1127 = f32[] parameter(1)
  ROOT add.1128 = f32[] add(x.1126, y.1127)
}

MaxComputation.1148 {
  x.1149 = f32[] parameter(0)
  y.1150 = f32[] parameter(1)
  ROOT maximum.1151 = f32[] maximum(x.1149, y.1150)
}

AddComputation.1157 {
  x.1158 = f32[] parameter(0)
  y.1159 = f32[] parameter(1)
  ROOT add.1160 = f32[] add(x.1158, y.1159)
}

AddComputation.1191 {
  x.1192 = f32[] parameter(0)
  y.1193 = f32[] parameter(1)
  ROOT add.1194 = f32[] add(x.1192, y.1193)
}

AddComputation.1203 {
  x.1204 = f32[] parameter(0)
  y.1205 = f32[] parameter(1)
  ROOT add.1206 = f32[] add(x.1204, y.1205)
}

AddComputation.1214 {
  x.1215 = f32[] parameter(0)
  y.1216 = f32[] parameter(1)
  ROOT add.1217 = f32[] add(x.1215, y.1216)
}

AddComputation.1306 {
  x.1307 = f32[] parameter(0)
  y.1308 = f32[] parameter(1)
  ROOT add.1309 = f32[] add(x.1307, y.1308)
}

AddComputation.1370 {
  x.1371 = f32[] parameter(0)
  y.1372 = f32[] parameter(1)
  ROOT add.1373 = f32[] add(x.1371, y.1372)
}

AddComputation.1434 {
  x.1435 = f32[] parameter(0)
  y.1436 = f32[] parameter(1)
  ROOT add.1437 = f32[] add(x.1435, y.1436)
}

AddComputation.1505 {
  x.1506 = f32[] parameter(0)
  y.1507 = f32[] parameter(1)
  ROOT add.1508 = f32[] add(x.1506, y.1507)
}

AddComputation.1569 {
  x.1570 = f32[] parameter(0)
  y.1571 = f32[] parameter(1)
  ROOT add.1572 = f32[] add(x.1570, y.1571)
}

AddComputation.1633 {
  x.1634 = f32[] parameter(0)
  y.1635 = f32[] parameter(1)
  ROOT add.1636 = f32[] add(x.1634, y.1635)
}

AddComputation.1704 {
  x.1705 = f32[] parameter(0)
  y.1706 = f32[] parameter(1)
  ROOT add.1707 = f32[] add(x.1705, y.1706)
}

AddComputation.1762 {
  x.1763 = f32[] parameter(0)
  y.1764 = f32[] parameter(1)
  ROOT add.1765 = f32[] add(x.1763, y.1764)
}

AddComputation.1826 {
  x.1827 = f32[] parameter(0)
  y.1828 = f32[] parameter(1)
  ROOT add.1829 = f32[] add(x.1827, y.1828)
}

AddComputation.1890 {
  x.1891 = f32[] parameter(0)
  y.1892 = f32[] parameter(1)
  ROOT add.1893 = f32[] add(x.1891, y.1892)
}

AddComputation.1961 {
  x.1962 = f32[] parameter(0)
  y.1963 = f32[] parameter(1)
  ROOT add.1964 = f32[] add(x.1962, y.1963)
}

AddComputation.2025 {
  x.2026 = f32[] parameter(0)
  y.2027 = f32[] parameter(1)
  ROOT add.2028 = f32[] add(x.2026, y.2027)
}

AddComputation.2089 {
  x.2090 = f32[] parameter(0)
  y.2091 = f32[] parameter(1)
  ROOT add.2092 = f32[] add(x.2090, y.2091)
}

AddComputation.2160 {
  x.2161 = f32[] parameter(0)
  y.2162 = f32[] parameter(1)
  ROOT add.2163 = f32[] add(x.2161, y.2162)
}

AddComputation.2224 {
  x.2225 = f32[] parameter(0)
  y.2226 = f32[] parameter(1)
  ROOT add.2227 = f32[] add(x.2225, y.2226)
}

AddComputation.2288 {
  x.2289 = f32[] parameter(0)
  y.2290 = f32[] parameter(1)
  ROOT add.2291 = f32[] add(x.2289, y.2290)
}

AddComputation.2359 {
  x.2360 = f32[] parameter(0)
  y.2361 = f32[] parameter(1)
  ROOT add.2362 = f32[] add(x.2360, y.2361)
}

AddComputation.2423 {
  x.2424 = f32[] parameter(0)
  y.2425 = f32[] parameter(1)
  ROOT add.2426 = f32[] add(x.2424, y.2425)
}

AddComputation.2487 {
  x.2488 = f32[] parameter(0)
  y.2489 = f32[] parameter(1)
  ROOT add.2490 = f32[] add(x.2488, y.2489)
}

AddComputation.2558 {
  x.2559 = f32[] parameter(0)
  y.2560 = f32[] parameter(1)
  ROOT add.2561 = f32[] add(x.2559, y.2560)
}

AddComputation.2622 {
  x.2623 = f32[] parameter(0)
  y.2624 = f32[] parameter(1)
  ROOT add.2625 = f32[] add(x.2623, y.2624)
}

AddComputation.2686 {
  x.2687 = f32[] parameter(0)
  y.2688 = f32[] parameter(1)
  ROOT add.2689 = f32[] add(x.2687, y.2688)
}

AddComputation.2757 {
  x.2758 = f32[] parameter(0)
  y.2759 = f32[] parameter(1)
  ROOT add.2760 = f32[] add(x.2758, y.2759)
}

AddComputation.2821 {
  x.2822 = f32[] parameter(0)
  y.2823 = f32[] parameter(1)
  ROOT add.2824 = f32[] add(x.2822, y.2823)
}

AddComputation.2885 {
  x.2886 = f32[] parameter(0)
  y.2887 = f32[] parameter(1)
  ROOT add.2888 = f32[] add(x.2886, y.2887)
}

AddComputation.2956 {
  x.2957 = f32[] parameter(0)
  y.2958 = f32[] parameter(1)
  ROOT add.2959 = f32[] add(x.2957, y.2958)
}

AddComputation.3014 {
  x.3015 = f32[] parameter(0)
  y.3016 = f32[] parameter(1)
  ROOT add.3017 = f32[] add(x.3015, y.3016)
}

AddComputation.3078 {
  x.3079 = f32[] parameter(0)
  y.3080 = f32[] parameter(1)
  ROOT add.3081 = f32[] add(x.3079, y.3080)
}

AddComputation.3142 {
  x.3143 = f32[] parameter(0)
  y.3144 = f32[] parameter(1)
  ROOT add.3145 = f32[] add(x.3143, y.3144)
}

AddComputation.3213 {
  x.3214 = f32[] parameter(0)
  y.3215 = f32[] parameter(1)
  ROOT add.3216 = f32[] add(x.3214, y.3215)
}

AddComputation.3277 {
  x.3278 = f32[] parameter(0)
  y.3279 = f32[] parameter(1)
  ROOT add.3280 = f32[] add(x.3278, y.3279)
}

AddComputation.3341 {
  x.3342 = f32[] parameter(0)
  y.3343 = f32[] parameter(1)
  ROOT add.3344 = f32[] add(x.3342, y.3343)
}

AddComputation.3412 {
  x.3413 = f32[] parameter(0)
  y.3414 = f32[] parameter(1)
  ROOT add.3415 = f32[] add(x.3413, y.3414)
}

AddComputation.3476 {
  x.3477 = f32[] parameter(0)
  y.3478 = f32[] parameter(1)
  ROOT add.3479 = f32[] add(x.3477, y.3478)
}

AddComputation.3540 {
  x.3541 = f32[] parameter(0)
  y.3542 = f32[] parameter(1)
  ROOT add.3543 = f32[] add(x.3541, y.3542)
}

AddComputation.3611 {
  x.3612 = f32[] parameter(0)
  y.3613 = f32[] parameter(1)
  ROOT add.3614 = f32[] add(x.3612, y.3613)
}

AddComputation.3675 {
  x.3676 = f32[] parameter(0)
  y.3677 = f32[] parameter(1)
  ROOT add.3678 = f32[] add(x.3676, y.3677)
}

AddComputation.3739 {
  x.3740 = f32[] parameter(0)
  y.3741 = f32[] parameter(1)
  ROOT add.3742 = f32[] add(x.3740, y.3741)
}

AddComputation.3810 {
  x.3811 = f32[] parameter(0)
  y.3812 = f32[] parameter(1)
  ROOT add.3813 = f32[] add(x.3811, y.3812)
}

AddComputation.3868 {
  x.3869 = f32[] parameter(0)
  y.3870 = f32[] parameter(1)
  ROOT add.3871 = f32[] add(x.3869, y.3870)
}

AddComputation.3932 {
  x.3933 = f32[] parameter(0)
  y.3934 = f32[] parameter(1)
  ROOT add.3935 = f32[] add(x.3933, y.3934)
}

AddComputation.3996 {
  x.3997 = f32[] parameter(0)
  y.3998 = f32[] parameter(1)
  ROOT add.3999 = f32[] add(x.3997, y.3998)
}

AddComputation.4067 {
  x.4068 = f32[] parameter(0)
  y.4069 = f32[] parameter(1)
  ROOT add.4070 = f32[] add(x.4068, y.4069)
}

AddComputation.4131 {
  x.4132 = f32[] parameter(0)
  y.4133 = f32[] parameter(1)
  ROOT add.4134 = f32[] add(x.4132, y.4133)
}

AddComputation.4195 {
  x.4196 = f32[] parameter(0)
  y.4197 = f32[] parameter(1)
  ROOT add.4198 = f32[] add(x.4196, y.4197)
}

AddComputation.4266 {
  x.4267 = f32[] parameter(0)
  y.4268 = f32[] parameter(1)
  ROOT add.4269 = f32[] add(x.4267, y.4268)
}

AddComputation.4330 {
  x.4331 = f32[] parameter(0)
  y.4332 = f32[] parameter(1)
  ROOT add.4333 = f32[] add(x.4331, y.4332)
}

AddComputation.4394 {
  x.4395 = f32[] parameter(0)
  y.4396 = f32[] parameter(1)
  ROOT add.4397 = f32[] add(x.4395, y.4396)
}

AddComputation.4465 {
  x.4466 = f32[] parameter(0)
  y.4467 = f32[] parameter(1)
  ROOT add.4468 = f32[] add(x.4466, y.4467)
}

AddComputation.4523 {
  x.4524 = f32[] parameter(0)
  y.4525 = f32[] parameter(1)
  ROOT add.4526 = f32[] add(x.4524, y.4525)
}

AddComputation.4587 {
  x.4588 = f32[] parameter(0)
  y.4589 = f32[] parameter(1)
  ROOT add.4590 = f32[] add(x.4588, y.4589)
}

AddComputation.4651 {
  x.4652 = f32[] parameter(0)
  y.4653 = f32[] parameter(1)
  ROOT add.4654 = f32[] add(x.4652, y.4653)
}

xla_ge_computation.4676 {
  x.4677 = f32[] parameter(0)
  y.4678 = f32[] parameter(1)
  ROOT compare.4679 = pred[] compare(x.4677, y.4678), direction=GE
}

AddComputation.4680 {
  x.4681 = f32[] parameter(0)
  y.4682 = f32[] parameter(1)
  ROOT add.4683 = f32[] add(x.4681, y.4682)
}

AddComputation.4732 {
  x.4733 = f32[] parameter(0)
  y.4734 = f32[] parameter(1)
  ROOT add.4735 = f32[] add(x.4733, y.4734)
}

AddComputation.4907 {
  x.4908 = f32[] parameter(0)
  y.4909 = f32[] parameter(1)
  ROOT add.4910 = f32[] add(x.4908, y.4909)
}

AddComputation.13282 {
  x.13283 = f32[] parameter(0)
  y.13284 = f32[] parameter(1)
  ROOT add.13285 = f32[] add(x.13283, y.13284)
}

AddComputation.13288 {
  x.13289 = f32[] parameter(0)
  y.13290 = f32[] parameter(1)
  ROOT add.13291 = f32[] add(x.13289, y.13290)
}

ENTRY SyncTensorsGraph.13295 {
  constant.161 = u32[] constant(0)
  constant.162 = u32[] constant(25690112)
  p31.135 = f32[128,3,224,224]{3,2,1,0} parameter(31)
  p30.134 = f32[64,3,7,7]{3,2,1,0} parameter(30)
  convolution.136 = f32[128,64,112,112]{3,2,1,0} convolution(p31.135, p30.134), window={size=7x7 stride=2x2 pad=3_3x3_3}, dim_labels=bf01_oi01->bf01
  p29.133 = f32[64]{0} parameter(29)
  p28.132 = f32[64]{0} parameter(28)
  batch-norm-training.137 = (f32[128,64,112,112]{3,2,1,0}, f32[64]{0}, f32[64]{0}) batch-norm-training(convolution.136, p29.133, p28.132), epsilon=1e-05, feature_index=1
  get-tuple-element.138 = f32[128,64,112,112]{3,2,1,0} get-tuple-element(batch-norm-training.137), index=0
  constant.145 = f32[] constant(0)
  broadcast.146 = f32[128,64,112,112]{3,2,1,0} broadcast(constant.145), dimensions={}
  maximum.147 = f32[128,64,112,112]{3,2,1,0} maximum(get-tuple-element.138, broadcast.146)
  constant.148 = f32[] constant(-inf)
  pad.149 = f32[128,64,114,114]{3,2,1,0} pad(maximum.147, constant.148), padding=0_0x0_0x1_1x1_1
  constant.150 = f32[] constant(-inf)
  reduce-window.155 = f32[128,64,56,56]{3,2,1,0} reduce-window(pad.149, constant.150), window={size=1x1x3x3 stride=1x1x2x2}, to_apply=max_F32.151
  iota.156 = u32[12544]{0} iota(), iota_dimension=0
  reshape.157 = u32[112,112]{1,0} reshape(iota.156)
  broadcast.158 = u32[128,64,112,112]{3,2,1,0} broadcast(reshape.157), dimensions={2,3}
  constant.159 = u32[] constant(4294967295)
  pad.160 = u32[128,64,114,114]{3,2,1,0} pad(broadcast.158, constant.159), padding=0_0x0_0x1_1x1_1
  constant.163 = u32[] constant(0)
  broadcast.164 = u32[25690112]{0} broadcast(constant.163), dimensions={}
  tuple.165 = (u32[], u32[], f32[128,64,114,114]{3,2,1,0}, f32[128,64,56,56]{3,2,1,0}, u32[128,64,114,114]{3,2,1,0}, /*index=5*/u32[25690112]{0}) tuple(constant.161, constant.162, pad.149, reduce-window.155, pad.160, /*index=5*/broadcast.164)
  while.231 = (u32[], u32[], f32[128,64,114,114]{3,2,1,0}, f32[128,64,56,56]{3,2,1,0}, u32[128,64,114,114]{3,2,1,0}, /*index=5*/u32[25690112]{0}) while(tuple.165), condition=ComputeMaxPoolIndices_condition.222, body=ComputeMaxPoolIndices_body.178
  get-tuple-element.232 = u32[] get-tuple-element(while.231), index=0
  get-tuple-element.233 = u32[] get-tuple-element(while.231), index=1
  get-tuple-element.234 = f32[128,64,114,114]{3,2,1,0} get-tuple-element(while.231), index=2
  get-tuple-element.235 = f32[128,64,56,56]{3,2,1,0} get-tuple-element(while.231), index=3
  get-tuple-element.236 = u32[128,64,114,114]{3,2,1,0} get-tuple-element(while.231), index=4
  get-tuple-element.237 = u32[25690112]{0} get-tuple-element(while.231), index=5
  reshape.238 = u32[128,64,56,56]{3,2,1,0} reshape(get-tuple-element.237)
  constant.1213 = s32[] constant(128)
  p46.263 = f32[64,64,1,1]{3,2,1,0} parameter(46)
  convolution.264 = f32[128,64,56,56]{3,2,1,0} convolution(reduce-window.155, p46.263), window={size=1x1}, dim_labels=bf01_oi01->bf01
  p45.262 = f32[64]{0} parameter(45)
  p44.261 = f32[64]{0} parameter(44)
  batch-norm-training.265 = (f32[128,64,56,56]{3,2,1,0}, f32[64]{0}, f32[64]{0}) batch-norm-training(convolution.264, p45.262, p44.261), epsilon=1e-05, feature_index=1
  get-tuple-element.266 = f32[128,64,56,56]{3,2,1,0} get-tuple-element(batch-norm-training.265), index=0
  constant.273 = f32[] constant(0)
  broadcast.274 = f32[128,64,56,56]{3,2,1,0} broadcast(constant.273), dimensions={}
  maximum.275 = f32[128,64,56,56]{3,2,1,0} maximum(get-tuple-element.266, broadcast.274)
  p41.258 = f32[64,64,3,3]{3,2,1,0} parameter(41)
  convolution.276 = f32[128,64,56,56]{3,2,1,0} convolution(maximum.275, p41.258), window={size=3x3 pad=1_1x1_1}, dim_labels=bf01_oi01->bf01
  p40.257 = f32[64]{0} parameter(40)
  p39.256 = f32[64]{0} parameter(39)
  batch-norm-training.277 = (f32[128,64,56,56]{3,2,1,0}, f32[64]{0}, f32[64]{0}) batch-norm-training(convolution.276, p40.257, p39.256), epsilon=1e-05, feature_index=1
  get-tuple-element.278 = f32[128,64,56,56]{3,2,1,0} get-tuple-element(batch-norm-training.277), index=0
  constant.285 = f32[] constant(0)
  broadcast.286 = f32[128,64,56,56]{3,2,1,0} broadcast(constant.285), dimensions={}
  maximum.287 = f32[128,64,56,56]{3,2,1,0} maximum(get-tuple-element.278, broadcast.286)
  p36.253 = f32[256,64,1,1]{3,2,1,0} parameter(36)
  convolution.288 = f32[128,256,56,56]{3,2,1,0} convolution(maximum.287, p36.253), window={size=1x1}, dim_labels=bf01_oi01->bf01
  p35.252 = f32[256]{0} parameter(35)
  p34.251 = f32[256]{0} parameter(34)
  batch-norm-training.289 = (f32[128,256,56,56]{3,2,1,0}, f32[256]{0}, f32[256]{0}) batch-norm-training(convolution.288, p35.252, p34.251), epsilon=1e-05, feature_index=1
  get-tuple-element.290 = f32[128,256,56,56]{3,2,1,0} get-tuple-element(batch-norm-training.289), index=0
  p25.129 = f32[256,64,1,1]{3,2,1,0} parameter(25)
  convolution.239 = f32[128,256,56,56]{3,2,1,0} convolution(reduce-window.155, p25.129), window={size=1x1}, dim_labels=bf01_oi01->bf01
  p24.128 = f32[256]{0} parameter(24)
  p23.127 = f32[256]{0} parameter(23)
  batch-norm-training.240 = (f32[128,256,56,56]{3,2,1,0}, f32[256]{0}, f32[256]{0}) batch-norm-training(convolution.239, p24.128, p23.127), epsilon=1e-05, feature_index=1
  get-tuple-element.241 = f32[128,256,56,56]{3,2,1,0} get-tuple-element(batch-norm-training.240), index=0
  constant.120 = f32[] constant(1)
  reshape.121 = f32[1,1,1,1]{3,2,1,0} reshape(constant.120)
  broadcast.122 = f32[1,1,1,1]{3,2,1,0} broadcast(reshape.121), dimensions={0,1,2,3}
  reshape.123 = f32[] reshape(broadcast.122)
  broadcast.124 = f32[128,256,56,56]{3,2,1,0} broadcast(reshape.123), dimensions={}
  multiply.248 = f32[128,256,56,56]{3,2,1,0} multiply(get-tuple-element.241, broadcast.124)
  add.297 = f32[128,256,56,56]{3,2,1,0} add(get-tuple-element.290, multiply.248)
  constant.298 = f32[] constant(0)
  broadcast.299 = f32[128,256,56,56]{3,2,1,0} broadcast(constant.298), dimensions={}
  maximum.300 = f32[128,256,56,56]{3,2,1,0} maximum(add.297, broadcast.299)
  p61.316 = f32[64,256,1,1]{3,2,1,0} parameter(61)
  convolution.317 = f32[128,64,56,56]{3,2,1,0} convolution(maximum.300, p61.316), window={size=1x1}, dim_labels=bf01_oi01->bf01
  p60.315 = f32[64]{0} parameter(60)
  p59.314 = f32[64]{0} parameter(59)
  batch-norm-training.318 = (f32[128,64,56,56]{3,2,1,0}, f32[64]{0}, f32[64]{0}) batch-norm-training(convolution.317, p60.315, p59.314), epsilon=1e-05, feature_index=1
  get-tuple-element.319 = f32[128,64,56,56]{3,2,1,0} get-tuple-element(batch-norm-training.318), index=0
  constant.326 = f32[] constant(0)
  broadcast.327 = f32[128,64,56,56]{3,2,1,0} broadcast(constant.326), dimensions={}
  maximum.328 = f32[128,64,56,56]{3,2,1,0} maximum(get-tuple-element.319, broadcast.327)
  p56.311 = f32[64,64,3,3]{3,2,1,0} parameter(56)
  convolution.329 = f32[128,64,56,56]{3,2,1,0} convolution(maximum.328, p56.311), window={size=3x3 pad=1_1x1_1}, dim_labels=bf01_oi01->bf01
  p55.310 = f32[64]{0} parameter(55)
  p54.309 = f32[64]{0} parameter(54)
  batch-norm-training.330 = (f32[128,64,56,56]{3,2,1,0}, f32[64]{0}, f32[64]{0}) batch-norm-training(convolution.329, p55.310, p54.309), epsilon=1e-05, feature_index=1
  get-tuple-element.331 = f32[128,64,56,56]{3,2,1,0} get-tuple-element(batch-norm-training.330), index=0
  constant.338 = f32[] constant(0)
  broadcast.339 = f32[128,64,56,56]{3,2,1,0} broadcast(constant.338), dimensions={}
  maximum.340 = f32[128,64,56,56]{3,2,1,0} maximum(get-tuple-element.331, broadcast.339)
  p51.306 = f32[256,64,1,1]{3,2,1,0} parameter(51)
  convolution.341 = f32[128,256,56,56]{3,2,1,0} convolution(maximum.340, p51.306), window={size=1x1}, dim_labels=bf01_oi01->bf01
  p50.305 = f32[256]{0} parameter(50)
  p49.304 = f32[256]{0} parameter(49)
  batch-norm-training.342 = (f32[128,256,56,56]{3,2,1,0}, f32[256]{0}, f32[256]{0}) batch-norm-training(convolution.341, p50.305, p49.304), epsilon=1e-05, feature_index=1
  get-tuple-element.343 = f32[128,256,56,56]{3,2,1,0} get-tuple-element(batch-norm-training.342), index=0
  constant.115 = f32[] constant(1)
  reshape.116 = f32[1,1,1,1]{3,2,1,0} reshape(constant.115)
  broadcast.117 = f32[1,1,1,1]{3,2,1,0} broadcast(reshape.116), dimensions={0,1,2,3}
  reshape.118 = f32[] reshape(broadcast.117)
  broadcast.119 = f32[128,256,56,56]{3,2,1,0} broadcast(reshape.118), dimensions={}
  multiply.301 = f32[128,256,56,56]{3,2,1,0} multiply(maximum.300, broadcast.119)
  add.350 = f32[128,256,56,56]{3,2,1,0} add(get-tuple-element.343, multiply.301)
  constant.351 = f32[] constant(0)
  broadcast.352 = f32[128,256,56,56]{3,2,1,0} broadcast(constant.351), dimensions={}
  maximum.353 = f32[128,256,56,56]{3,2,1,0} maximum(add.350, broadcast.352)
  p76.369 = f32[64,256,1,1]{3,2,1,0} parameter(76)
  convolution.370 = f32[128,64,56,56]{3,2,1,0} convolution(maximum.353, p76.369), window={size=1x1}, dim_labels=bf01_oi01->bf01
  p75.368 = f32[64]{0} parameter(75)
  p74.367 = f32[64]{0} parameter(74)
  batch-norm-training.371 = (f32[128,64,56,56]{3,2,1,0}, f32[64]{0}, f32[64]{0}) batch-norm-training(convolution.370, p75.368, p74.367), epsilon=1e-05, feature_index=1
  get-tuple-element.372 = f32[128,64,56,56]{3,2,1,0} get-tuple-element(batch-norm-training.371), index=0
  constant.379 = f32[] constant(0)
  broadcast.380 = f32[128,64,56,56]{3,2,1,0} broadcast(constant.379), dimensions={}
  maximum.381 = f32[128,64,56,56]{3,2,1,0} maximum(get-tuple-element.372, broadcast.380)
  p71.364 = f32[64,64,3,3]{3,2,1,0} parameter(71)
  convolution.382 = f32[128,64,56,56]{3,2,1,0} convolution(maximum.381, p71.364), window={size=3x3 pad=1_1x1_1}, dim_labels=bf01_oi01->bf01
  p70.363 = f32[64]{0} parameter(70)
  p69.362 = f32[64]{0} parameter(69)
  batch-norm-training.383 = (f32[128,64,56,56]{3,2,1,0}, f32[64]{0}, f32[64]{0}) batch-norm-training(convolution.382, p70.363, p69.362), epsilon=1e-05, feature_index=1
  get-tuple-element.384 = f32[128,64,56,56]{3,2,1,0} get-tuple-element(batch-norm-training.383), index=0
  constant.391 = f32[] constant(0)
  broadcast.392 = f32[128,64,56,56]{3,2,1,0} broadcast(constant.391), dimensions={}
  maximum.393 = f32[128,64,56,56]{3,2,1,0} maximum(get-tuple-element.384, broadcast.392)
  p66.359 = f32[256,64,1,1]{3,2,1,0} parameter(66)
  convolution.394 = f32[128,256,56,56]{3,2,1,0} convolution(maximum.393, p66.359), window={size=1x1}, dim_labels=bf01_oi01->bf01
  p65.358 = f32[256]{0} parameter(65)
  p64.357 = f32[256]{0} parameter(64)
  batch-norm-training.395 = (f32[128,256,56,56]{3,2,1,0}, f32[256]{0}, f32[256]{0}) batch-norm-training(convolution.394, p65.358, p64.357), epsilon=1e-05, feature_index=1
  get-tuple-element.396 = f32[128,256,56,56]{3,2,1,0} get-tuple-element(batch-norm-training.395), index=0
  constant.110 = f32[] constant(1)
  reshape.111 = f32[1,1,1,1]{3,2,1,0} reshape(constant.110)
  broadcast.112 = f32[1,1,1,1]{3,2,1,0} broadcast(reshape.111), dimensions={0,1,2,3}
  reshape.113 = f32[] reshape(broadcast.112)
  broadcast.114 = f32[128,256,56,56]{3,2,1,0} broadcast(reshape.113), dimensions={}
  multiply.354 = f32[128,256,56,56]{3,2,1,0} multiply(maximum.353, broadcast.114)
  add.403 = f32[128,256,56,56]{3,2,1,0} add(get-tuple-element.396, multiply.354)
  constant.404 = f32[] constant(0)
  broadcast.405 = f32[128,256,56,56]{3,2,1,0} broadcast(constant.404), dimensions={}
  maximum.406 = f32[128,256,56,56]{3,2,1,0} maximum(add.403, broadcast.405)
  p91.431 = f32[128,256,1,1]{3,2,1,0} parameter(91)
  convolution.432 = f32[128,128,56,56]{3,2,1,0} convolution(maximum.406, p91.431), window={size=1x1}, dim_labels=bf01_oi01->bf01
  p90.430 = f32[128]{0} parameter(90)
  p89.429 = f32[128]{0} parameter(89)
  batch-norm-training.433 = (f32[128,128,56,56]{3,2,1,0}, f32[128]{0}, f32[128]{0}) batch-norm-training(convolution.432, p90.430, p89.429), epsilon=1e-05, feature_index=1
  get-tuple-element.434 = f32[128,128,56,56]{3,2,1,0} get-tuple-element(batch-norm-training.433), index=0
  constant.441 = f32[] constant(0)
  broadcast.442 = f32[128,128,56,56]{3,2,1,0} broadcast(constant.441), dimensions={}
  maximum.443 = f32[128,128,56,56]{3,2,1,0} maximum(get-tuple-element.434, broadcast.442)
  p86.426 = f32[128,128,3,3]{3,2,1,0} parameter(86)
  convolution.444 = f32[128,128,28,28]{3,2,1,0} convolution(maximum.443, p86.426), window={size=3x3 stride=2x2 pad=1_1x1_1}, dim_labels=bf01_oi01->bf01
  p85.425 = f32[128]{0} parameter(85)
  p84.424 = f32[128]{0} parameter(84)
  batch-norm-training.445 = (f32[128,128,28,28]{3,2,1,0}, f32[128]{0}, f32[128]{0}) batch-norm-training(convolution.444, p85.425, p84.424), epsilon=1e-05, feature_index=1
  get-tuple-element.446 = f32[128,128,28,28]{3,2,1,0} get-tuple-element(batch-norm-training.445), index=0
  constant.453 = f32[] constant(0)
  broadcast.454 = f32[128,128,28,28]{3,2,1,0} broadcast(constant.453), dimensions={}
  maximum.455 = f32[128,128,28,28]{3,2,1,0} maximum(get-tuple-element.446, broadcast.454)
  p81.421 = f32[512,128,1,1]{3,2,1,0} parameter(81)
  convolution.456 = f32[128,512,28,28]{3,2,1,0} convolution(maximum.455, p81.421), window={size=1x1}, dim_labels=bf01_oi01->bf01
  p80.420 = f32[512]{0} parameter(80)
  p79.419 = f32[512]{0} parameter(79)
  batch-norm-training.457 = (f32[128,512,28,28]{3,2,1,0}, f32[512]{0}, f32[512]{0}) batch-norm-training(convolution.456, p80.420, p79.419), epsilon=1e-05, feature_index=1
  get-tuple-element.458 = f32[128,512,28,28]{3,2,1,0} get-tuple-element(batch-norm-training.457), index=0
  p20.109 = f32[512,256,1,1]{3,2,1,0} parameter(20)
  convolution.407 = f32[128,512,28,28]{3,2,1,0} convolution(maximum.406, p20.109), window={size=1x1 stride=2x2}, dim_labels=bf01_oi01->bf01
  p19.108 = f32[512]{0} parameter(19)
  p18.107 = f32[512]{0} parameter(18)
  batch-norm-training.408 = (f32[128,512,28,28]{3,2,1,0}, f32[512]{0}, f32[512]{0}) batch-norm-training(convolution.407, p19.108, p18.107), epsilon=1e-05, feature_index=1
  get-tuple-element.409 = f32[128,512,28,28]{3,2,1,0} get-tuple-element(batch-norm-training.408), index=0
  constant.100 = f32[] constant(1)
  reshape.101 = f32[1,1,1,1]{3,2,1,0} reshape(constant.100)
  broadcast.102 = f32[1,1,1,1]{3,2,1,0} broadcast(reshape.101), dimensions={0,1,2,3}
  reshape.103 = f32[] reshape(broadcast.102)
  broadcast.104 = f32[128,512,28,28]{3,2,1,0} broadcast(reshape.103), dimensions={}
  multiply.416 = f32[128,512,28,28]{3,2,1,0} multiply(get-tuple-element.409, broadcast.104)
  add.465 = f32[128,512,28,28]{3,2,1,0} add(get-tuple-element.458, multiply.416)
  constant.466 = f32[] constant(0)
  broadcast.467 = f32[128,512,28,28]{3,2,1,0} broadcast(constant.466), dimensions={}
  maximum.468 = f32[128,512,28,28]{3,2,1,0} maximum(add.465, broadcast.467)
  p106.484 = f32[128,512,1,1]{3,2,1,0} parameter(106)
  convolution.485 = f32[128,128,28,28]{3,2,1,0} convolution(maximum.468, p106.484), window={size=1x1}, dim_labels=bf01_oi01->bf01
  p105.483 = f32[128]{0} parameter(105)
  p104.482 = f32[128]{0} parameter(104)
  batch-norm-training.486 = (f32[128,128,28,28]{3,2,1,0}, f32[128]{0}, f32[128]{0}) batch-norm-training(convolution.485, p105.483, p104.482), epsilon=1e-05, feature_index=1
  get-tuple-element.487 = f32[128,128,28,28]{3,2,1,0} get-tuple-element(batch-norm-training.486), index=0
  constant.494 = f32[] constant(0)
  broadcast.495 = f32[128,128,28,28]{3,2,1,0} broadcast(constant.494), dimensions={}
  maximum.496 = f32[128,128,28,28]{3,2,1,0} maximum(get-tuple-element.487, broadcast.495)
  p101.479 = f32[128,128,3,3]{3,2,1,0} parameter(101)
  convolution.497 = f32[128,128,28,28]{3,2,1,0} convolution(maximum.496, p101.479), window={size=3x3 pad=1_1x1_1}, dim_labels=bf01_oi01->bf01
  p100.478 = f32[128]{0} parameter(100)
  p99.477 = f32[128]{0} parameter(99)
  batch-norm-training.498 = (f32[128,128,28,28]{3,2,1,0}, f32[128]{0}, f32[128]{0}) batch-norm-training(convolution.497, p100.478, p99.477), epsilon=1e-05, feature_index=1
  get-tuple-element.499 = f32[128,128,28,28]{3,2,1,0} get-tuple-element(batch-norm-training.498), index=0
  constant.506 = f32[] constant(0)
  broadcast.507 = f32[128,128,28,28]{3,2,1,0} broadcast(constant.506), dimensions={}
  maximum.508 = f32[128,128,28,28]{3,2,1,0} maximum(get-tuple-element.499, broadcast.507)
  p96.474 = f32[512,128,1,1]{3,2,1,0} parameter(96)
  convolution.509 = f32[128,512,28,28]{3,2,1,0} convolution(maximum.508, p96.474), window={size=1x1}, dim_labels=bf01_oi01->bf01
  p95.473 = f32[512]{0} parameter(95)
  p94.472 = f32[512]{0} parameter(94)
  batch-norm-training.510 = (f32[128,512,28,28]{3,2,1,0}, f32[512]{0}, f32[512]{0}) batch-norm-training(convolution.509, p95.473, p94.472), epsilon=1e-05, feature_index=1
  get-tuple-element.511 = f32[128,512,28,28]{3,2,1,0} get-tuple-element(batch-norm-training.510), index=0
  constant.95 = f32[] constant(1)
  reshape.96 = f32[1,1,1,1]{3,2,1,0} reshape(constant.95)
  broadcast.97 = f32[1,1,1,1]{3,2,1,0} broadcast(reshape.96), dimensions={0,1,2,3}
  reshape.98 = f32[] reshape(broadcast.97)
  broadcast.99 = f32[128,512,28,28]{3,2,1,0} broadcast(reshape.98), dimensions={}
  multiply.469 = f32[128,512,28,28]{3,2,1,0} multiply(maximum.468, broadcast.99)
  add.518 = f32[128,512,28,28]{3,2,1,0} add(get-tuple-element.511, multiply.469)
  constant.519 = f32[] constant(0)
  broadcast.520 = f32[128,512,28,28]{3,2,1,0} broadcast(constant.519), dimensions={}
  maximum.521 = f32[128,512,28,28]{3,2,1,0} maximum(add.518, broadcast.520)
  p121.537 = f32[128,512,1,1]{3,2,1,0} parameter(121)
  convolution.538 = f32[128,128,28,28]{3,2,1,0} convolution(maximum.521, p121.537), window={size=1x1}, dim_labels=bf01_oi01->bf01
  p120.536 = f32[128]{0} parameter(120)
  p119.535 = f32[128]{0} parameter(119)
  batch-norm-training.539 = (f32[128,128,28,28]{3,2,1,0}, f32[128]{0}, f32[128]{0}) batch-norm-training(convolution.538, p120.536, p119.535), epsilon=1e-05, feature_index=1
  get-tuple-element.540 = f32[128,128,28,28]{3,2,1,0} get-tuple-element(batch-norm-training.539), index=0
  constant.547 = f32[] constant(0)
  broadcast.548 = f32[128,128,28,28]{3,2,1,0} broadcast(constant.547), dimensions={}
  maximum.549 = f32[128,128,28,28]{3,2,1,0} maximum(get-tuple-element.540, broadcast.548)
  p116.532 = f32[128,128,3,3]{3,2,1,0} parameter(116)
  convolution.550 = f32[128,128,28,28]{3,2,1,0} convolution(maximum.549, p116.532), window={size=3x3 pad=1_1x1_1}, dim_labels=bf01_oi01->bf01
  p115.531 = f32[128]{0} parameter(115)
  p114.530 = f32[128]{0} parameter(114)
  batch-norm-training.551 = (f32[128,128,28,28]{3,2,1,0}, f32[128]{0}, f32[128]{0}) batch-norm-training(convolution.550, p115.531, p114.530), epsilon=1e-05, feature_index=1
  get-tuple-element.552 = f32[128,128,28,28]{3,2,1,0} get-tuple-element(batch-norm-training.551), index=0
  constant.559 = f32[] constant(0)
  broadcast.560 = f32[128,128,28,28]{3,2,1,0} broadcast(constant.559), dimensions={}
  maximum.561 = f32[128,128,28,28]{3,2,1,0} maximum(get-tuple-element.552, broadcast.560)
  p111.527 = f32[512,128,1,1]{3,2,1,0} parameter(111)
  convolution.562 = f32[128,512,28,28]{3,2,1,0} convolution(maximum.561, p111.527), window={size=1x1}, dim_labels=bf01_oi01->bf01
  p110.526 = f32[512]{0} parameter(110)
  p109.525 = f32[512]{0} parameter(109)
  batch-norm-training.563 = (f32[128,512,28,28]{3,2,1,0}, f32[512]{0}, f32[512]{0}) batch-norm-training(convolution.562, p110.526, p109.525), epsilon=1e-05, feature_index=1
  get-tuple-element.564 = f32[128,512,28,28]{3,2,1,0} get-tuple-element(batch-norm-training.563), index=0
  constant.90 = f32[] constant(1)
  reshape.91 = f32[1,1,1,1]{3,2,1,0} reshape(constant.90)
  broadcast.92 = f32[1,1,1,1]{3,2,1,0} broadcast(reshape.91), dimensions={0,1,2,3}
  reshape.93 = f32[] reshape(broadcast.92)
  broadcast.94 = f32[128,512,28,28]{3,2,1,0} broadcast(reshape.93), dimensions={}
  multiply.522 = f32[128,512,28,28]{3,2,1,0} multiply(maximum.521, broadcast.94)
  add.571 = f32[128,512,28,28]{3,2,1,0} add(get-tuple-element.564, multiply.522)
  constant.572 = f32[] constant(0)
  broadcast.573 = f32[128,512,28,28]{3,2,1,0} broadcast(constant.572), dimensions={}
  maximum.574 = f32[128,512,28,28]{3,2,1,0} maximum(add.571, broadcast.573)
  p136.590 = f32[128,512,1,1]{3,2,1,0} parameter(136)
  convolution.591 = f32[128,128,28,28]{3,2,1,0} convolution(maximum.574, p136.590), window={size=1x1}, dim_labels=bf01_oi01->bf01
  p135.589 = f32[128]{0} parameter(135)
  p134.588 = f32[128]{0} parameter(134)
  batch-norm-training.592 = (f32[128,128,28,28]{3,2,1,0}, f32[128]{0}, f32[128]{0}) batch-norm-training(convolution.591, p135.589, p134.588), epsilon=1e-05, feature_index=1
  get-tuple-element.593 = f32[128,128,28,28]{3,2,1,0} get-tuple-element(batch-norm-training.592), index=0
  constant.600 = f32[] constant(0)
  broadcast.601 = f32[128,128,28,28]{3,2,1,0} broadcast(constant.600), dimensions={}
  maximum.602 = f32[128,128,28,28]{3,2,1,0} maximum(get-tuple-element.593, broadcast.601)
  p131.585 = f32[128,128,3,3]{3,2,1,0} parameter(131)
  convolution.603 = f32[128,128,28,28]{3,2,1,0} convolution(maximum.602, p131.585), window={size=3x3 pad=1_1x1_1}, dim_labels=bf01_oi01->bf01
  p130.584 = f32[128]{0} parameter(130)
  p129.583 = f32[128]{0} parameter(129)
  batch-norm-training.604 = (f32[128,128,28,28]{3,2,1,0}, f32[128]{0}, f32[128]{0}) batch-norm-training(convolution.603, p130.584, p129.583), epsilon=1e-05, feature_index=1
  get-tuple-element.605 = f32[128,128,28,28]{3,2,1,0} get-tuple-element(batch-norm-training.604), index=0
  constant.612 = f32[] constant(0)
  broadcast.613 = f32[128,128,28,28]{3,2,1,0} broadcast(constant.612), dimensions={}
  maximum.614 = f32[128,128,28,28]{3,2,1,0} maximum(get-tuple-element.605, broadcast.613)
  p126.580 = f32[512,128,1,1]{3,2,1,0} parameter(126)
  convolution.615 = f32[128,512,28,28]{3,2,1,0} convolution(maximum.614, p126.580), window={size=1x1}, dim_labels=bf01_oi01->bf01
  p125.579 = f32[512]{0} parameter(125)
  p124.578 = f32[512]{0} parameter(124)
  batch-norm-training.616 = (f32[128,512,28,28]{3,2,1,0}, f32[512]{0}, f32[512]{0}) batch-norm-training(convolution.615, p125.579, p124.578), epsilon=1e-05, feature_index=1
  get-tuple-element.617 = f32[128,512,28,28]{3,2,1,0} get-tuple-element(batch-norm-training.616), index=0
  constant.85 = f32[] constant(1)
  reshape.86 = f32[1,1,1,1]{3,2,1,0} reshape(constant.85)
  broadcast.87 = f32[1,1,1,1]{3,2,1,0} broadcast(reshape.86), dimensions={0,1,2,3}
  reshape.88 = f32[] reshape(broadcast.87)
  broadcast.89 = f32[128,512,28,28]{3,2,1,0} broadcast(reshape.88), dimensions={}
  multiply.575 = f32[128,512,28,28]{3,2,1,0} multiply(maximum.574, broadcast.89)
  add.624 = f32[128,512,28,28]{3,2,1,0} add(get-tuple-element.617, multiply.575)
  constant.625 = f32[] constant(0)
  broadcast.626 = f32[128,512,28,28]{3,2,1,0} broadcast(constant.625), dimensions={}
  maximum.627 = f32[128,512,28,28]{3,2,1,0} maximum(add.624, broadcast.626)
  p151.652 = f32[256,512,1,1]{3,2,1,0} parameter(151)
  convolution.653 = f32[128,256,28,28]{3,2,1,0} convolution(maximum.627, p151.652), window={size=1x1}, dim_labels=bf01_oi01->bf01
  p150.651 = f32[256]{0} parameter(150)
  p149.650 = f32[256]{0} parameter(149)
  batch-norm-training.654 = (f32[128,256,28,28]{3,2,1,0}, f32[256]{0}, f32[256]{0}) batch-norm-training(convolution.653, p150.651, p149.650), epsilon=1e-05, feature_index=1
  get-tuple-element.655 = f32[128,256,28,28]{3,2,1,0} get-tuple-element(batch-norm-training.654), index=0
  constant.662 = f32[] constant(0)
  broadcast.663 = f32[128,256,28,28]{3,2,1,0} broadcast(constant.662), dimensions={}
  maximum.664 = f32[128,256,28,28]{3,2,1,0} maximum(get-tuple-element.655, broadcast.663)
  p146.647 = f32[256,256,3,3]{3,2,1,0} parameter(146)
  convolution.665 = f32[128,256,14,14]{3,2,1,0} convolution(maximum.664, p146.647), window={size=3x3 stride=2x2 pad=1_1x1_1}, dim_labels=bf01_oi01->bf01
  p145.646 = f32[256]{0} parameter(145)
  p144.645 = f32[256]{0} parameter(144)
  batch-norm-training.666 = (f32[128,256,14,14]{3,2,1,0}, f32[256]{0}, f32[256]{0}) batch-norm-training(convolution.665, p145.646, p144.645), epsilon=1e-05, feature_index=1
  get-tuple-element.667 = f32[128,256,14,14]{3,2,1,0} get-tuple-element(batch-norm-training.666), index=0
  constant.674 = f32[] constant(0)
  broadcast.675 = f32[128,256,14,14]{3,2,1,0} broadcast(constant.674), dimensions={}
  maximum.676 = f32[128,256,14,14]{3,2,1,0} maximum(get-tuple-element.667, broadcast.675)
  p141.642 = f32[1024,256,1,1]{3,2,1,0} parameter(141)
  convolution.677 = f32[128,1024,14,14]{3,2,1,0} convolution(maximum.676, p141.642), window={size=1x1}, dim_labels=bf01_oi01->bf01
  p140.641 = f32[1024]{0} parameter(140)
  p139.640 = f32[1024]{0} parameter(139)
  batch-norm-training.678 = (f32[128,1024,14,14]{3,2,1,0}, f32[1024]{0}, f32[1024]{0}) batch-norm-training(convolution.677, p140.641, p139.640), epsilon=1e-05, feature_index=1
  get-tuple-element.679 = f32[128,1024,14,14]{3,2,1,0} get-tuple-element(batch-norm-training.678), index=0
  p15.84 = f32[1024,512,1,1]{3,2,1,0} parameter(15)
  convolution.628 = f32[128,1024,14,14]{3,2,1,0} convolution(maximum.627, p15.84), window={size=1x1 stride=2x2}, dim_labels=bf01_oi01->bf01
  p14.83 = f32[1024]{0} parameter(14)
  p13.82 = f32[1024]{0} parameter(13)
  batch-norm-training.629 = (f32[128,1024,14,14]{3,2,1,0}, f32[1024]{0}, f32[1024]{0}) batch-norm-training(convolution.628, p14.83, p13.82), epsilon=1e-05, feature_index=1
  get-tuple-element.630 = f32[128,1024,14,14]{3,2,1,0} get-tuple-element(batch-norm-training.629), index=0
  constant.75 = f32[] constant(1)
  reshape.76 = f32[1,1,1,1]{3,2,1,0} reshape(constant.75)
  broadcast.77 = f32[1,1,1,1]{3,2,1,0} broadcast(reshape.76), dimensions={0,1,2,3}
  reshape.78 = f32[] reshape(broadcast.77)
  broadcast.79 = f32[128,1024,14,14]{3,2,1,0} broadcast(reshape.78), dimensions={}
  multiply.637 = f32[128,1024,14,14]{3,2,1,0} multiply(get-tuple-element.630, broadcast.79)
  add.686 = f32[128,1024,14,14]{3,2,1,0} add(get-tuple-element.679, multiply.637)
  constant.687 = f32[] constant(0)
  broadcast.688 = f32[128,1024,14,14]{3,2,1,0} broadcast(constant.687), dimensions={}
  maximum.689 = f32[128,1024,14,14]{3,2,1,0} maximum(add.686, broadcast.688)
  p166.705 = f32[256,1024,1,1]{3,2,1,0} parameter(166)
  convolution.706 = f32[128,256,14,14]{3,2,1,0} convolution(maximum.689, p166.705), window={size=1x1}, dim_labels=bf01_oi01->bf01
  p165.704 = f32[256]{0} parameter(165)
  p164.703 = f32[256]{0} parameter(164)
  batch-norm-training.707 = (f32[128,256,14,14]{3,2,1,0}, f32[256]{0}, f32[256]{0}) batch-norm-training(convolution.706, p165.704, p164.703), epsilon=1e-05, feature_index=1
  get-tuple-element.708 = f32[128,256,14,14]{3,2,1,0} get-tuple-element(batch-norm-training.707), index=0
  constant.715 = f32[] constant(0)
  broadcast.716 = f32[128,256,14,14]{3,2,1,0} broadcast(constant.715), dimensions={}
  maximum.717 = f32[128,256,14,14]{3,2,1,0} maximum(get-tuple-element.708, broadcast.716)
  p161.700 = f32[256,256,3,3]{3,2,1,0} parameter(161)
  convolution.718 = f32[128,256,14,14]{3,2,1,0} convolution(maximum.717, p161.700), window={size=3x3 pad=1_1x1_1}, dim_labels=bf01_oi01->bf01
  p160.699 = f32[256]{0} parameter(160)
  p159.698 = f32[256]{0} parameter(159)
  batch-norm-training.719 = (f32[128,256,14,14]{3,2,1,0}, f32[256]{0}, f32[256]{0}) batch-norm-training(convolution.718, p160.699, p159.698), epsilon=1e-05, feature_index=1
  get-tuple-element.720 = f32[128,256,14,14]{3,2,1,0} get-tuple-element(batch-norm-training.719), index=0
  constant.727 = f32[] constant(0)
  broadcast.728 = f32[128,256,14,14]{3,2,1,0} broadcast(constant.727), dimensions={}
  maximum.729 = f32[128,256,14,14]{3,2,1,0} maximum(get-tuple-element.720, broadcast.728)
  p156.695 = f32[1024,256,1,1]{3,2,1,0} parameter(156)
  convolution.730 = f32[128,1024,14,14]{3,2,1,0} convolution(maximum.729, p156.695), window={size=1x1}, dim_labels=bf01_oi01->bf01
  p155.694 = f32[1024]{0} parameter(155)
  p154.693 = f32[1024]{0} parameter(154)
  batch-norm-training.731 = (f32[128,1024,14,14]{3,2,1,0}, f32[1024]{0}, f32[1024]{0}) batch-norm-training(convolution.730, p155.694, p154.693), epsilon=1e-05, feature_index=1
  get-tuple-element.732 = f32[128,1024,14,14]{3,2,1,0} get-tuple-element(batch-norm-training.731), index=0
  constant.70 = f32[] constant(1)
  reshape.71 = f32[1,1,1,1]{3,2,1,0} reshape(constant.70)
  broadcast.72 = f32[1,1,1,1]{3,2,1,0} broadcast(reshape.71), dimensions={0,1,2,3}
  reshape.73 = f32[] reshape(broadcast.72)
  broadcast.74 = f32[128,1024,14,14]{3,2,1,0} broadcast(reshape.73), dimensions={}
  multiply.690 = f32[128,1024,14,14]{3,2,1,0} multiply(maximum.689, broadcast.74)
  add.739 = f32[128,1024,14,14]{3,2,1,0} add(get-tuple-element.732, multiply.690)
  constant.740 = f32[] constant(0)
  broadcast.741 = f32[128,1024,14,14]{3,2,1,0} broadcast(constant.740), dimensions={}
  maximum.742 = f32[128,1024,14,14]{3,2,1,0} maximum(add.739, broadcast.741)
  p181.758 = f32[256,1024,1,1]{3,2,1,0} parameter(181)
  convolution.759 = f32[128,256,14,14]{3,2,1,0} convolution(maximum.742, p181.758), window={size=1x1}, dim_labels=bf01_oi01->bf01
  p180.757 = f32[256]{0} parameter(180)
  p179.756 = f32[256]{0} parameter(179)
  batch-norm-training.760 = (f32[128,256,14,14]{3,2,1,0}, f32[256]{0}, f32[256]{0}) batch-norm-training(convolution.759, p180.757, p179.756), epsilon=1e-05, feature_index=1
  get-tuple-element.761 = f32[128,256,14,14]{3,2,1,0} get-tuple-element(batch-norm-training.760), index=0
  constant.768 = f32[] constant(0)
  broadcast.769 = f32[128,256,14,14]{3,2,1,0} broadcast(constant.768), dimensions={}
  maximum.770 = f32[128,256,14,14]{3,2,1,0} maximum(get-tuple-element.761, broadcast.769)
  p176.753 = f32[256,256,3,3]{3,2,1,0} parameter(176)
  convolution.771 = f32[128,256,14,14]{3,2,1,0} convolution(maximum.770, p176.753), window={size=3x3 pad=1_1x1_1}, dim_labels=bf01_oi01->bf01
  p175.752 = f32[256]{0} parameter(175)
  p174.751 = f32[256]{0} parameter(174)
  batch-norm-training.772 = (f32[128,256,14,14]{3,2,1,0}, f32[256]{0}, f32[256]{0}) batch-norm-training(convolution.771, p175.752, p174.751), epsilon=1e-05, feature_index=1
  get-tuple-element.773 = f32[128,256,14,14]{3,2,1,0} get-tuple-element(batch-norm-training.772), index=0
  constant.780 = f32[] constant(0)
  broadcast.781 = f32[128,256,14,14]{3,2,1,0} broadcast(constant.780), dimensions={}
  maximum.782 = f32[128,256,14,14]{3,2,1,0} maximum(get-tuple-element.773, broadcast.781)
  p171.748 = f32[1024,256,1,1]{3,2,1,0} parameter(171)
  convolution.783 = f32[128,1024,14,14]{3,2,1,0} convolution(maximum.782, p171.748), window={size=1x1}, dim_labels=bf01_oi01->bf01
  p170.747 = f32[1024]{0} parameter(170)
  p169.746 = f32[1024]{0} parameter(169)
  batch-norm-training.784 = (f32[128,1024,14,14]{3,2,1,0}, f32[1024]{0}, f32[1024]{0}) batch-norm-training(convolution.783, p170.747, p169.746), epsilon=1e-05, feature_index=1
  get-tuple-element.785 = f32[128,1024,14,14]{3,2,1,0} get-tuple-element(batch-norm-training.784), index=0
  constant.65 = f32[] constant(1)
  reshape.66 = f32[1,1,1,1]{3,2,1,0} reshape(constant.65)
  broadcast.67 = f32[1,1,1,1]{3,2,1,0} broadcast(reshape.66), dimensions={0,1,2,3}
  reshape.68 = f32[] reshape(broadcast.67)
  broadcast.69 = f32[128,1024,14,14]{3,2,1,0} broadcast(reshape.68), dimensions={}
  multiply.743 = f32[128,1024,14,14]{3,2,1,0} multiply(maximum.742, broadcast.69)
  add.792 = f32[128,1024,14,14]{3,2,1,0} add(get-tuple-element.785, multiply.743)
  constant.793 = f32[] constant(0)
  broadcast.794 = f32[128,1024,14,14]{3,2,1,0} broadcast(constant.793), dimensions={}
  maximum.795 = f32[128,1024,14,14]{3,2,1,0} maximum(add.792, broadcast.794)
  p196.811 = f32[256,1024,1,1]{3,2,1,0} parameter(196)
  convolution.812 = f32[128,256,14,14]{3,2,1,0} convolution(maximum.795, p196.811), window={size=1x1}, dim_labels=bf01_oi01->bf01
  p195.810 = f32[256]{0} parameter(195)
  p194.809 = f32[256]{0} parameter(194)
  batch-norm-training.813 = (f32[128,256,14,14]{3,2,1,0}, f32[256]{0}, f32[256]{0}) batch-norm-training(convolution.812, p195.810, p194.809), epsilon=1e-05, feature_index=1
  get-tuple-element.814 = f32[128,256,14,14]{3,2,1,0} get-tuple-element(batch-norm-training.813), index=0
  constant.821 = f32[] constant(0)
  broadcast.822 = f32[128,256,14,14]{3,2,1,0} broadcast(constant.821), dimensions={}
  maximum.823 = f32[128,256,14,14]{3,2,1,0} maximum(get-tuple-element.814, broadcast.822)
  p191.806 = f32[256,256,3,3]{3,2,1,0} parameter(191)
  convolution.824 = f32[128,256,14,14]{3,2,1,0} convolution(maximum.823, p191.806), window={size=3x3 pad=1_1x1_1}, dim_labels=bf01_oi01->bf01
  p190.805 = f32[256]{0} parameter(190)
  p189.804 = f32[256]{0} parameter(189)
  batch-norm-training.825 = (f32[128,256,14,14]{3,2,1,0}, f32[256]{0}, f32[256]{0}) batch-norm-training(convolution.824, p190.805, p189.804), epsilon=1e-05, feature_index=1
  get-tuple-element.826 = f32[128,256,14,14]{3,2,1,0} get-tuple-element(batch-norm-training.825), index=0
  constant.833 = f32[] constant(0)
  broadcast.834 = f32[128,256,14,14]{3,2,1,0} broadcast(constant.833), dimensions={}
  maximum.835 = f32[128,256,14,14]{3,2,1,0} maximum(get-tuple-element.826, broadcast.834)
  p186.801 = f32[1024,256,1,1]{3,2,1,0} parameter(186)
  convolution.836 = f32[128,1024,14,14]{3,2,1,0} convolution(maximum.835, p186.801), window={size=1x1}, dim_labels=bf01_oi01->bf01
  p185.800 = f32[1024]{0} parameter(185)
  p184.799 = f32[1024]{0} parameter(184)
  batch-norm-training.837 = (f32[128,1024,14,14]{3,2,1,0}, f32[1024]{0}, f32[1024]{0}) batch-norm-training(convolution.836, p185.800, p184.799), epsilon=1e-05, feature_index=1
  get-tuple-element.838 = f32[128,1024,14,14]{3,2,1,0} get-tuple-element(batch-norm-training.837), index=0
  constant.60 = f32[] constant(1)
  reshape.61 = f32[1,1,1,1]{3,2,1,0} reshape(constant.60)
  broadcast.62 = f32[1,1,1,1]{3,2,1,0} broadcast(reshape.61), dimensions={0,1,2,3}
  reshape.63 = f32[] reshape(broadcast.62)
  broadcast.64 = f32[128,1024,14,14]{3,2,1,0} broadcast(reshape.63), dimensions={}
  multiply.796 = f32[128,1024,14,14]{3,2,1,0} multiply(maximum.795, broadcast.64)
  add.845 = f32[128,1024,14,14]{3,2,1,0} add(get-tuple-element.838, multiply.796)
  constant.846 = f32[] constant(0)
  broadcast.847 = f32[128,1024,14,14]{3,2,1,0} broadcast(constant.846), dimensions={}
  maximum.848 = f32[128,1024,14,14]{3,2,1,0} maximum(add.845, broadcast.847)
  p211.864 = f32[256,1024,1,1]{3,2,1,0} parameter(211)
  convolution.865 = f32[128,256,14,14]{3,2,1,0} convolution(maximum.848, p211.864), window={size=1x1}, dim_labels=bf01_oi01->bf01
  p210.863 = f32[256]{0} parameter(210)
  p209.862 = f32[256]{0} parameter(209)
  batch-norm-training.866 = (f32[128,256,14,14]{3,2,1,0}, f32[256]{0}, f32[256]{0}) batch-norm-training(convolution.865, p210.863, p209.862), epsilon=1e-05, feature_index=1
  get-tuple-element.867 = f32[128,256,14,14]{3,2,1,0} get-tuple-element(batch-norm-training.866), index=0
  constant.874 = f32[] constant(0)
  broadcast.875 = f32[128,256,14,14]{3,2,1,0} broadcast(constant.874), dimensions={}
  maximum.876 = f32[128,256,14,14]{3,2,1,0} maximum(get-tuple-element.867, broadcast.875)
  p206.859 = f32[256,256,3,3]{3,2,1,0} parameter(206)
  convolution.877 = f32[128,256,14,14]{3,2,1,0} convolution(maximum.876, p206.859), window={size=3x3 pad=1_1x1_1}, dim_labels=bf01_oi01->bf01
  p205.858 = f32[256]{0} parameter(205)
  p204.857 = f32[256]{0} parameter(204)
  batch-norm-training.878 = (f32[128,256,14,14]{3,2,1,0}, f32[256]{0}, f32[256]{0}) batch-norm-training(convolution.877, p205.858, p204.857), epsilon=1e-05, feature_index=1
  get-tuple-element.879 = f32[128,256,14,14]{3,2,1,0} get-tuple-element(batch-norm-training.878), index=0
  constant.886 = f32[] constant(0)
  broadcast.887 = f32[128,256,14,14]{3,2,1,0} broadcast(constant.886), dimensions={}
  maximum.888 = f32[128,256,14,14]{3,2,1,0} maximum(get-tuple-element.879, broadcast.887)
  p201.854 = f32[1024,256,1,1]{3,2,1,0} parameter(201)
  convolution.889 = f32[128,1024,14,14]{3,2,1,0} convolution(maximum.888, p201.854), window={size=1x1}, dim_labels=bf01_oi01->bf01
  p200.853 = f32[1024]{0} parameter(200)
  p199.852 = f32[1024]{0} parameter(199)
  batch-norm-training.890 = (f32[128,1024,14,14]{3,2,1,0}, f32[1024]{0}, f32[1024]{0}) batch-norm-training(convolution.889, p200.853, p199.852), epsilon=1e-05, feature_index=1
  get-tuple-element.891 = f32[128,1024,14,14]{3,2,1,0} get-tuple-element(batch-norm-training.890), index=0
  constant.55 = f32[] constant(1)
  reshape.56 = f32[1,1,1,1]{3,2,1,0} reshape(constant.55)
  broadcast.57 = f32[1,1,1,1]{3,2,1,0} broadcast(reshape.56), dimensions={0,1,2,3}
  reshape.58 = f32[] reshape(broadcast.57)
  broadcast.59 = f32[128,1024,14,14]{3,2,1,0} broadcast(reshape.58), dimensions={}
  multiply.849 = f32[128,1024,14,14]{3,2,1,0} multiply(maximum.848, broadcast.59)
  add.898 = f32[128,1024,14,14]{3,2,1,0} add(get-tuple-element.891, multiply.849)
  constant.899 = f32[] constant(0)
  broadcast.900 = f32[128,1024,14,14]{3,2,1,0} broadcast(constant.899), dimensions={}
  maximum.901 = f32[128,1024,14,14]{3,2,1,0} maximum(add.898, broadcast.900)
  p226.917 = f32[256,1024,1,1]{3,2,1,0} parameter(226)
  convolution.918 = f32[128,256,14,14]{3,2,1,0} convolution(maximum.901, p226.917), window={size=1x1}, dim_labels=bf01_oi01->bf01
  p225.916 = f32[256]{0} parameter(225)
  p224.915 = f32[256]{0} parameter(224)
  batch-norm-training.919 = (f32[128,256,14,14]{3,2,1,0}, f32[256]{0}, f32[256]{0}) batch-norm-training(convolution.918, p225.916, p224.915), epsilon=1e-05, feature_index=1
  get-tuple-element.920 = f32[128,256,14,14]{3,2,1,0} get-tuple-element(batch-norm-training.919), index=0
  constant.927 = f32[] constant(0)
  broadcast.928 = f32[128,256,14,14]{3,2,1,0} broadcast(constant.927), dimensions={}
  maximum.929 = f32[128,256,14,14]{3,2,1,0} maximum(get-tuple-element.920, broadcast.928)
  p221.912 = f32[256,256,3,3]{3,2,1,0} parameter(221)
  convolution.930 = f32[128,256,14,14]{3,2,1,0} convolution(maximum.929, p221.912), window={size=3x3 pad=1_1x1_1}, dim_labels=bf01_oi01->bf01
  p220.911 = f32[256]{0} parameter(220)
  p219.910 = f32[256]{0} parameter(219)
  batch-norm-training.931 = (f32[128,256,14,14]{3,2,1,0}, f32[256]{0}, f32[256]{0}) batch-norm-training(convolution.930, p220.911, p219.910), epsilon=1e-05, feature_index=1
  get-tuple-element.932 = f32[128,256,14,14]{3,2,1,0} get-tuple-element(batch-norm-training.931), index=0
  constant.939 = f32[] constant(0)
  broadcast.940 = f32[128,256,14,14]{3,2,1,0} broadcast(constant.939), dimensions={}
  maximum.941 = f32[128,256,14,14]{3,2,1,0} maximum(get-tuple-element.932, broadcast.940)
  p216.907 = f32[1024,256,1,1]{3,2,1,0} parameter(216)
  convolution.942 = f32[128,1024,14,14]{3,2,1,0} convolution(maximum.941, p216.907), window={size=1x1}, dim_labels=bf01_oi01->bf01
  p215.906 = f32[1024]{0} parameter(215)
  p214.905 = f32[1024]{0} parameter(214)
  batch-norm-training.943 = (f32[128,1024,14,14]{3,2,1,0}, f32[1024]{0}, f32[1024]{0}) batch-norm-training(convolution.942, p215.906, p214.905), epsilon=1e-05, feature_index=1
  get-tuple-element.944 = f32[128,1024,14,14]{3,2,1,0} get-tuple-element(batch-norm-training.943), index=0
  constant.50 = f32[] constant(1)
  reshape.51 = f32[1,1,1,1]{3,2,1,0} reshape(constant.50)
  broadcast.52 = f32[1,1,1,1]{3,2,1,0} broadcast(reshape.51), dimensions={0,1,2,3}
  reshape.53 = f32[] reshape(broadcast.52)
  broadcast.54 = f32[128,1024,14,14]{3,2,1,0} broadcast(reshape.53), dimensions={}
  multiply.902 = f32[128,1024,14,14]{3,2,1,0} multiply(maximum.901, broadcast.54)
  add.951 = f32[128,1024,14,14]{3,2,1,0} add(get-tuple-element.944, multiply.902)
  constant.952 = f32[] constant(0)
  broadcast.953 = f32[128,1024,14,14]{3,2,1,0} broadcast(constant.952), dimensions={}
  maximum.954 = f32[128,1024,14,14]{3,2,1,0} maximum(add.951, broadcast.953)
  p241.979 = f32[512,1024,1,1]{3,2,1,0} parameter(241)
  convolution.980 = f32[128,512,14,14]{3,2,1,0} convolution(maximum.954, p241.979), window={size=1x1}, dim_labels=bf01_oi01->bf01
  p240.978 = f32[512]{0} parameter(240)
  p239.977 = f32[512]{0} parameter(239)
  batch-norm-training.981 = (f32[128,512,14,14]{3,2,1,0}, f32[512]{0}, f32[512]{0}) batch-norm-training(convolution.980, p240.978, p239.977), epsilon=1e-05, feature_index=1
  get-tuple-element.982 = f32[128,512,14,14]{3,2,1,0} get-tuple-element(batch-norm-training.981), index=0
  constant.989 = f32[] constant(0)
  broadcast.990 = f32[128,512,14,14]{3,2,1,0} broadcast(constant.989), dimensions={}
  maximum.991 = f32[128,512,14,14]{3,2,1,0} maximum(get-tuple-element.982, broadcast.990)
  p236.974 = f32[512,512,3,3]{3,2,1,0} parameter(236)
  convolution.992 = f32[128,512,7,7]{3,2,1,0} convolution(maximum.991, p236.974), window={size=3x3 stride=2x2 pad=1_1x1_1}, dim_labels=bf01_oi01->bf01
  p235.973 = f32[512]{0} parameter(235)
  p234.972 = f32[512]{0} parameter(234)
  batch-norm-training.993 = (f32[128,512,7,7]{3,2,1,0}, f32[512]{0}, f32[512]{0}) batch-norm-training(convolution.992, p235.973, p234.972), epsilon=1e-05, feature_index=1
  get-tuple-element.994 = f32[128,512,7,7]{3,2,1,0} get-tuple-element(batch-norm-training.993), index=0
  constant.1001 = f32[] constant(0)
  broadcast.1002 = f32[128,512,7,7]{3,2,1,0} broadcast(constant.1001), dimensions={}
  maximum.1003 = f32[128,512,7,7]{3,2,1,0} maximum(get-tuple-element.994, broadcast.1002)
  p231.969 = f32[2048,512,1,1]{3,2,1,0} parameter(231)
  convolution.1004 = f32[128,2048,7,7]{3,2,1,0} convolution(maximum.1003, p231.969), window={size=1x1}, dim_labels=bf01_oi01->bf01
  p230.968 = f32[2048]{0} parameter(230)
  p229.967 = f32[2048]{0} parameter(229)
  batch-norm-training.1005 = (f32[128,2048,7,7]{3,2,1,0}, f32[2048]{0}, f32[2048]{0}) batch-norm-training(convolution.1004, p230.968, p229.967), epsilon=1e-05, feature_index=1
  get-tuple-element.1006 = f32[128,2048,7,7]{3,2,1,0} get-tuple-element(batch-norm-training.1005), index=0
  p10.49 = f32[2048,1024,1,1]{3,2,1,0} parameter(10)
  convolution.955 = f32[128,2048,7,7]{3,2,1,0} convolution(maximum.954, p10.49), window={size=1x1 stride=2x2}, dim_labels=bf01_oi01->bf01
  p9.48 = f32[2048]{0} parameter(9)
  p8.47 = f32[2048]{0} parameter(8)
  batch-norm-training.956 = (f32[128,2048,7,7]{3,2,1,0}, f32[2048]{0}, f32[2048]{0}) batch-norm-training(convolution.955, p9.48, p8.47), epsilon=1e-05, feature_index=1
  get-tuple-element.957 = f32[128,2048,7,7]{3,2,1,0} get-tuple-element(batch-norm-training.956), index=0
  constant.40 = f32[] constant(1)
  reshape.41 = f32[1,1,1,1]{3,2,1,0} reshape(constant.40)
  broadcast.42 = f32[1,1,1,1]{3,2,1,0} broadcast(reshape.41), dimensions={0,1,2,3}
  reshape.43 = f32[] reshape(broadcast.42)
  broadcast.44 = f32[128,2048,7,7]{3,2,1,0} broadcast(reshape.43), dimensions={}
  multiply.964 = f32[128,2048,7,7]{3,2,1,0} multiply(get-tuple-element.957, broadcast.44)
  add.1013 = f32[128,2048,7,7]{3,2,1,0} add(get-tuple-element.1006, multiply.964)
  constant.1014 = f32[] constant(0)
  broadcast.1015 = f32[128,2048,7,7]{3,2,1,0} broadcast(constant.1014), dimensions={}
  maximum.1016 = f32[128,2048,7,7]{3,2,1,0} maximum(add.1013, broadcast.1015)
  p256.1032 = f32[512,2048,1,1]{3,2,1,0} parameter(256)
  convolution.1033 = f32[128,512,7,7]{3,2,1,0} convolution(maximum.1016, p256.1032), window={size=1x1}, dim_labels=bf01_oi01->bf01
  p255.1031 = f32[512]{0} parameter(255)
  p254.1030 = f32[512]{0} parameter(254)
  batch-norm-training.1034 = (f32[128,512,7,7]{3,2,1,0}, f32[512]{0}, f32[512]{0}) batch-norm-training(convolution.1033, p255.1031, p254.1030), epsilon=1e-05, feature_index=1
  get-tuple-element.1035 = f32[128,512,7,7]{3,2,1,0} get-tuple-element(batch-norm-training.1034), index=0
  constant.1042 = f32[] constant(0)
  broadcast.1043 = f32[128,512,7,7]{3,2,1,0} broadcast(constant.1042), dimensions={}
  maximum.1044 = f32[128,512,7,7]{3,2,1,0} maximum(get-tuple-element.1035, broadcast.1043)
  p251.1027 = f32[512,512,3,3]{3,2,1,0} parameter(251)
  convolution.1045 = f32[128,512,7,7]{3,2,1,0} convolution(maximum.1044, p251.1027), window={size=3x3 pad=1_1x1_1}, dim_labels=bf01_oi01->bf01
  p250.1026 = f32[512]{0} parameter(250)
  p249.1025 = f32[512]{0} parameter(249)
  batch-norm-training.1046 = (f32[128,512,7,7]{3,2,1,0}, f32[512]{0}, f32[512]{0}) batch-norm-training(convolution.1045, p250.1026, p249.1025), epsilon=1e-05, feature_index=1
  get-tuple-element.1047 = f32[128,512,7,7]{3,2,1,0} get-tuple-element(batch-norm-training.1046), index=0
  constant.1054 = f32[] constant(0)
  broadcast.1055 = f32[128,512,7,7]{3,2,1,0} broadcast(constant.1054), dimensions={}
  maximum.1056 = f32[128,512,7,7]{3,2,1,0} maximum(get-tuple-element.1047, broadcast.1055)
  p246.1022 = f32[2048,512,1,1]{3,2,1,0} parameter(246)
  convolution.1057 = f32[128,2048,7,7]{3,2,1,0} convolution(maximum.1056, p246.1022), window={size=1x1}, dim_labels=bf01_oi01->bf01
  p245.1021 = f32[2048]{0} parameter(245)
  p244.1020 = f32[2048]{0} parameter(244)
  batch-norm-training.1058 = (f32[128,2048,7,7]{3,2,1,0}, f32[2048]{0}, f32[2048]{0}) batch-norm-training(convolution.1057, p245.1021, p244.1020), epsilon=1e-05, feature_index=1
  get-tuple-element.1059 = f32[128,2048,7,7]{3,2,1,0} get-tuple-element(batch-norm-training.1058), index=0
  constant.35 = f32[] constant(1)
  reshape.36 = f32[1,1,1,1]{3,2,1,0} reshape(constant.35)
  broadcast.37 = f32[1,1,1,1]{3,2,1,0} broadcast(reshape.36), dimensions={0,1,2,3}
  reshape.38 = f32[] reshape(broadcast.37)
  broadcast.39 = f32[128,2048,7,7]{3,2,1,0} broadcast(reshape.38), dimensions={}
  multiply.1017 = f32[128,2048,7,7]{3,2,1,0} multiply(maximum.1016, broadcast.39)
  add.1066 = f32[128,2048,7,7]{3,2,1,0} add(get-tuple-element.1059, multiply.1017)
  constant.1067 = f32[] constant(0)
  broadcast.1068 = f32[128,2048,7,7]{3,2,1,0} broadcast(constant.1067), dimensions={}
  maximum.1069 = f32[128,2048,7,7]{3,2,1,0} maximum(add.1066, broadcast.1068)
  p271.1085 = f32[512,2048,1,1]{3,2,1,0} parameter(271)
  convolution.1086 = f32[128,512,7,7]{3,2,1,0} convolution(maximum.1069, p271.1085), window={size=1x1}, dim_labels=bf01_oi01->bf01
  p270.1084 = f32[512]{0} parameter(270)
  p269.1083 = f32[512]{0} parameter(269)
  batch-norm-training.1087 = (f32[128,512,7,7]{3,2,1,0}, f32[512]{0}, f32[512]{0}) batch-norm-training(convolution.1086, p270.1084, p269.1083), epsilon=1e-05, feature_index=1
  get-tuple-element.1088 = f32[128,512,7,7]{3,2,1,0} get-tuple-element(batch-norm-training.1087), index=0
  constant.1095 = f32[] constant(0)
  broadcast.1096 = f32[128,512,7,7]{3,2,1,0} broadcast(constant.1095), dimensions={}
  maximum.1097 = f32[128,512,7,7]{3,2,1,0} maximum(get-tuple-element.1088, broadcast.1096)
  p266.1080 = f32[512,512,3,3]{3,2,1,0} parameter(266)
  convolution.1098 = f32[128,512,7,7]{3,2,1,0} convolution(maximum.1097, p266.1080), window={size=3x3 pad=1_1x1_1}, dim_labels=bf01_oi01->bf01
  p265.1079 = f32[512]{0} parameter(265)
  p264.1078 = f32[512]{0} parameter(264)
  batch-norm-training.1099 = (f32[128,512,7,7]{3,2,1,0}, f32[512]{0}, f32[512]{0}) batch-norm-training(convolution.1098, p265.1079, p264.1078), epsilon=1e-05, feature_index=1
  get-tuple-element.1100 = f32[128,512,7,7]{3,2,1,0} get-tuple-element(batch-norm-training.1099), index=0
  constant.1107 = f32[] constant(0)
  broadcast.1108 = f32[128,512,7,7]{3,2,1,0} broadcast(constant.1107), dimensions={}
  maximum.1109 = f32[128,512,7,7]{3,2,1,0} maximum(get-tuple-element.1100, broadcast.1108)
  p261.1075 = f32[2048,512,1,1]{3,2,1,0} parameter(261)
  convolution.1110 = f32[128,2048,7,7]{3,2,1,0} convolution(maximum.1109, p261.1075), window={size=1x1}, dim_labels=bf01_oi01->bf01
  p260.1074 = f32[2048]{0} parameter(260)
  p259.1073 = f32[2048]{0} parameter(259)
  batch-norm-training.1111 = (f32[128,2048,7,7]{3,2,1,0}, f32[2048]{0}, f32[2048]{0}) batch-norm-training(convolution.1110, p260.1074, p259.1073), epsilon=1e-05, feature_index=1
  get-tuple-element.1113 = f32[2048]{0} get-tuple-element(batch-norm-training.1111), index=1
  constant.1266 = f32[] constant(1)
  broadcast.1267 = f32[2048]{0} broadcast(constant.1266), dimensions={}
  get-tuple-element.1114 = f32[2048]{0} get-tuple-element(batch-norm-training.1111), index=2
  constant.1115 = f32[] constant(1e-05)
  broadcast.1116 = f32[2048]{0} broadcast(constant.1115), dimensions={}
  add.1117 = f32[2048]{0} add(get-tuple-element.1114, broadcast.1116)
  rsqrt.1118 = f32[2048]{0} rsqrt(add.1117)
  divide.1268 = f32[2048]{0} divide(broadcast.1267, rsqrt.1118)
  multiply.1269 = f32[2048]{0} multiply(divide.1268, divide.1268)
  constant.1265 = f32[] constant(1e-05)
  broadcast.1270 = f32[2048]{0} broadcast(constant.1265), dimensions={}
  subtract.1271 = f32[2048]{0} subtract(multiply.1269, broadcast.1270)
  get-tuple-element.1112 = f32[128,2048,7,7]{3,2,1,0} get-tuple-element(batch-norm-training.1111), index=0
  constant.30 = f32[] constant(1)
  reshape.31 = f32[1,1,1,1]{3,2,1,0} reshape(constant.30)
  broadcast.32 = f32[1,1,1,1]{3,2,1,0} broadcast(reshape.31), dimensions={0,1,2,3}
  reshape.33 = f32[] reshape(broadcast.32)
  broadcast.34 = f32[128,2048,7,7]{3,2,1,0} broadcast(reshape.33), dimensions={}
  multiply.1070 = f32[128,2048,7,7]{3,2,1,0} multiply(maximum.1069, broadcast.34)
  add.1119 = f32[128,2048,7,7]{3,2,1,0} add(get-tuple-element.1112, multiply.1070)
  constant.1120 = f32[] constant(0)
  broadcast.1121 = f32[128,2048,7,7]{3,2,1,0} broadcast(constant.1120), dimensions={}
  maximum.1122 = f32[128,2048,7,7]{3,2,1,0} maximum(add.1119, broadcast.1121)
  constant.1259 = f32[] constant(0)
  broadcast.1262 = f32[128,2048,7,7]{3,2,1,0} broadcast(constant.1259), dimensions={}
  compare.1263 = pred[128,2048,7,7]{3,2,1,0} compare(maximum.1122, broadcast.1262), direction=GT
  p272.1165 = s64[128]{0} parameter(272)
  broadcast.1170 = s64[128,1000]{1,0} broadcast(p272.1165), dimensions={0}
  iota.1169 = s64[1,1000]{1,0} iota(), iota_dimension=1
  reshape.1171 = s64[1000]{0} reshape(iota.1169)
  broadcast.1172 = s64[128,1000]{1,0} broadcast(reshape.1171), dimensions={1}
  compare.1173 = pred[128,1000]{1,0} compare(broadcast.1170, broadcast.1172), direction=EQ
  constant.1168 = f32[] constant(1)
  broadcast.1175 = f32[128,1000]{1,0} broadcast(constant.1168), dimensions={}
  constant.1167 = f32[] constant(0)
  broadcast.1174 = f32[128,1000]{1,0} broadcast(constant.1167), dimensions={}
  select.1176 = f32[128,1000]{1,0} select(compare.1173, broadcast.1175, broadcast.1174)
  negate.1177 = f32[128,1000]{1,0} negate(select.1176)
  constant.1166 = f32[] constant(1)
  broadcast.1178 = f32[128,1000]{1,0} broadcast(constant.1166), dimensions={}
  multiply.1179 = f32[128,1000]{1,0} multiply(negate.1177, broadcast.1178)
  constant.1180 = s64[] constant(-100)
  broadcast.1181 = s64[128]{0} broadcast(constant.1180), dimensions={}
  compare.1182 = pred[128]{0} compare(p272.1165, broadcast.1181), direction=NE
  broadcast.1187 = pred[128,1000]{1,0} broadcast(compare.1182), dimensions={0}
  constant.1183 = f32[] constant(1)
  broadcast.1184 = f32[128,1000]{1,0} broadcast(constant.1183), dimensions={}
  constant.1185 = f32[] constant(0)
  broadcast.1186 = f32[128,1000]{1,0} broadcast(constant.1185), dimensions={}
  select.1188 = f32[128,1000]{1,0} select(broadcast.1187, broadcast.1184, broadcast.1186)
  multiply.1189 = f32[128,1000]{1,0} multiply(select.1188, select.1176)
  multiply.1199 = f32[128,1000]{1,0} multiply(multiply.1179, multiply.1189)
  constant.1190 = f32[] constant(0)
  reduce.1195 = f32[] reduce(multiply.1189, constant.1190), dimensions={0,1}, to_apply=AddComputation.1191
  compare.1197 = pred[] compare(reduce.1195, constant.1190), direction=NE
  constant.1196 = f32[] constant(1)
  select.1198 = f32[] select(compare.1197, reduce.1195, constant.1196)
  broadcast.1200 = f32[128,1000]{1,0} broadcast(select.1198), dimensions={}
  divide.1201 = f32[128,1000]{1,0} divide(multiply.1199, broadcast.1200)
  constant.1123 = f32[] constant(0)
  reduce.1129 = f32[128,2048]{1,0} reduce(maximum.1122, constant.1123), dimensions={3,2}, to_apply=AddComputation.1125
  constant.1124 = s32[] constant(49)
  constant.1130 = s32[] constant(0)
  compare.1135 = pred[] compare(constant.1124, constant.1130), direction=NE
  constant.1131 = f32[] constant(1)
  convert.1133 = f32[] convert(constant.1124)
  divide.1134 = f32[] divide(constant.1131, convert.1133)
  constant.1132 = f32[] constant(nan)
  select.1136 = f32[] select(compare.1135, divide.1134, constant.1132)
  broadcast.1137 = f32[128,2048]{1,0} broadcast(select.1136), dimensions={}
  multiply.1138 = f32[128,2048]{1,0} multiply(reduce.1129, broadcast.1137)
  reshape.1139 = f32[128,2048,1,1]{3,2,1,0} reshape(multiply.1138)
  reshape.1140 = f32[128,2048]{1,0} reshape(reshape.1139)
  p5.28 = f32[1000,2048]{1,0} parameter(5)
  transpose.29 = f32[2048,1000]{0,1} transpose(p5.28), dimensions={1,0}
  dot.1141 = f32[128,1000]{1,0} dot(reshape.1140, transpose.29), lhs_contracting_dims={1}, rhs_contracting_dims={0}
  p4.27 = f32[1000]{0} parameter(4)
  reshape.1142 = f32[1,1000]{1,0} reshape(p4.27)
  broadcast.1143 = f32[1,1000]{1,0} broadcast(reshape.1142), dimensions={0,1}
  reshape.1144 = f32[1000]{0} reshape(broadcast.1143)
  broadcast.1145 = f32[128,1000]{1,0} broadcast(reshape.1144), dimensions={1}
  add.1146 = f32[128,1000]{1,0} add(dot.1141, broadcast.1145)
  constant.1147 = f32[] constant(-inf)
  reduce.1152 = f32[128]{0} reduce(add.1146, constant.1147), dimensions={1}, to_apply=MaxComputation.1148
  broadcast.1153 = f32[128,1000]{1,0} broadcast(reduce.1152), dimensions={0}
  subtract.1154 = f32[128,1000]{1,0} subtract(add.1146, broadcast.1153)
  exponential.1155 = f32[128,1000]{1,0} exponential(subtract.1154)
  constant.1156 = f32[] constant(0)
  reduce.1161 = f32[128]{0} reduce(exponential.1155, constant.1156), dimensions={1}, to_apply=AddComputation.1157
  log.1162 = f32[128]{0} log(reduce.1161)
  broadcast.1163 = f32[128,1000]{1,0} broadcast(log.1162), dimensions={0}
  subtract.1164 = f32[128,1000]{1,0} subtract(subtract.1154, broadcast.1163)
  exponential.1208 = f32[128,1000]{1,0} exponential(subtract.1164)
  constant.1202 = f32[] constant(0)
  reduce.1207 = f32[128]{0} reduce(divide.1201, constant.1202), dimensions={1}, to_apply=AddComputation.1203
  broadcast.1209 = f32[128,1000]{1,0} broadcast(reduce.1207), dimensions={0}
  multiply.1210 = f32[128,1000]{1,0} multiply(exponential.1208, broadcast.1209)
  subtract.1211 = f32[128,1000]{1,0} subtract(divide.1201, multiply.1210)
  transpose.1250 = f32[2048,1000]{0,1} transpose(p5.28), dimensions={1,0}
  transpose.1251 = f32[1000,2048]{1,0} transpose(transpose.1250), dimensions={1,0}
  dot.1252 = f32[128,2048]{1,0} dot(subtract.1211, transpose.1251), lhs_contracting_dims={1}, rhs_contracting_dims={0}
  reshape.1253 = f32[128,2048,1,1]{3,2,1,0} reshape(dot.1252)
  broadcast.1254 = f32[128,2048,1,1]{3,2,1,0} broadcast(reshape.1253), dimensions={0,1,2,3}
  reshape.1255 = f32[128,2048]{1,0} reshape(broadcast.1254)
  broadcast.1256 = f32[128,2048,7,7]{3,2,1,0} broadcast(reshape.1255), dimensions={0,1}
  p273.1249 = f32[] parameter(273)
  broadcast.1257 = f32[128,2048,7,7]{3,2,1,0} broadcast(p273.1249), dimensions={}
  divide.1258 = f32[128,2048,7,7]{3,2,1,0} divide(broadcast.1256, broadcast.1257)
  constant.1260 = f32[] constant(0)
  broadcast.1261 = f32[128,2048,7,7]{3,2,1,0} broadcast(constant.1260), dimensions={}
  select.1264 = f32[128,2048,7,7]{3,2,1,0} select(compare.1263, divide.1258, broadcast.1261)
  batch-norm-grad.1272 = (f32[128,2048,7,7]{3,2,1,0}, f32[2048]{0}, f32[2048]{0}) batch-norm-grad(convolution.1110, p260.1074, get-tuple-element.1113, subtract.1271, select.1264), epsilon=1e-05, feature_index=1
  get-tuple-element.1273 = f32[128,2048,7,7]{3,2,1,0} get-tuple-element(batch-norm-grad.1272), index=0
  constant.1305 = f32[] constant(0)
  reduce.1310 = f32[2048]{0} reduce(get-tuple-element.1273, constant.1305), dimensions={0,2,3}, to_apply=AddComputation.1306
  get-tuple-element.1101 = f32[512]{0} get-tuple-element(batch-norm-training.1099), index=1
  constant.1330 = f32[] constant(1)
  broadcast.1331 = f32[512]{0} broadcast(constant.1330), dimensions={}
  get-tuple-element.1102 = f32[512]{0} get-tuple-element(batch-norm-training.1099), index=2
  constant.1103 = f32[] constant(1e-05)
  broadcast.1104 = f32[512]{0} broadcast(constant.1103), dimensions={}
  add.1105 = f32[512]{0} add(get-tuple-element.1102, broadcast.1104)
  rsqrt.1106 = f32[512]{0} rsqrt(add.1105)
  divide.1332 = f32[512]{0} divide(broadcast.1331, rsqrt.1106)
  multiply.1333 = f32[512]{0} multiply(divide.1332, divide.1332)
  constant.1329 = f32[] constant(1e-05)
  broadcast.1334 = f32[512]{0} broadcast(constant.1329), dimensions={}
  subtract.1335 = f32[512]{0} subtract(multiply.1333, broadcast.1334)
  constant.1323 = f32[] constant(0)
  broadcast.1326 = f32[128,512,7,7]{3,2,1,0} broadcast(constant.1323), dimensions={}
  compare.1327 = pred[128,512,7,7]{3,2,1,0} compare(maximum.1109, broadcast.1326), direction=GT
  transpose.1300 = f32[1,1,512,2048]{1,0,2,3} transpose(p261.1075), dimensions={2,3,1,0}
  reverse.1301 = f32[1,1,512,2048]{1,0,2,3} reverse(transpose.1300), dimensions={0,1}
  convolution.1302 = f32[128,512,7,7]{3,2,1,0} convolution(get-tuple-element.1273, reverse.1301), window={size=1x1}, dim_labels=bf01_01oi->bf01
  constant.1324 = f32[] constant(0)
  broadcast.1325 = f32[128,512,7,7]{3,2,1,0} broadcast(constant.1324), dimensions={}
  select.1328 = f32[128,512,7,7]{3,2,1,0} select(compare.1327, convolution.1302, broadcast.1325)
  batch-norm-grad.1336 = (f32[128,512,7,7]{3,2,1,0}, f32[512]{0}, f32[512]{0}) batch-norm-grad(convolution.1098, p265.1079, get-tuple-element.1101, subtract.1335, select.1328), epsilon=1e-05, feature_index=1
  get-tuple-element.1337 = f32[128,512,7,7]{3,2,1,0} get-tuple-element(batch-norm-grad.1336), index=0
  constant.1369 = f32[] constant(0)
  reduce.1374 = f32[512]{0} reduce(get-tuple-element.1337, constant.1369), dimensions={0,2,3}, to_apply=AddComputation.1370
  get-tuple-element.1089 = f32[512]{0} get-tuple-element(batch-norm-training.1087), index=1
  constant.1394 = f32[] constant(1)
  broadcast.1395 = f32[512]{0} broadcast(constant.1394), dimensions={}
  get-tuple-element.1090 = f32[512]{0} get-tuple-element(batch-norm-training.1087), index=2
  constant.1091 = f32[] constant(1e-05)
  broadcast.1092 = f32[512]{0} broadcast(constant.1091), dimensions={}
  add.1093 = f32[512]{0} add(get-tuple-element.1090, broadcast.1092)
  rsqrt.1094 = f32[512]{0} rsqrt(add.1093)
  divide.1396 = f32[512]{0} divide(broadcast.1395, rsqrt.1094)
  multiply.1397 = f32[512]{0} multiply(divide.1396, divide.1396)
  constant.1393 = f32[] constant(1e-05)
  broadcast.1398 = f32[512]{0} broadcast(constant.1393), dimensions={}
  subtract.1399 = f32[512]{0} subtract(multiply.1397, broadcast.1398)
  constant.1387 = f32[] constant(0)
  broadcast.1390 = f32[128,512,7,7]{3,2,1,0} broadcast(constant.1387), dimensions={}
  compare.1391 = pred[128,512,7,7]{3,2,1,0} compare(maximum.1097, broadcast.1390), direction=GT
  transpose.1364 = f32[3,3,512,512]{1,0,2,3} transpose(p266.1080), dimensions={2,3,1,0}
  reverse.1365 = f32[3,3,512,512]{1,0,2,3} reverse(transpose.1364), dimensions={0,1}
  convolution.1366 = f32[128,512,7,7]{3,2,1,0} convolution(get-tuple-element.1337, reverse.1365), window={size=3x3 pad=1_1x1_1}, dim_labels=bf01_01oi->bf01
  constant.1388 = f32[] constant(0)
  broadcast.1389 = f32[128,512,7,7]{3,2,1,0} broadcast(constant.1388), dimensions={}
  select.1392 = f32[128,512,7,7]{3,2,1,0} select(compare.1391, convolution.1366, broadcast.1389)
  batch-norm-grad.1400 = (f32[128,512,7,7]{3,2,1,0}, f32[512]{0}, f32[512]{0}) batch-norm-grad(convolution.1086, p270.1084, get-tuple-element.1089, subtract.1399, select.1392), epsilon=1e-05, feature_index=1
  get-tuple-element.1401 = f32[128,512,7,7]{3,2,1,0} get-tuple-element(batch-norm-grad.1400), index=0
  constant.1433 = f32[] constant(0)
  reduce.1438 = f32[512]{0} reduce(get-tuple-element.1401, constant.1433), dimensions={0,2,3}, to_apply=AddComputation.1434
  get-tuple-element.1060 = f32[2048]{0} get-tuple-element(batch-norm-training.1058), index=1
  constant.1465 = f32[] constant(1)
  broadcast.1466 = f32[2048]{0} broadcast(constant.1465), dimensions={}
  get-tuple-element.1061 = f32[2048]{0} get-tuple-element(batch-norm-training.1058), index=2
  constant.1062 = f32[] constant(1e-05)
  broadcast.1063 = f32[2048]{0} broadcast(constant.1062), dimensions={}
  add.1064 = f32[2048]{0} add(get-tuple-element.1061, broadcast.1063)
  rsqrt.1065 = f32[2048]{0} rsqrt(add.1064)
  divide.1467 = f32[2048]{0} divide(broadcast.1466, rsqrt.1065)
  multiply.1468 = f32[2048]{0} multiply(divide.1467, divide.1467)
  constant.1464 = f32[] constant(1e-05)
  broadcast.1469 = f32[2048]{0} broadcast(constant.1464), dimensions={}
  subtract.1470 = f32[2048]{0} subtract(multiply.1468, broadcast.1469)
  constant.1458 = f32[] constant(0)
  broadcast.1461 = f32[128,2048,7,7]{3,2,1,0} broadcast(constant.1458), dimensions={}
  compare.1462 = pred[128,2048,7,7]{3,2,1,0} compare(maximum.1069, broadcast.1461), direction=GT
  transpose.1428 = f32[1,1,2048,512]{1,0,2,3} transpose(p271.1085), dimensions={2,3,1,0}
  reverse.1429 = f32[1,1,2048,512]{1,0,2,3} reverse(transpose.1428), dimensions={0,1}
  convolution.1430 = f32[128,2048,7,7]{3,2,1,0} convolution(get-tuple-element.1401, reverse.1429), window={size=1x1}, dim_labels=bf01_01oi->bf01
  constant.1451 = f32[] constant(1)
  reshape.1452 = f32[1,1,1,1]{3,2,1,0} reshape(constant.1451)
  broadcast.1453 = f32[1,1,1,1]{3,2,1,0} broadcast(reshape.1452), dimensions={0,1,2,3}
  reshape.1454 = f32[] reshape(broadcast.1453)
  broadcast.1455 = f32[128,2048,7,7]{3,2,1,0} broadcast(reshape.1454), dimensions={}
  multiply.1456 = f32[128,2048,7,7]{3,2,1,0} multiply(convolution.1430, broadcast.1455)
  add.1457 = f32[128,2048,7,7]{3,2,1,0} add(select.1264, multiply.1456)
  constant.1459 = f32[] constant(0)
  broadcast.1460 = f32[128,2048,7,7]{3,2,1,0} broadcast(constant.1459), dimensions={}
  select.1463 = f32[128,2048,7,7]{3,2,1,0} select(compare.1462, add.1457, broadcast.1460)
  batch-norm-grad.1471 = (f32[128,2048,7,7]{3,2,1,0}, f32[2048]{0}, f32[2048]{0}) batch-norm-grad(convolution.1057, p245.1021, get-tuple-element.1060, subtract.1470, select.1463), epsilon=1e-05, feature_index=1
  get-tuple-element.1472 = f32[128,2048,7,7]{3,2,1,0} get-tuple-element(batch-norm-grad.1471), index=0
  constant.1504 = f32[] constant(0)
  reduce.1509 = f32[2048]{0} reduce(get-tuple-element.1472, constant.1504), dimensions={0,2,3}, to_apply=AddComputation.1505
  get-tuple-element.1048 = f32[512]{0} get-tuple-element(batch-norm-training.1046), index=1
  constant.1529 = f32[] constant(1)
  broadcast.1530 = f32[512]{0} broadcast(constant.1529), dimensions={}
  get-tuple-element.1049 = f32[512]{0} get-tuple-element(batch-norm-training.1046), index=2
  constant.1050 = f32[] constant(1e-05)
  broadcast.1051 = f32[512]{0} broadcast(constant.1050), dimensions={}
  add.1052 = f32[512]{0} add(get-tuple-element.1049, broadcast.1051)
  rsqrt.1053 = f32[512]{0} rsqrt(add.1052)
  divide.1531 = f32[512]{0} divide(broadcast.1530, rsqrt.1053)
  multiply.1532 = f32[512]{0} multiply(divide.1531, divide.1531)
  constant.1528 = f32[] constant(1e-05)
  broadcast.1533 = f32[512]{0} broadcast(constant.1528), dimensions={}
  subtract.1534 = f32[512]{0} subtract(multiply.1532, broadcast.1533)
  constant.1522 = f32[] constant(0)
  broadcast.1525 = f32[128,512,7,7]{3,2,1,0} broadcast(constant.1522), dimensions={}
  compare.1526 = pred[128,512,7,7]{3,2,1,0} compare(maximum.1056, broadcast.1525), direction=GT
  transpose.1499 = f32[1,1,512,2048]{1,0,2,3} transpose(p246.1022), dimensions={2,3,1,0}
  reverse.1500 = f32[1,1,512,2048]{1,0,2,3} reverse(transpose.1499), dimensions={0,1}
  convolution.1501 = f32[128,512,7,7]{3,2,1,0} convolution(get-tuple-element.1472, reverse.1500), window={size=1x1}, dim_labels=bf01_01oi->bf01
  constant.1523 = f32[] constant(0)
  broadcast.1524 = f32[128,512,7,7]{3,2,1,0} broadcast(constant.1523), dimensions={}
  select.1527 = f32[128,512,7,7]{3,2,1,0} select(compare.1526, convolution.1501, broadcast.1524)
  batch-norm-grad.1535 = (f32[128,512,7,7]{3,2,1,0}, f32[512]{0}, f32[512]{0}) batch-norm-grad(convolution.1045, p250.1026, get-tuple-element.1048, subtract.1534, select.1527), epsilon=1e-05, feature_index=1
  get-tuple-element.1536 = f32[128,512,7,7]{3,2,1,0} get-tuple-element(batch-norm-grad.1535), index=0
  constant.1568 = f32[] constant(0)
  reduce.1573 = f32[512]{0} reduce(get-tuple-element.1536, constant.1568), dimensions={0,2,3}, to_apply=AddComputation.1569
  get-tuple-element.1036 = f32[512]{0} get-tuple-element(batch-norm-training.1034), index=1
  constant.1593 = f32[] constant(1)
  broadcast.1594 = f32[512]{0} broadcast(constant.1593), dimensions={}
  get-tuple-element.1037 = f32[512]{0} get-tuple-element(batch-norm-training.1034), index=2
  constant.1038 = f32[] constant(1e-05)
  broadcast.1039 = f32[512]{0} broadcast(constant.1038), dimensions={}
  add.1040 = f32[512]{0} add(get-tuple-element.1037, broadcast.1039)
  rsqrt.1041 = f32[512]{0} rsqrt(add.1040)
  divide.1595 = f32[512]{0} divide(broadcast.1594, rsqrt.1041)
  multiply.1596 = f32[512]{0} multiply(divide.1595, divide.1595)
  constant.1592 = f32[] constant(1e-05)
  broadcast.1597 = f32[512]{0} broadcast(constant.1592), dimensions={}
  subtract.1598 = f32[512]{0} subtract(multiply.1596, broadcast.1597)
  constant.1586 = f32[] constant(0)
  broadcast.1589 = f32[128,512,7,7]{3,2,1,0} broadcast(constant.1586), dimensions={}
  compare.1590 = pred[128,512,7,7]{3,2,1,0} compare(maximum.1044, broadcast.1589), direction=GT
  transpose.1563 = f32[3,3,512,512]{1,0,2,3} transpose(p251.1027), dimensions={2,3,1,0}
  reverse.1564 = f32[3,3,512,512]{1,0,2,3} reverse(transpose.1563), dimensions={0,1}
  convolution.1565 = f32[128,512,7,7]{3,2,1,0} convolution(get-tuple-element.1536, reverse.1564), window={size=3x3 pad=1_1x1_1}, dim_labels=bf01_01oi->bf01
  constant.1587 = f32[] constant(0)
  broadcast.1588 = f32[128,512,7,7]{3,2,1,0} broadcast(constant.1587), dimensions={}
  select.1591 = f32[128,512,7,7]{3,2,1,0} select(compare.1590, convolution.1565, broadcast.1588)
  batch-norm-grad.1599 = (f32[128,512,7,7]{3,2,1,0}, f32[512]{0}, f32[512]{0}) batch-norm-grad(convolution.1033, p255.1031, get-tuple-element.1036, subtract.1598, select.1591), epsilon=1e-05, feature_index=1
  get-tuple-element.1600 = f32[128,512,7,7]{3,2,1,0} get-tuple-element(batch-norm-grad.1599), index=0
  constant.1632 = f32[] constant(0)
  reduce.1637 = f32[512]{0} reduce(get-tuple-element.1600, constant.1632), dimensions={0,2,3}, to_apply=AddComputation.1633
  get-tuple-element.958 = f32[2048]{0} get-tuple-element(batch-norm-training.956), index=1
  constant.1664 = f32[] constant(1)
  broadcast.1665 = f32[2048]{0} broadcast(constant.1664), dimensions={}
  get-tuple-element.959 = f32[2048]{0} get-tuple-element(batch-norm-training.956), index=2
  constant.960 = f32[] constant(1e-05)
  broadcast.961 = f32[2048]{0} broadcast(constant.960), dimensions={}
  add.962 = f32[2048]{0} add(get-tuple-element.959, broadcast.961)
  rsqrt.963 = f32[2048]{0} rsqrt(add.962)
  divide.1666 = f32[2048]{0} divide(broadcast.1665, rsqrt.963)
  multiply.1667 = f32[2048]{0} multiply(divide.1666, divide.1666)
  constant.1663 = f32[] constant(1e-05)
  broadcast.1668 = f32[2048]{0} broadcast(constant.1663), dimensions={}
  subtract.1669 = f32[2048]{0} subtract(multiply.1667, broadcast.1668)
  constant.1657 = f32[] constant(0)
  broadcast.1660 = f32[128,2048,7,7]{3,2,1,0} broadcast(constant.1657), dimensions={}
  compare.1661 = pred[128,2048,7,7]{3,2,1,0} compare(maximum.1016, broadcast.1660), direction=GT
  transpose.1627 = f32[1,1,2048,512]{1,0,2,3} transpose(p256.1032), dimensions={2,3,1,0}
  reverse.1628 = f32[1,1,2048,512]{1,0,2,3} reverse(transpose.1627), dimensions={0,1}
  convolution.1629 = f32[128,2048,7,7]{3,2,1,0} convolution(get-tuple-element.1600, reverse.1628), window={size=1x1}, dim_labels=bf01_01oi->bf01
  constant.1650 = f32[] constant(1)
  reshape.1651 = f32[1,1,1,1]{3,2,1,0} reshape(constant.1650)
  broadcast.1652 = f32[1,1,1,1]{3,2,1,0} broadcast(reshape.1651), dimensions={0,1,2,3}
  reshape.1653 = f32[] reshape(broadcast.1652)
  broadcast.1654 = f32[128,2048,7,7]{3,2,1,0} broadcast(reshape.1653), dimensions={}
  multiply.1655 = f32[128,2048,7,7]{3,2,1,0} multiply(convolution.1629, broadcast.1654)
  add.1656 = f32[128,2048,7,7]{3,2,1,0} add(select.1463, multiply.1655)
  constant.1658 = f32[] constant(0)
  broadcast.1659 = f32[128,2048,7,7]{3,2,1,0} broadcast(constant.1658), dimensions={}
  select.1662 = f32[128,2048,7,7]{3,2,1,0} select(compare.1661, add.1656, broadcast.1659)
  batch-norm-grad.1670 = (f32[128,2048,7,7]{3,2,1,0}, f32[2048]{0}, f32[2048]{0}) batch-norm-grad(convolution.955, p9.48, get-tuple-element.958, subtract.1669, select.1662), epsilon=1e-05, feature_index=1
  get-tuple-element.1671 = f32[128,2048,7,7]{3,2,1,0} get-tuple-element(batch-norm-grad.1670), index=0
  constant.1703 = f32[] constant(0)
  reduce.1708 = f32[2048]{0} reduce(get-tuple-element.1671, constant.1703), dimensions={0,2,3}, to_apply=AddComputation.1704
  get-tuple-element.1007 = f32[2048]{0} get-tuple-element(batch-norm-training.1005), index=1
  constant.1722 = f32[] constant(1)
  broadcast.1723 = f32[2048]{0} broadcast(constant.1722), dimensions={}
  get-tuple-element.1008 = f32[2048]{0} get-tuple-element(batch-norm-training.1005), index=2
  constant.1009 = f32[] constant(1e-05)
  broadcast.1010 = f32[2048]{0} broadcast(constant.1009), dimensions={}
  add.1011 = f32[2048]{0} add(get-tuple-element.1008, broadcast.1010)
  rsqrt.1012 = f32[2048]{0} rsqrt(add.1011)
  divide.1724 = f32[2048]{0} divide(broadcast.1723, rsqrt.1012)
  multiply.1725 = f32[2048]{0} multiply(divide.1724, divide.1724)
  constant.1721 = f32[] constant(1e-05)
  broadcast.1726 = f32[2048]{0} broadcast(constant.1721), dimensions={}
  subtract.1727 = f32[2048]{0} subtract(multiply.1725, broadcast.1726)
  batch-norm-grad.1728 = (f32[128,2048,7,7]{3,2,1,0}, f32[2048]{0}, f32[2048]{0}) batch-norm-grad(convolution.1004, p230.968, get-tuple-element.1007, subtract.1727, select.1662), epsilon=1e-05, feature_index=1
  get-tuple-element.1729 = f32[128,2048,7,7]{3,2,1,0} get-tuple-element(batch-norm-grad.1728), index=0
  constant.1761 = f32[] constant(0)
  reduce.1766 = f32[2048]{0} reduce(get-tuple-element.1729, constant.1761), dimensions={0,2,3}, to_apply=AddComputation.1762
  get-tuple-element.995 = f32[512]{0} get-tuple-element(batch-norm-training.993), index=1
  constant.1786 = f32[] constant(1)
  broadcast.1787 = f32[512]{0} broadcast(constant.1786), dimensions={}
  get-tuple-element.996 = f32[512]{0} get-tuple-element(batch-norm-training.993), index=2
  constant.997 = f32[] constant(1e-05)
  broadcast.998 = f32[512]{0} broadcast(constant.997), dimensions={}
  add.999 = f32[512]{0} add(get-tuple-element.996, broadcast.998)
  rsqrt.1000 = f32[512]{0} rsqrt(add.999)
  divide.1788 = f32[512]{0} divide(broadcast.1787, rsqrt.1000)
  multiply.1789 = f32[512]{0} multiply(divide.1788, divide.1788)
  constant.1785 = f32[] constant(1e-05)
  broadcast.1790 = f32[512]{0} broadcast(constant.1785), dimensions={}
  subtract.1791 = f32[512]{0} subtract(multiply.1789, broadcast.1790)
  constant.1779 = f32[] constant(0)
  broadcast.1782 = f32[128,512,7,7]{3,2,1,0} broadcast(constant.1779), dimensions={}
  compare.1783 = pred[128,512,7,7]{3,2,1,0} compare(maximum.1003, broadcast.1782), direction=GT
  transpose.1756 = f32[1,1,512,2048]{1,0,2,3} transpose(p231.969), dimensions={2,3,1,0}
  reverse.1757 = f32[1,1,512,2048]{1,0,2,3} reverse(transpose.1756), dimensions={0,1}
  convolution.1758 = f32[128,512,7,7]{3,2,1,0} convolution(get-tuple-element.1729, reverse.1757), window={size=1x1}, dim_labels=bf01_01oi->bf01
  constant.1780 = f32[] constant(0)
  broadcast.1781 = f32[128,512,7,7]{3,2,1,0} broadcast(constant.1780), dimensions={}
  select.1784 = f32[128,512,7,7]{3,2,1,0} select(compare.1783, convolution.1758, broadcast.1781)
  batch-norm-grad.1792 = (f32[128,512,7,7]{3,2,1,0}, f32[512]{0}, f32[512]{0}) batch-norm-grad(convolution.992, p235.973, get-tuple-element.995, subtract.1791, select.1784), epsilon=1e-05, feature_index=1
  get-tuple-element.1793 = f32[128,512,7,7]{3,2,1,0} get-tuple-element(batch-norm-grad.1792), index=0
  constant.1825 = f32[] constant(0)
  reduce.1830 = f32[512]{0} reduce(get-tuple-element.1793, constant.1825), dimensions={0,2,3}, to_apply=AddComputation.1826
  get-tuple-element.983 = f32[512]{0} get-tuple-element(batch-norm-training.981), index=1
  constant.1850 = f32[] constant(1)
  broadcast.1851 = f32[512]{0} broadcast(constant.1850), dimensions={}
  get-tuple-element.984 = f32[512]{0} get-tuple-element(batch-norm-training.981), index=2
  constant.985 = f32[] constant(1e-05)
  broadcast.986 = f32[512]{0} broadcast(constant.985), dimensions={}
  add.987 = f32[512]{0} add(get-tuple-element.984, broadcast.986)
  rsqrt.988 = f32[512]{0} rsqrt(add.987)
  divide.1852 = f32[512]{0} divide(broadcast.1851, rsqrt.988)
  multiply.1853 = f32[512]{0} multiply(divide.1852, divide.1852)
  constant.1849 = f32[] constant(1e-05)
  broadcast.1854 = f32[512]{0} broadcast(constant.1849), dimensions={}
  subtract.1855 = f32[512]{0} subtract(multiply.1853, broadcast.1854)
  constant.1843 = f32[] constant(0)
  broadcast.1846 = f32[128,512,14,14]{3,2,1,0} broadcast(constant.1843), dimensions={}
  compare.1847 = pred[128,512,14,14]{3,2,1,0} compare(maximum.991, broadcast.1846), direction=GT
  transpose.1820 = f32[3,3,512,512]{1,0,2,3} transpose(p236.974), dimensions={2,3,1,0}
  reverse.1821 = f32[3,3,512,512]{1,0,2,3} reverse(transpose.1820), dimensions={0,1}
  convolution.1822 = f32[128,512,14,14]{3,2,1,0} convolution(get-tuple-element.1793, reverse.1821), window={size=3x3 pad=1_2x1_2 lhs_dilate=2x2}, dim_labels=bf01_01oi->bf01
  constant.1844 = f32[] constant(0)
  broadcast.1845 = f32[128,512,14,14]{3,2,1,0} broadcast(constant.1844), dimensions={}
  select.1848 = f32[128,512,14,14]{3,2,1,0} select(compare.1847, convolution.1822, broadcast.1845)
  batch-norm-grad.1856 = (f32[128,512,14,14]{3,2,1,0}, f32[512]{0}, f32[512]{0}) batch-norm-grad(convolution.980, p240.978, get-tuple-element.983, subtract.1855, select.1848), epsilon=1e-05, feature_index=1
  get-tuple-element.1857 = f32[128,512,14,14]{3,2,1,0} get-tuple-element(batch-norm-grad.1856), index=0
  constant.1889 = f32[] constant(0)
  reduce.1894 = f32[512]{0} reduce(get-tuple-element.1857, constant.1889), dimensions={0,2,3}, to_apply=AddComputation.1890
  get-tuple-element.945 = f32[1024]{0} get-tuple-element(batch-norm-training.943), index=1
  constant.1921 = f32[] constant(1)
  broadcast.1922 = f32[1024]{0} broadcast(constant.1921), dimensions={}
  get-tuple-element.946 = f32[1024]{0} get-tuple-element(batch-norm-training.943), index=2
  constant.947 = f32[] constant(1e-05)
  broadcast.948 = f32[1024]{0} broadcast(constant.947), dimensions={}
  add.949 = f32[1024]{0} add(get-tuple-element.946, broadcast.948)
  rsqrt.950 = f32[1024]{0} rsqrt(add.949)
  divide.1923 = f32[1024]{0} divide(broadcast.1922, rsqrt.950)
  multiply.1924 = f32[1024]{0} multiply(divide.1923, divide.1923)
  constant.1920 = f32[] constant(1e-05)
  broadcast.1925 = f32[1024]{0} broadcast(constant.1920), dimensions={}
  subtract.1926 = f32[1024]{0} subtract(multiply.1924, broadcast.1925)
  constant.1914 = f32[] constant(0)
  broadcast.1917 = f32[128,1024,14,14]{3,2,1,0} broadcast(constant.1914), dimensions={}
  compare.1918 = pred[128,1024,14,14]{3,2,1,0} compare(maximum.954, broadcast.1917), direction=GT
  transpose.1698 = f32[1,1,1024,2048]{1,0,2,3} transpose(p10.49), dimensions={2,3,1,0}
  reverse.1699 = f32[1,1,1024,2048]{1,0,2,3} reverse(transpose.1698), dimensions={0,1}
  convolution.1700 = f32[128,1024,14,14]{3,2,1,0} convolution(get-tuple-element.1671, reverse.1699), window={size=1x1 pad=0_1x0_1 lhs_dilate=2x2}, dim_labels=bf01_01oi->bf01
  transpose.1884 = f32[1,1,1024,512]{1,0,2,3} transpose(p241.979), dimensions={2,3,1,0}
  reverse.1885 = f32[1,1,1024,512]{1,0,2,3} reverse(transpose.1884), dimensions={0,1}
  convolution.1886 = f32[128,1024,14,14]{3,2,1,0} convolution(get-tuple-element.1857, reverse.1885), window={size=1x1}, dim_labels=bf01_01oi->bf01
  constant.1907 = f32[] constant(1)
  reshape.1908 = f32[1,1,1,1]{3,2,1,0} reshape(constant.1907)
  broadcast.1909 = f32[1,1,1,1]{3,2,1,0} broadcast(reshape.1908), dimensions={0,1,2,3}
  reshape.1910 = f32[] reshape(broadcast.1909)
  broadcast.1911 = f32[128,1024,14,14]{3,2,1,0} broadcast(reshape.1910), dimensions={}
  multiply.1912 = f32[128,1024,14,14]{3,2,1,0} multiply(convolution.1886, broadcast.1911)
  add.1913 = f32[128,1024,14,14]{3,2,1,0} add(convolution.1700, multiply.1912)
  constant.1915 = f32[] constant(0)
  broadcast.1916 = f32[128,1024,14,14]{3,2,1,0} broadcast(constant.1915), dimensions={}
  select.1919 = f32[128,1024,14,14]{3,2,1,0} select(compare.1918, add.1913, broadcast.1916)
  batch-norm-grad.1927 = (f32[128,1024,14,14]{3,2,1,0}, f32[1024]{0}, f32[1024]{0}) batch-norm-grad(convolution.942, p215.906, get-tuple-element.945, subtract.1926, select.1919), epsilon=1e-05, feature_index=1
  get-tuple-element.1928 = f32[128,1024,14,14]{3,2,1,0} get-tuple-element(batch-norm-grad.1927), index=0
  constant.1960 = f32[] constant(0)
  reduce.1965 = f32[1024]{0} reduce(get-tuple-element.1928, constant.1960), dimensions={0,2,3}, to_apply=AddComputation.1961
  get-tuple-element.933 = f32[256]{0} get-tuple-element(batch-norm-training.931), index=1
  constant.1985 = f32[] constant(1)
  broadcast.1986 = f32[256]{0} broadcast(constant.1985), dimensions={}
  get-tuple-element.934 = f32[256]{0} get-tuple-element(batch-norm-training.931), index=2
  constant.935 = f32[] constant(1e-05)
  broadcast.936 = f32[256]{0} broadcast(constant.935), dimensions={}
  add.937 = f32[256]{0} add(get-tuple-element.934, broadcast.936)
  rsqrt.938 = f32[256]{0} rsqrt(add.937)
  divide.1987 = f32[256]{0} divide(broadcast.1986, rsqrt.938)
  multiply.1988 = f32[256]{0} multiply(divide.1987, divide.1987)
  constant.1984 = f32[] constant(1e-05)
  broadcast.1989 = f32[256]{0} broadcast(constant.1984), dimensions={}
  subtract.1990 = f32[256]{0} subtract(multiply.1988, broadcast.1989)
  constant.1978 = f32[] constant(0)
  broadcast.1981 = f32[128,256,14,14]{3,2,1,0} broadcast(constant.1978), dimensions={}
  compare.1982 = pred[128,256,14,14]{3,2,1,0} compare(maximum.941, broadcast.1981), direction=GT
  transpose.1955 = f32[1,1,256,1024]{1,0,2,3} transpose(p216.907), dimensions={2,3,1,0}
  reverse.1956 = f32[1,1,256,1024]{1,0,2,3} reverse(transpose.1955), dimensions={0,1}
  convolution.1957 = f32[128,256,14,14]{3,2,1,0} convolution(get-tuple-element.1928, reverse.1956), window={size=1x1}, dim_labels=bf01_01oi->bf01
  constant.1979 = f32[] constant(0)
  broadcast.1980 = f32[128,256,14,14]{3,2,1,0} broadcast(constant.1979), dimensions={}
  select.1983 = f32[128,256,14,14]{3,2,1,0} select(compare.1982, convolution.1957, broadcast.1980)
  batch-norm-grad.1991 = (f32[128,256,14,14]{3,2,1,0}, f32[256]{0}, f32[256]{0}) batch-norm-grad(convolution.930, p220.911, get-tuple-element.933, subtract.1990, select.1983), epsilon=1e-05, feature_index=1
  get-tuple-element.1992 = f32[128,256,14,14]{3,2,1,0} get-tuple-element(batch-norm-grad.1991), index=0
  constant.2024 = f32[] constant(0)
  reduce.2029 = f32[256]{0} reduce(get-tuple-element.1992, constant.2024), dimensions={0,2,3}, to_apply=AddComputation.2025
  get-tuple-element.921 = f32[256]{0} get-tuple-element(batch-norm-training.919), index=1
  constant.2049 = f32[] constant(1)
  broadcast.2050 = f32[256]{0} broadcast(constant.2049), dimensions={}
  get-tuple-element.922 = f32[256]{0} get-tuple-element(batch-norm-training.919), index=2
  constant.923 = f32[] constant(1e-05)
  broadcast.924 = f32[256]{0} broadcast(constant.923), dimensions={}
  add.925 = f32[256]{0} add(get-tuple-element.922, broadcast.924)
  rsqrt.926 = f32[256]{0} rsqrt(add.925)
  divide.2051 = f32[256]{0} divide(broadcast.2050, rsqrt.926)
  multiply.2052 = f32[256]{0} multiply(divide.2051, divide.2051)
  constant.2048 = f32[] constant(1e-05)
  broadcast.2053 = f32[256]{0} broadcast(constant.2048), dimensions={}
  subtract.2054 = f32[256]{0} subtract(multiply.2052, broadcast.2053)
  constant.2042 = f32[] constant(0)
  broadcast.2045 = f32[128,256,14,14]{3,2,1,0} broadcast(constant.2042), dimensions={}
  compare.2046 = pred[128,256,14,14]{3,2,1,0} compare(maximum.929, broadcast.2045), direction=GT
  transpose.2019 = f32[3,3,256,256]{1,0,2,3} transpose(p221.912), dimensions={2,3,1,0}
  reverse.2020 = f32[3,3,256,256]{1,0,2,3} reverse(transpose.2019), dimensions={0,1}
  convolution.2021 = f32[128,256,14,14]{3,2,1,0} convolution(get-tuple-element.1992, reverse.2020), window={size=3x3 pad=1_1x1_1}, dim_labels=bf01_01oi->bf01
  constant.2043 = f32[] constant(0)
  broadcast.2044 = f32[128,256,14,14]{3,2,1,0} broadcast(constant.2043), dimensions={}
  select.2047 = f32[128,256,14,14]{3,2,1,0} select(compare.2046, convolution.2021, broadcast.2044)
  batch-norm-grad.2055 = (f32[128,256,14,14]{3,2,1,0}, f32[256]{0}, f32[256]{0}) batch-norm-grad(convolution.918, p225.916, get-tuple-element.921, subtract.2054, select.2047), epsilon=1e-05, feature_index=1
  get-tuple-element.2056 = f32[128,256,14,14]{3,2,1,0} get-tuple-element(batch-norm-grad.2055), index=0
  constant.2088 = f32[] constant(0)
  reduce.2093 = f32[256]{0} reduce(get-tuple-element.2056, constant.2088), dimensions={0,2,3}, to_apply=AddComputation.2089
  get-tuple-element.892 = f32[1024]{0} get-tuple-element(batch-norm-training.890), index=1
  constant.2120 = f32[] constant(1)
  broadcast.2121 = f32[1024]{0} broadcast(constant.2120), dimensions={}
  get-tuple-element.893 = f32[1024]{0} get-tuple-element(batch-norm-training.890), index=2
  constant.894 = f32[] constant(1e-05)
  broadcast.895 = f32[1024]{0} broadcast(constant.894), dimensions={}
  add.896 = f32[1024]{0} add(get-tuple-element.893, broadcast.895)
  rsqrt.897 = f32[1024]{0} rsqrt(add.896)
  divide.2122 = f32[1024]{0} divide(broadcast.2121, rsqrt.897)
  multiply.2123 = f32[1024]{0} multiply(divide.2122, divide.2122)
  constant.2119 = f32[] constant(1e-05)
  broadcast.2124 = f32[1024]{0} broadcast(constant.2119), dimensions={}
  subtract.2125 = f32[1024]{0} subtract(multiply.2123, broadcast.2124)
  constant.2113 = f32[] constant(0)
  broadcast.2116 = f32[128,1024,14,14]{3,2,1,0} broadcast(constant.2113), dimensions={}
  compare.2117 = pred[128,1024,14,14]{3,2,1,0} compare(maximum.901, broadcast.2116), direction=GT
  transpose.2083 = f32[1,1,1024,256]{1,0,2,3} transpose(p226.917), dimensions={2,3,1,0}
  reverse.2084 = f32[1,1,1024,256]{1,0,2,3} reverse(transpose.2083), dimensions={0,1}
  convolution.2085 = f32[128,1024,14,14]{3,2,1,0} convolution(get-tuple-element.2056, reverse.2084), window={size=1x1}, dim_labels=bf01_01oi->bf01
  constant.2106 = f32[] constant(1)
  reshape.2107 = f32[1,1,1,1]{3,2,1,0} reshape(constant.2106)
  broadcast.2108 = f32[1,1,1,1]{3,2,1,0} broadcast(reshape.2107), dimensions={0,1,2,3}
  reshape.2109 = f32[] reshape(broadcast.2108)
  broadcast.2110 = f32[128,1024,14,14]{3,2,1,0} broadcast(reshape.2109), dimensions={}
  multiply.2111 = f32[128,1024,14,14]{3,2,1,0} multiply(convolution.2085, broadcast.2110)
  add.2112 = f32[128,1024,14,14]{3,2,1,0} add(select.1919, multiply.2111)
  constant.2114 = f32[] constant(0)
  broadcast.2115 = f32[128,1024,14,14]{3,2,1,0} broadcast(constant.2114), dimensions={}
  select.2118 = f32[128,1024,14,14]{3,2,1,0} select(compare.2117, add.2112, broadcast.2115)
  batch-norm-grad.2126 = (f32[128,1024,14,14]{3,2,1,0}, f32[1024]{0}, f32[1024]{0}) batch-norm-grad(convolution.889, p200.853, get-tuple-element.892, subtract.2125, select.2118), epsilon=1e-05, feature_index=1
  get-tuple-element.2127 = f32[128,1024,14,14]{3,2,1,0} get-tuple-element(batch-norm-grad.2126), index=0
  constant.2159 = f32[] constant(0)
  reduce.2164 = f32[1024]{0} reduce(get-tuple-element.2127, constant.2159), dimensions={0,2,3}, to_apply=AddComputation.2160
  get-tuple-element.880 = f32[256]{0} get-tuple-element(batch-norm-training.878), index=1
  constant.2184 = f32[] constant(1)
  broadcast.2185 = f32[256]{0} broadcast(constant.2184), dimensions={}
  get-tuple-element.881 = f32[256]{0} get-tuple-element(batch-norm-training.878), index=2
  constant.882 = f32[] constant(1e-05)
  broadcast.883 = f32[256]{0} broadcast(constant.882), dimensions={}
  add.884 = f32[256]{0} add(get-tuple-element.881, broadcast.883)
  rsqrt.885 = f32[256]{0} rsqrt(add.884)
  divide.2186 = f32[256]{0} divide(broadcast.2185, rsqrt.885)
  multiply.2187 = f32[256]{0} multiply(divide.2186, divide.2186)
  constant.2183 = f32[] constant(1e-05)
  broadcast.2188 = f32[256]{0} broadcast(constant.2183), dimensions={}
  subtract.2189 = f32[256]{0} subtract(multiply.2187, broadcast.2188)
  constant.2177 = f32[] constant(0)
  broadcast.2180 = f32[128,256,14,14]{3,2,1,0} broadcast(constant.2177), dimensions={}
  compare.2181 = pred[128,256,14,14]{3,2,1,0} compare(maximum.888, broadcast.2180), direction=GT
  transpose.2154 = f32[1,1,256,1024]{1,0,2,3} transpose(p201.854), dimensions={2,3,1,0}
  reverse.2155 = f32[1,1,256,1024]{1,0,2,3} reverse(transpose.2154), dimensions={0,1}
  convolution.2156 = f32[128,256,14,14]{3,2,1,0} convolution(get-tuple-element.2127, reverse.2155), window={size=1x1}, dim_labels=bf01_01oi->bf01
  constant.2178 = f32[] constant(0)
  broadcast.2179 = f32[128,256,14,14]{3,2,1,0} broadcast(constant.2178), dimensions={}
  select.2182 = f32[128,256,14,14]{3,2,1,0} select(compare.2181, convolution.2156, broadcast.2179)
  batch-norm-grad.2190 = (f32[128,256,14,14]{3,2,1,0}, f32[256]{0}, f32[256]{0}) batch-norm-grad(convolution.877, p205.858, get-tuple-element.880, subtract.2189, select.2182), epsilon=1e-05, feature_index=1
  get-tuple-element.2191 = f32[128,256,14,14]{3,2,1,0} get-tuple-element(batch-norm-grad.2190), index=0
  constant.2223 = f32[] constant(0)
  reduce.2228 = f32[256]{0} reduce(get-tuple-element.2191, constant.2223), dimensions={0,2,3}, to_apply=AddComputation.2224
  get-tuple-element.868 = f32[256]{0} get-tuple-element(batch-norm-training.866), index=1
  constant.2248 = f32[] constant(1)
  broadcast.2249 = f32[256]{0} broadcast(constant.2248), dimensions={}
  get-tuple-element.869 = f32[256]{0} get-tuple-element(batch-norm-training.866), index=2
  constant.870 = f32[] constant(1e-05)
  broadcast.871 = f32[256]{0} broadcast(constant.870), dimensions={}
  add.872 = f32[256]{0} add(get-tuple-element.869, broadcast.871)
  rsqrt.873 = f32[256]{0} rsqrt(add.872)
  divide.2250 = f32[256]{0} divide(broadcast.2249, rsqrt.873)
  multiply.2251 = f32[256]{0} multiply(divide.2250, divide.2250)
  constant.2247 = f32[] constant(1e-05)
  broadcast.2252 = f32[256]{0} broadcast(constant.2247), dimensions={}
  subtract.2253 = f32[256]{0} subtract(multiply.2251, broadcast.2252)
  constant.2241 = f32[] constant(0)
  broadcast.2244 = f32[128,256,14,14]{3,2,1,0} broadcast(constant.2241), dimensions={}
  compare.2245 = pred[128,256,14,14]{3,2,1,0} compare(maximum.876, broadcast.2244), direction=GT
  transpose.2218 = f32[3,3,256,256]{1,0,2,3} transpose(p206.859), dimensions={2,3,1,0}
  reverse.2219 = f32[3,3,256,256]{1,0,2,3} reverse(transpose.2218), dimensions={0,1}
  convolution.2220 = f32[128,256,14,14]{3,2,1,0} convolution(get-tuple-element.2191, reverse.2219), window={size=3x3 pad=1_1x1_1}, dim_labels=bf01_01oi->bf01
  constant.2242 = f32[] constant(0)
  broadcast.2243 = f32[128,256,14,14]{3,2,1,0} broadcast(constant.2242), dimensions={}
  select.2246 = f32[128,256,14,14]{3,2,1,0} select(compare.2245, convolution.2220, broadcast.2243)
  batch-norm-grad.2254 = (f32[128,256,14,14]{3,2,1,0}, f32[256]{0}, f32[256]{0}) batch-norm-grad(convolution.865, p210.863, get-tuple-element.868, subtract.2253, select.2246), epsilon=1e-05, feature_index=1
  get-tuple-element.2255 = f32[128,256,14,14]{3,2,1,0} get-tuple-element(batch-norm-grad.2254), index=0
  constant.2287 = f32[] constant(0)
  reduce.2292 = f32[256]{0} reduce(get-tuple-element.2255, constant.2287), dimensions={0,2,3}, to_apply=AddComputation.2288
  get-tuple-element.839 = f32[1024]{0} get-tuple-element(batch-norm-training.837), index=1
  constant.2319 = f32[] constant(1)
  broadcast.2320 = f32[1024]{0} broadcast(constant.2319), dimensions={}
  get-tuple-element.840 = f32[1024]{0} get-tuple-element(batch-norm-training.837), index=2
  constant.841 = f32[] constant(1e-05)
  broadcast.842 = f32[1024]{0} broadcast(constant.841), dimensions={}
  add.843 = f32[1024]{0} add(get-tuple-element.840, broadcast.842)
  rsqrt.844 = f32[1024]{0} rsqrt(add.843)
  divide.2321 = f32[1024]{0} divide(broadcast.2320, rsqrt.844)
  multiply.2322 = f32[1024]{0} multiply(divide.2321, divide.2321)
  constant.2318 = f32[] constant(1e-05)
  broadcast.2323 = f32[1024]{0} broadcast(constant.2318), dimensions={}
  subtract.2324 = f32[1024]{0} subtract(multiply.2322, broadcast.2323)
  constant.2312 = f32[] constant(0)
  broadcast.2315 = f32[128,1024,14,14]{3,2,1,0} broadcast(constant.2312), dimensions={}
  compare.2316 = pred[128,1024,14,14]{3,2,1,0} compare(maximum.848, broadcast.2315), direction=GT
  transpose.2282 = f32[1,1,1024,256]{1,0,2,3} transpose(p211.864), dimensions={2,3,1,0}
  reverse.2283 = f32[1,1,1024,256]{1,0,2,3} reverse(transpose.2282), dimensions={0,1}
  convolution.2284 = f32[128,1024,14,14]{3,2,1,0} convolution(get-tuple-element.2255, reverse.2283), window={size=1x1}, dim_labels=bf01_01oi->bf01
  constant.2305 = f32[] constant(1)
  reshape.2306 = f32[1,1,1,1]{3,2,1,0} reshape(constant.2305)
  broadcast.2307 = f32[1,1,1,1]{3,2,1,0} broadcast(reshape.2306), dimensions={0,1,2,3}
  reshape.2308 = f32[] reshape(broadcast.2307)
  broadcast.2309 = f32[128,1024,14,14]{3,2,1,0} broadcast(reshape.2308), dimensions={}
  multiply.2310 = f32[128,1024,14,14]{3,2,1,0} multiply(convolution.2284, broadcast.2309)
  add.2311 = f32[128,1024,14,14]{3,2,1,0} add(select.2118, multiply.2310)
  constant.2313 = f32[] constant(0)
  broadcast.2314 = f32[128,1024,14,14]{3,2,1,0} broadcast(constant.2313), dimensions={}
  select.2317 = f32[128,1024,14,14]{3,2,1,0} select(compare.2316, add.2311, broadcast.2314)
  batch-norm-grad.2325 = (f32[128,1024,14,14]{3,2,1,0}, f32[1024]{0}, f32[1024]{0}) batch-norm-grad(convolution.836, p185.800, get-tuple-element.839, subtract.2324, select.2317), epsilon=1e-05, feature_index=1
  get-tuple-element.2326 = f32[128,1024,14,14]{3,2,1,0} get-tuple-element(batch-norm-grad.2325), index=0
  constant.2358 = f32[] constant(0)
  reduce.2363 = f32[1024]{0} reduce(get-tuple-element.2326, constant.2358), dimensions={0,2,3}, to_apply=AddComputation.2359
  get-tuple-element.827 = f32[256]{0} get-tuple-element(batch-norm-training.825), index=1
  constant.2383 = f32[] constant(1)
  broadcast.2384 = f32[256]{0} broadcast(constant.2383), dimensions={}
  get-tuple-element.828 = f32[256]{0} get-tuple-element(batch-norm-training.825), index=2
  constant.829 = f32[] constant(1e-05)
  broadcast.830 = f32[256]{0} broadcast(constant.829), dimensions={}
  add.831 = f32[256]{0} add(get-tuple-element.828, broadcast.830)
  rsqrt.832 = f32[256]{0} rsqrt(add.831)
  divide.2385 = f32[256]{0} divide(broadcast.2384, rsqrt.832)
  multiply.2386 = f32[256]{0} multiply(divide.2385, divide.2385)
  constant.2382 = f32[] constant(1e-05)
  broadcast.2387 = f32[256]{0} broadcast(constant.2382), dimensions={}
  subtract.2388 = f32[256]{0} subtract(multiply.2386, broadcast.2387)
  constant.2376 = f32[] constant(0)
  broadcast.2379 = f32[128,256,14,14]{3,2,1,0} broadcast(constant.2376), dimensions={}
  compare.2380 = pred[128,256,14,14]{3,2,1,0} compare(maximum.835, broadcast.2379), direction=GT
  transpose.2353 = f32[1,1,256,1024]{1,0,2,3} transpose(p186.801), dimensions={2,3,1,0}
  reverse.2354 = f32[1,1,256,1024]{1,0,2,3} reverse(transpose.2353), dimensions={0,1}
  convolution.2355 = f32[128,256,14,14]{3,2,1,0} convolution(get-tuple-element.2326, reverse.2354), window={size=1x1}, dim_labels=bf01_01oi->bf01
  constant.2377 = f32[] constant(0)
  broadcast.2378 = f32[128,256,14,14]{3,2,1,0} broadcast(constant.2377), dimensions={}
  select.2381 = f32[128,256,14,14]{3,2,1,0} select(compare.2380, convolution.2355, broadcast.2378)
  batch-norm-grad.2389 = (f32[128,256,14,14]{3,2,1,0}, f32[256]{0}, f32[256]{0}) batch-norm-grad(convolution.824, p190.805, get-tuple-element.827, subtract.2388, select.2381), epsilon=1e-05, feature_index=1
  get-tuple-element.2390 = f32[128,256,14,14]{3,2,1,0} get-tuple-element(batch-norm-grad.2389), index=0
  constant.2422 = f32[] constant(0)
  reduce.2427 = f32[256]{0} reduce(get-tuple-element.2390, constant.2422), dimensions={0,2,3}, to_apply=AddComputation.2423
  get-tuple-element.815 = f32[256]{0} get-tuple-element(batch-norm-training.813), index=1
  constant.2447 = f32[] constant(1)
  broadcast.2448 = f32[256]{0} broadcast(constant.2447), dimensions={}
  get-tuple-element.816 = f32[256]{0} get-tuple-element(batch-norm-training.813), index=2
  constant.817 = f32[] constant(1e-05)
  broadcast.818 = f32[256]{0} broadcast(constant.817), dimensions={}
  add.819 = f32[256]{0} add(get-tuple-element.816, broadcast.818)
  rsqrt.820 = f32[256]{0} rsqrt(add.819)
  divide.2449 = f32[256]{0} divide(broadcast.2448, rsqrt.820)
  multiply.2450 = f32[256]{0} multiply(divide.2449, divide.2449)
  constant.2446 = f32[] constant(1e-05)
  broadcast.2451 = f32[256]{0} broadcast(constant.2446), dimensions={}
  subtract.2452 = f32[256]{0} subtract(multiply.2450, broadcast.2451)
  constant.2440 = f32[] constant(0)
  broadcast.2443 = f32[128,256,14,14]{3,2,1,0} broadcast(constant.2440), dimensions={}
  compare.2444 = pred[128,256,14,14]{3,2,1,0} compare(maximum.823, broadcast.2443), direction=GT
  transpose.2417 = f32[3,3,256,256]{1,0,2,3} transpose(p191.806), dimensions={2,3,1,0}
  reverse.2418 = f32[3,3,256,256]{1,0,2,3} reverse(transpose.2417), dimensions={0,1}
  convolution.2419 = f32[128,256,14,14]{3,2,1,0} convolution(get-tuple-element.2390, reverse.2418), window={size=3x3 pad=1_1x1_1}, dim_labels=bf01_01oi->bf01
  constant.2441 = f32[] constant(0)
  broadcast.2442 = f32[128,256,14,14]{3,2,1,0} broadcast(constant.2441), dimensions={}
  select.2445 = f32[128,256,14,14]{3,2,1,0} select(compare.2444, convolution.2419, broadcast.2442)
  batch-norm-grad.2453 = (f32[128,256,14,14]{3,2,1,0}, f32[256]{0}, f32[256]{0}) batch-norm-grad(convolution.812, p195.810, get-tuple-element.815, subtract.2452, select.2445), epsilon=1e-05, feature_index=1
  get-tuple-element.2454 = f32[128,256,14,14]{3,2,1,0} get-tuple-element(batch-norm-grad.2453), index=0
  constant.2486 = f32[] constant(0)
  reduce.2491 = f32[256]{0} reduce(get-tuple-element.2454, constant.2486), dimensions={0,2,3}, to_apply=AddComputation.2487
  get-tuple-element.786 = f32[1024]{0} get-tuple-element(batch-norm-training.784), index=1
  constant.2518 = f32[] constant(1)
  broadcast.2519 = f32[1024]{0} broadcast(constant.2518), dimensions={}
  get-tuple-element.787 = f32[1024]{0} get-tuple-element(batch-norm-training.784), index=2
  constant.788 = f32[] constant(1e-05)
  broadcast.789 = f32[1024]{0} broadcast(constant.788), dimensions={}
  add.790 = f32[1024]{0} add(get-tuple-element.787, broadcast.789)
  rsqrt.791 = f32[1024]{0} rsqrt(add.790)
  divide.2520 = f32[1024]{0} divide(broadcast.2519, rsqrt.791)
  multiply.2521 = f32[1024]{0} multiply(divide.2520, divide.2520)
  constant.2517 = f32[] constant(1e-05)
  broadcast.2522 = f32[1024]{0} broadcast(constant.2517), dimensions={}
  subtract.2523 = f32[1024]{0} subtract(multiply.2521, broadcast.2522)
  constant.2511 = f32[] constant(0)
  broadcast.2514 = f32[128,1024,14,14]{3,2,1,0} broadcast(constant.2511), dimensions={}
  compare.2515 = pred[128,1024,14,14]{3,2,1,0} compare(maximum.795, broadcast.2514), direction=GT
  transpose.2481 = f32[1,1,1024,256]{1,0,2,3} transpose(p196.811), dimensions={2,3,1,0}
  reverse.2482 = f32[1,1,1024,256]{1,0,2,3} reverse(transpose.2481), dimensions={0,1}
  convolution.2483 = f32[128,1024,14,14]{3,2,1,0} convolution(get-tuple-element.2454, reverse.2482), window={size=1x1}, dim_labels=bf01_01oi->bf01
  constant.2504 = f32[] constant(1)
  reshape.2505 = f32[1,1,1,1]{3,2,1,0} reshape(constant.2504)
  broadcast.2506 = f32[1,1,1,1]{3,2,1,0} broadcast(reshape.2505), dimensions={0,1,2,3}
  reshape.2507 = f32[] reshape(broadcast.2506)
  broadcast.2508 = f32[128,1024,14,14]{3,2,1,0} broadcast(reshape.2507), dimensions={}
  multiply.2509 = f32[128,1024,14,14]{3,2,1,0} multiply(convolution.2483, broadcast.2508)
  add.2510 = f32[128,1024,14,14]{3,2,1,0} add(select.2317, multiply.2509)
  constant.2512 = f32[] constant(0)
  broadcast.2513 = f32[128,1024,14,14]{3,2,1,0} broadcast(constant.2512), dimensions={}
…
  broadcast.6622 = pred[256]{0} broadcast(compare.6611), dimensions={}
  select.6623 = f32[256]{0} select(broadcast.6622, p326.6607, select.6621)
  broadcast.6663 = pred[256]{0} broadcast(compare.6652), dimensions={}
  select.6664 = f32[256]{0} select(broadcast.6663, p328.6648, select.6662)
  broadcast.6725 = pred[64,256,1,1]{3,2,1,0} broadcast(compare.6714), dimensions={}
  select.6726 = f32[64,256,1,1]{3,2,1,0} select(broadcast.6725, p331.6710, select.6724)
  broadcast.6766 = pred[64]{0} broadcast(compare.6755), dimensions={}
  select.6767 = f32[64]{0} select(broadcast.6766, p333.6751, select.6765)
  broadcast.6807 = pred[64]{0} broadcast(compare.6796), dimensions={}
  select.6808 = f32[64]{0} select(broadcast.6807, p335.6792, select.6806)
  broadcast.6869 = pred[64,64,3,3]{3,2,1,0} broadcast(compare.6858), dimensions={}
  select.6870 = f32[64,64,3,3]{3,2,1,0} select(broadcast.6869, p338.6854, select.6868)
  broadcast.6910 = pred[64]{0} broadcast(compare.6899), dimensions={}
  select.6911 = f32[64]{0} select(broadcast.6910, p340.6895, select.6909)
  broadcast.6951 = pred[64]{0} broadcast(compare.6940), dimensions={}
  select.6952 = f32[64]{0} select(broadcast.6951, p342.6936, select.6950)
  broadcast.7013 = pred[256,64,1,1]{3,2,1,0} broadcast(compare.7002), dimensions={}
  select.7014 = f32[256,64,1,1]{3,2,1,0} select(broadcast.7013, p345.6998, select.7012)
  broadcast.7054 = pred[256]{0} broadcast(compare.7043), dimensions={}
  select.7055 = f32[256]{0} select(broadcast.7054, p347.7039, select.7053)
  broadcast.7095 = pred[256]{0} broadcast(compare.7084), dimensions={}
  select.7096 = f32[256]{0} select(broadcast.7095, p349.7080, select.7094)
  broadcast.7157 = pred[128,256,1,1]{3,2,1,0} broadcast(compare.7146), dimensions={}
  select.7158 = f32[128,256,1,1]{3,2,1,0} select(broadcast.7157, p352.7142, select.7156)
  broadcast.7198 = pred[128]{0} broadcast(compare.7187), dimensions={}
  select.7199 = f32[128]{0} select(broadcast.7198, p354.7183, select.7197)
  broadcast.7239 = pred[128]{0} broadcast(compare.7228), dimensions={}
  select.7240 = f32[128]{0} select(broadcast.7239, p356.7224, select.7238)
  broadcast.7301 = pred[128,128,3,3]{3,2,1,0} broadcast(compare.7290), dimensions={}
  select.7302 = f32[128,128,3,3]{3,2,1,0} select(broadcast.7301, p359.7286, select.7300)
  broadcast.7342 = pred[128]{0} broadcast(compare.7331), dimensions={}
  select.7343 = f32[128]{0} select(broadcast.7342, p361.7327, select.7341)
  broadcast.7383 = pred[128]{0} broadcast(compare.7372), dimensions={}
  select.7384 = f32[128]{0} select(broadcast.7383, p363.7368, select.7382)
  broadcast.7445 = pred[512,128,1,1]{3,2,1,0} broadcast(compare.7434), dimensions={}
  select.7446 = f32[512,128,1,1]{3,2,1,0} select(broadcast.7445, p366.7430, select.7444)
  broadcast.7486 = pred[512]{0} broadcast(compare.7475), dimensions={}
  select.7487 = f32[512]{0} select(broadcast.7486, p368.7471, select.7485)
  broadcast.7527 = pred[512]{0} broadcast(compare.7516), dimensions={}
  select.7528 = f32[512]{0} select(broadcast.7527, p370.7512, select.7526)
  broadcast.7589 = pred[512,256,1,1]{3,2,1,0} broadcast(compare.7578), dimensions={}
  select.7590 = f32[512,256,1,1]{3,2,1,0} select(broadcast.7589, p373.7574, select.7588)
  broadcast.7630 = pred[512]{0} broadcast(compare.7619), dimensions={}
  select.7631 = f32[512]{0} select(broadcast.7630, p375.7615, select.7629)
  broadcast.7671 = pred[512]{0} broadcast(compare.7660), dimensions={}
  select.7672 = f32[512]{0} select(broadcast.7671, p377.7656, select.7670)
  broadcast.7733 = pred[128,512,1,1]{3,2,1,0} broadcast(compare.7722), dimensions={}
  select.7734 = f32[128,512,1,1]{3,2,1,0} select(broadcast.7733, p380.7718, select.7732)
  broadcast.7774 = pred[128]{0} broadcast(compare.7763), dimensions={}
  select.7775 = f32[128]{0} select(broadcast.7774, p382.7759, select.7773)
  broadcast.7815 = pred[128]{0} broadcast(compare.7804), dimensions={}
  select.7816 = f32[128]{0} select(broadcast.7815, p384.7800, select.7814)
  broadcast.7877 = pred[128,128,3,3]{3,2,1,0} broadcast(compare.7866), dimensions={}
  select.7878 = f32[128,128,3,3]{3,2,1,0} select(broadcast.7877, p387.7862, select.7876)
  broadcast.7918 = pred[128]{0} broadcast(compare.7907), dimensions={}
  select.7919 = f32[128]{0} select(broadcast.7918, p389.7903, select.7917)
  broadcast.7959 = pred[128]{0} broadcast(compare.7948), dimensions={}
  select.7960 = f32[128]{0} select(broadcast.7959, p391.7944, select.7958)
  broadcast.8021 = pred[512,128,1,1]{3,2,1,0} broadcast(compare.8010), dimensions={}
  select.8022 = f32[512,128,1,1]{3,2,1,0} select(broadcast.8021, p394.8006, select.8020)
  broadcast.8062 = pred[512]{0} broadcast(compare.8051), dimensions={}
  select.8063 = f32[512]{0} select(broadcast.8062, p396.8047, select.8061)
  broadcast.8103 = pred[512]{0} broadcast(compare.8092), dimensions={}
  select.8104 = f32[512]{0} select(broadcast.8103, p398.8088, select.8102)
  broadcast.8165 = pred[128,512,1,1]{3,2,1,0} broadcast(compare.8154), dimensions={}
  select.8166 = f32[128,512,1,1]{3,2,1,0} select(broadcast.8165, p401.8150, select.8164)
  broadcast.8206 = pred[128]{0} broadcast(compare.8195), dimensions={}
  select.8207 = f32[128]{0} select(broadcast.8206, p403.8191, select.8205)
  broadcast.8247 = pred[128]{0} broadcast(compare.8236), dimensions={}
  select.8248 = f32[128]{0} select(broadcast.8247, p405.8232, select.8246)
  broadcast.8309 = pred[128,128,3,3]{3,2,1,0} broadcast(compare.8298), dimensions={}
  select.8310 = f32[128,128,3,3]{3,2,1,0} select(broadcast.8309, p408.8294, select.8308)
  broadcast.8350 = pred[128]{0} broadcast(compare.8339), dimensions={}
  select.8351 = f32[128]{0} select(broadcast.8350, p410.8335, select.8349)
  broadcast.8391 = pred[128]{0} broadcast(compare.8380), dimensions={}
  select.8392 = f32[128]{0} select(broadcast.8391, p412.8376, select.8390)
  broadcast.8453 = pred[512,128,1,1]{3,2,1,0} broadcast(compare.8442), dimensions={}
  select.8454 = f32[512,128,1,1]{3,2,1,0} select(broadcast.8453, p415.8438, select.8452)
  broadcast.8494 = pred[512]{0} broadcast(compare.8483), dimensions={}
  select.8495 = f32[512]{0} select(broadcast.8494, p417.8479, select.8493)
  broadcast.8535 = pred[512]{0} broadcast(compare.8524), dimensions={}
  select.8536 = f32[512]{0} select(broadcast.8535, p419.8520, select.8534)
  broadcast.8597 = pred[128,512,1,1]{3,2,1,0} broadcast(compare.8586), dimensions={}
  select.8598 = f32[128,512,1,1]{3,2,1,0} select(broadcast.8597, p422.8582, select.8596)
  broadcast.8638 = pred[128]{0} broadcast(compare.8627), dimensions={}
  select.8639 = f32[128]{0} select(broadcast.8638, p424.8623, select.8637)
  broadcast.8679 = pred[128]{0} broadcast(compare.8668), dimensions={}
  select.8680 = f32[128]{0} select(broadcast.8679, p426.8664, select.8678)
  broadcast.8741 = pred[128,128,3,3]{3,2,1,0} broadcast(compare.8730), dimensions={}
  select.8742 = f32[128,128,3,3]{3,2,1,0} select(broadcast.8741, p429.8726, select.8740)
  broadcast.8782 = pred[128]{0} broadcast(compare.8771), dimensions={}
  select.8783 = f32[128]{0} select(broadcast.8782, p431.8767, select.8781)
  broadcast.8823 = pred[128]{0} broadcast(compare.8812), dimensions={}
  select.8824 = f32[128]{0} select(broadcast.8823, p433.8808, select.8822)
  broadcast.8885 = pred[512,128,1,1]{3,2,1,0} broadcast(compare.8874), dimensions={}
  select.8886 = f32[512,128,1,1]{3,2,1,0} select(broadcast.8885, p436.8870, select.8884)
  broadcast.8926 = pred[512]{0} broadcast(compare.8915), dimensions={}
  select.8927 = f32[512]{0} select(broadcast.8926, p438.8911, select.8925)
  broadcast.8967 = pred[512]{0} broadcast(compare.8956), dimensions={}
  select.8968 = f32[512]{0} select(broadcast.8967, p440.8952, select.8966)
  broadcast.9029 = pred[256,512,1,1]{3,2,1,0} broadcast(compare.9018), dimensions={}
  select.9030 = f32[256,512,1,1]{3,2,1,0} select(broadcast.9029, p443.9014, select.9028)
  broadcast.9070 = pred[256]{0} broadcast(compare.9059), dimensions={}
  select.9071 = f32[256]{0} select(broadcast.9070, p445.9055, select.9069)
  broadcast.9111 = pred[256]{0} broadcast(compare.9100), dimensions={}
  select.9112 = f32[256]{0} select(broadcast.9111, p447.9096, select.9110)
  broadcast.9173 = pred[256,256,3,3]{3,2,1,0} broadcast(compare.9162), dimensions={}
  select.9174 = f32[256,256,3,3]{3,2,1,0} select(broadcast.9173, p450.9158, select.9172)
  broadcast.9214 = pred[256]{0} broadcast(compare.9203), dimensions={}
  select.9215 = f32[256]{0} select(broadcast.9214, p452.9199, select.9213)
  broadcast.9255 = pred[256]{0} broadcast(compare.9244), dimensions={}
  select.9256 = f32[256]{0} select(broadcast.9255, p454.9240, select.9254)
  broadcast.9317 = pred[1024,256,1,1]{3,2,1,0} broadcast(compare.9306), dimensions={}
  select.9318 = f32[1024,256,1,1]{3,2,1,0} select(broadcast.9317, p457.9302, select.9316)
  broadcast.9358 = pred[1024]{0} broadcast(compare.9347), dimensions={}
  select.9359 = f32[1024]{0} select(broadcast.9358, p459.9343, select.9357)
  broadcast.9399 = pred[1024]{0} broadcast(compare.9388), dimensions={}
  select.9400 = f32[1024]{0} select(broadcast.9399, p461.9384, select.9398)
  broadcast.9461 = pred[1024,512,1,1]{3,2,1,0} broadcast(compare.9450), dimensions={}
  select.9462 = f32[1024,512,1,1]{3,2,1,0} select(broadcast.9461, p464.9446, select.9460)
  broadcast.9502 = pred[1024]{0} broadcast(compare.9491), dimensions={}
  select.9503 = f32[1024]{0} select(broadcast.9502, p466.9487, select.9501)
  broadcast.9543 = pred[1024]{0} broadcast(compare.9532), dimensions={}
  select.9544 = f32[1024]{0} select(broadcast.9543, p468.9528, select.9542)
  broadcast.9605 = pred[256,1024,1,1]{3,2,1,0} broadcast(compare.9594), dimensions={}
  select.9606 = f32[256,1024,1,1]{3,2,1,0} select(broadcast.9605, p471.9590, select.9604)
  broadcast.9646 = pred[256]{0} broadcast(compare.9635), dimensions={}
  select.9647 = f32[256]{0} select(broadcast.9646, p473.9631, select.9645)
  broadcast.9687 = pred[256]{0} broadcast(compare.9676), dimensions={}
  select.9688 = f32[256]{0} select(broadcast.9687, p475.9672, select.9686)
  broadcast.9749 = pred[256,256,3,3]{3,2,1,0} broadcast(compare.9738), dimensions={}
  select.9750 = f32[256,256,3,3]{3,2,1,0} select(broadcast.9749, p478.9734, select.9748)
  broadcast.9790 = pred[256]{0} broadcast(compare.9779), dimensions={}
  select.9791 = f32[256]{0} select(broadcast.9790, p480.9775, select.9789)
  broadcast.9831 = pred[256]{0} broadcast(compare.9820), dimensions={}
  select.9832 = f32[256]{0} select(broadcast.9831, p482.9816, select.9830)
  broadcast.9893 = pred[1024,256,1,1]{3,2,1,0} broadcast(compare.9882), dimensions={}
  select.9894 = f32[1024,256,1,1]{3,2,1,0} select(broadcast.9893, p485.9878, select.9892)
  broadcast.9934 = pred[1024]{0} broadcast(compare.9923), dimensions={}
  select.9935 = f32[1024]{0} select(broadcast.9934, p487.9919, select.9933)
  broadcast.9975 = pred[1024]{0} broadcast(compare.9964), dimensions={}
  select.9976 = f32[1024]{0} select(broadcast.9975, p489.9960, select.9974)
  broadcast.10037 = pred[256,1024,1,1]{3,2,1,0} broadcast(compare.10026), dimensions={}
  select.10038 = f32[256,1024,1,1]{3,2,1,0} select(broadcast.10037, p492.10022, select.10036)
  broadcast.10078 = pred[256]{0} broadcast(compare.10067), dimensions={}
  select.10079 = f32[256]{0} select(broadcast.10078, p494.10063, select.10077)
  broadcast.10119 = pred[256]{0} broadcast(compare.10108), dimensions={}
  select.10120 = f32[256]{0} select(broadcast.10119, p496.10104, select.10118)
  broadcast.10181 = pred[256,256,3,3]{3,2,1,0} broadcast(compare.10170), dimensions={}
  select.10182 = f32[256,256,3,3]{3,2,1,0} select(broadcast.10181, p499.10166, select.10180)
  broadcast.10222 = pred[256]{0} broadcast(compare.10211), dimensions={}
  select.10223 = f32[256]{0} select(broadcast.10222, p501.10207, select.10221)
  broadcast.10263 = pred[256]{0} broadcast(compare.10252), dimensions={}
  select.10264 = f32[256]{0} select(broadcast.10263, p503.10248, select.10262)
  broadcast.10325 = pred[1024,256,1,1]{3,2,1,0} broadcast(compare.10314), dimensions={}
  select.10326 = f32[1024,256,1,1]{3,2,1,0} select(broadcast.10325, p506.10310, select.10324)
  broadcast.10366 = pred[1024]{0} broadcast(compare.10355), dimensions={}
  select.10367 = f32[1024]{0} select(broadcast.10366, p508.10351, select.10365)
  broadcast.10407 = pred[1024]{0} broadcast(compare.10396), dimensions={}
  select.10408 = f32[1024]{0} select(broadcast.10407, p510.10392, select.10406)
  broadcast.10469 = pred[256,1024,1,1]{3,2,1,0} broadcast(compare.10458), dimensions={}
  select.10470 = f32[256,1024,1,1]{3,2,1,0} select(broadcast.10469, p513.10454, select.10468)
  broadcast.10510 = pred[256]{0} broadcast(compare.10499), dimensions={}
  select.10511 = f32[256]{0} select(broadcast.10510, p515.10495, select.10509)
  broadcast.10551 = pred[256]{0} broadcast(compare.10540), dimensions={}
  select.10552 = f32[256]{0} select(broadcast.10551, p517.10536, select.10550)
  broadcast.10613 = pred[256,256,3,3]{3,2,1,0} broadcast(compare.10602), dimensions={}
  select.10614 = f32[256,256,3,3]{3,2,1,0} select(broadcast.10613, p520.10598, select.10612)
  broadcast.10654 = pred[256]{0} broadcast(compare.10643), dimensions={}
  select.10655 = f32[256]{0} select(broadcast.10654, p522.10639, select.10653)
  broadcast.10695 = pred[256]{0} broadcast(compare.10684), dimensions={}
  select.10696 = f32[256]{0} select(broadcast.10695, p524.10680, select.10694)
  broadcast.10757 = pred[1024,256,1,1]{3,2,1,0} broadcast(compare.10746), dimensions={}
  select.10758 = f32[1024,256,1,1]{3,2,1,0} select(broadcast.10757, p527.10742, select.10756)
  broadcast.10798 = pred[1024]{0} broadcast(compare.10787), dimensions={}
  select.10799 = f32[1024]{0} select(broadcast.10798, p529.10783, select.10797)
  broadcast.10839 = pred[1024]{0} broadcast(compare.10828), dimensions={}
  select.10840 = f32[1024]{0} select(broadcast.10839, p531.10824, select.10838)
  broadcast.10901 = pred[256,1024,1,1]{3,2,1,0} broadcast(compare.10890), dimensions={}
  select.10902 = f32[256,1024,1,1]{3,2,1,0} select(broadcast.10901, p534.10886, select.10900)
  broadcast.10942 = pred[256]{0} broadcast(compare.10931), dimensions={}
  select.10943 = f32[256]{0} select(broadcast.10942, p536.10927, select.10941)
  broadcast.10983 = pred[256]{0} broadcast(compare.10972), dimensions={}
  select.10984 = f32[256]{0} select(broadcast.10983, p538.10968, select.10982)
  broadcast.11045 = pred[256,256,3,3]{3,2,1,0} broadcast(compare.11034), dimensions={}
  select.11046 = f32[256,256,3,3]{3,2,1,0} select(broadcast.11045, p541.11030, select.11044)
  broadcast.11086 = pred[256]{0} broadcast(compare.11075), dimensions={}
  select.11087 = f32[256]{0} select(broadcast.11086, p543.11071, select.11085)
  broadcast.11127 = pred[256]{0} broadcast(compare.11116), dimensions={}
  select.11128 = f32[256]{0} select(broadcast.11127, p545.11112, select.11126)
  broadcast.11189 = pred[1024,256,1,1]{3,2,1,0} broadcast(compare.11178), dimensions={}
  select.11190 = f32[1024,256,1,1]{3,2,1,0} select(broadcast.11189, p548.11174, select.11188)
  broadcast.11230 = pred[1024]{0} broadcast(compare.11219), dimensions={}
  select.11231 = f32[1024]{0} select(broadcast.11230, p550.11215, select.11229)
  broadcast.11271 = pred[1024]{0} broadcast(compare.11260), dimensions={}
  select.11272 = f32[1024]{0} select(broadcast.11271, p552.11256, select.11270)
  broadcast.11333 = pred[256,1024,1,1]{3,2,1,0} broadcast(compare.11322), dimensions={}
  select.11334 = f32[256,1024,1,1]{3,2,1,0} select(broadcast.11333, p555.11318, select.11332)
  broadcast.11374 = pred[256]{0} broadcast(compare.11363), dimensions={}
  select.11375 = f32[256]{0} select(broadcast.11374, p557.11359, select.11373)
  broadcast.11415 = pred[256]{0} broadcast(compare.11404), dimensions={}
  select.11416 = f32[256]{0} select(broadcast.11415, p559.11400, select.11414)
  broadcast.11477 = pred[256,256,3,3]{3,2,1,0} broadcast(compare.11466), dimensions={}
  select.11478 = f32[256,256,3,3]{3,2,1,0} select(broadcast.11477, p562.11462, select.11476)
  broadcast.11518 = pred[256]{0} broadcast(compare.11507), dimensions={}
  select.11519 = f32[256]{0} select(broadcast.11518, p564.11503, select.11517)
  broadcast.11559 = pred[256]{0} broadcast(compare.11548), dimensions={}
  select.11560 = f32[256]{0} select(broadcast.11559, p566.11544, select.11558)
  broadcast.11621 = pred[1024,256,1,1]{3,2,1,0} broadcast(compare.11610), dimensions={}
  select.11622 = f32[1024,256,1,1]{3,2,1,0} select(broadcast.11621, p569.11606, select.11620)
  broadcast.11662 = pred[1024]{0} broadcast(compare.11651), dimensions={}
  select.11663 = f32[1024]{0} select(broadcast.11662, p571.11647, select.11661)
  broadcast.11703 = pred[1024]{0} broadcast(compare.11692), dimensions={}
  select.11704 = f32[1024]{0} select(broadcast.11703, p573.11688, select.11702)
  broadcast.11765 = pred[512,1024,1,1]{3,2,1,0} broadcast(compare.11754), dimensions={}
  select.11766 = f32[512,1024,1,1]{3,2,1,0} select(broadcast.11765, p576.11750, select.11764)
  broadcast.11806 = pred[512]{0} broadcast(compare.11795), dimensions={}
  select.11807 = f32[512]{0} select(broadcast.11806, p578.11791, select.11805)
  broadcast.11847 = pred[512]{0} broadcast(compare.11836), dimensions={}
  select.11848 = f32[512]{0} select(broadcast.11847, p580.11832, select.11846)
  broadcast.11909 = pred[512,512,3,3]{3,2,1,0} broadcast(compare.11898), dimensions={}
  select.11910 = f32[512,512,3,3]{3,2,1,0} select(broadcast.11909, p583.11894, select.11908)
  broadcast.11950 = pred[512]{0} broadcast(compare.11939), dimensions={}
  select.11951 = f32[512]{0} select(broadcast.11950, p585.11935, select.11949)
  broadcast.11991 = pred[512]{0} broadcast(compare.11980), dimensions={}
  select.11992 = f32[512]{0} select(broadcast.11991, p587.11976, select.11990)
  broadcast.12053 = pred[2048,512,1,1]{3,2,1,0} broadcast(compare.12042), dimensions={}
  select.12054 = f32[2048,512,1,1]{3,2,1,0} select(broadcast.12053, p590.12038, select.12052)
  broadcast.12094 = pred[2048]{0} broadcast(compare.12083), dimensions={}
  select.12095 = f32[2048]{0} select(broadcast.12094, p592.12079, select.12093)
  broadcast.12135 = pred[2048]{0} broadcast(compare.12124), dimensions={}
  select.12136 = f32[2048]{0} select(broadcast.12135, p594.12120, select.12134)
  broadcast.12197 = pred[2048,1024,1,1]{3,2,1,0} broadcast(compare.12186), dimensions={}
  select.12198 = f32[2048,1024,1,1]{3,2,1,0} select(broadcast.12197, p597.12182, select.12196)
  broadcast.12238 = pred[2048]{0} broadcast(compare.12227), dimensions={}
  select.12239 = f32[2048]{0} select(broadcast.12238, p599.12223, select.12237)
  broadcast.12279 = pred[2048]{0} broadcast(compare.12268), dimensions={}
  select.12280 = f32[2048]{0} select(broadcast.12279, p601.12264, select.12278)
  broadcast.12341 = pred[512,2048,1,1]{3,2,1,0} broadcast(compare.12330), dimensions={}
  select.12342 = f32[512,2048,1,1]{3,2,1,0} select(broadcast.12341, p604.12326, select.12340)
  broadcast.12382 = pred[512]{0} broadcast(compare.12371), dimensions={}
  select.12383 = f32[512]{0} select(broadcast.12382, p606.12367, select.12381)
  broadcast.12423 = pred[512]{0} broadcast(compare.12412), dimensions={}
  select.12424 = f32[512]{0} select(broadcast.12423, p608.12408, select.12422)
  broadcast.12485 = pred[512,512,3,3]{3,2,1,0} broadcast(compare.12474), dimensions={}
  select.12486 = f32[512,512,3,3]{3,2,1,0} select(broadcast.12485, p611.12470, select.12484)
  broadcast.12526 = pred[512]{0} broadcast(compare.12515), dimensions={}
  select.12527 = f32[512]{0} select(broadcast.12526, p613.12511, select.12525)
  broadcast.12567 = pred[512]{0} broadcast(compare.12556), dimensions={}
  select.12568 = f32[512]{0} select(broadcast.12567, p615.12552, select.12566)
  broadcast.12629 = pred[2048,512,1,1]{3,2,1,0} broadcast(compare.12618), dimensions={}
  select.12630 = f32[2048,512,1,1]{3,2,1,0} select(broadcast.12629, p618.12614, select.12628)
  broadcast.12670 = pred[2048]{0} broadcast(compare.12659), dimensions={}
  select.12671 = f32[2048]{0} select(broadcast.12670, p620.12655, select.12669)
  broadcast.12711 = pred[2048]{0} broadcast(compare.12700), dimensions={}
  select.12712 = f32[2048]{0} select(broadcast.12711, p622.12696, select.12710)
  broadcast.12773 = pred[512,2048,1,1]{3,2,1,0} broadcast(compare.12762), dimensions={}
  select.12774 = f32[512,2048,1,1]{3,2,1,0} select(broadcast.12773, p625.12758, select.12772)
  broadcast.12814 = pred[512]{0} broadcast(compare.12803), dimensions={}
  select.12815 = f32[512]{0} select(broadcast.12814, p627.12799, select.12813)
  broadcast.12855 = pred[512]{0} broadcast(compare.12844), dimensions={}
  select.12856 = f32[512]{0} select(broadcast.12855, p629.12840, select.12854)
  broadcast.12917 = pred[512,512,3,3]{3,2,1,0} broadcast(compare.12906), dimensions={}
  select.12918 = f32[512,512,3,3]{3,2,1,0} select(broadcast.12917, p632.12902, select.12916)
  broadcast.12958 = pred[512]{0} broadcast(compare.12947), dimensions={}
  select.12959 = f32[512]{0} select(broadcast.12958, p634.12943, select.12957)
  broadcast.12999 = pred[512]{0} broadcast(compare.12988), dimensions={}
  select.13000 = f32[512]{0} select(broadcast.12999, p636.12984, select.12998)
  broadcast.13061 = pred[2048,512,1,1]{3,2,1,0} broadcast(compare.13050), dimensions={}
  select.13062 = f32[2048,512,1,1]{3,2,1,0} select(broadcast.13061, p639.13046, select.13060)
  broadcast.13102 = pred[2048]{0} broadcast(compare.13091), dimensions={}
  select.13103 = f32[2048]{0} select(broadcast.13102, p641.13087, select.13101)
  broadcast.13143 = pred[2048]{0} broadcast(compare.13132), dimensions={}
  select.13144 = f32[2048]{0} select(broadcast.13143, p643.13128, select.13142)
  broadcast.13205 = pred[1000,2048]{1,0} broadcast(compare.13194), dimensions={}
  select.13206 = f32[1000,2048]{1,0} select(broadcast.13205, p646.13190, select.13204)
  broadcast.13246 = pred[1000]{0} broadcast(compare.13235), dimensions={}
  select.13247 = f32[1000]{0} select(broadcast.13246, p648.13231, select.13245)
  broadcast.13258 = s64[128,1000]{1,0} broadcast(p272.1165), dimensions={0}
  iota.13257 = s64[1,1000]{1,0} iota(), iota_dimension=1
  reshape.13259 = s64[1000]{0} reshape(iota.13257)
  broadcast.13260 = s64[128,1000]{1,0} broadcast(reshape.13259), dimensions={1}
  compare.13261 = pred[128,1000]{1,0} compare(broadcast.13258, broadcast.13260), direction=EQ
  constant.13256 = f32[] constant(1)
  broadcast.13263 = f32[128,1000]{1,0} broadcast(constant.13256), dimensions={}
  constant.13255 = f32[] constant(0)
  broadcast.13262 = f32[128,1000]{1,0} broadcast(constant.13255), dimensions={}
  select.13264 = f32[128,1000]{1,0} select(compare.13261, broadcast.13263, broadcast.13262)
  broadcast.13267 = f32[128,1000]{1,0} broadcast(constant.13256), dimensions={}
  compare.13268 = pred[128,1000]{1,0} compare(select.13264, broadcast.13267), direction=NE
  broadcast.13269 = f32[128,1000]{1,0} broadcast(constant.13255), dimensions={}
  negate.13265 = f32[128,1000]{1,0} negate(select.13264)
  multiply.13266 = f32[128,1000]{1,0} multiply(negate.13265, subtract.1164)
  select.13270 = f32[128,1000]{1,0} select(compare.13268, broadcast.13269, multiply.13266)
  constant.13271 = s64[] constant(-100)
  broadcast.13272 = s64[128]{0} broadcast(constant.13271), dimensions={}
  compare.13273 = pred[128]{0} compare(p272.1165, broadcast.13272), direction=NE
  broadcast.13278 = pred[128,1000]{1,0} broadcast(compare.13273), dimensions={0}
  constant.13274 = f32[] constant(1)
  broadcast.13275 = f32[128,1000]{1,0} broadcast(constant.13274), dimensions={}
  constant.13276 = f32[] constant(0)
  broadcast.13277 = f32[128,1000]{1,0} broadcast(constant.13276), dimensions={}
  select.13279 = f32[128,1000]{1,0} select(broadcast.13278, broadcast.13275, broadcast.13277)
  multiply.13280 = f32[128,1000]{1,0} multiply(select.13279, select.13264)
  multiply.13287 = f32[128,1000]{1,0} multiply(select.13270, multiply.13280)
  reduce.13292 = f32[] reduce(multiply.13287, constant.13255), dimensions={0,1}, to_apply=AddComputation.13288
  constant.13281 = f32[] constant(0)
  reduce.13286 = f32[] reduce(multiply.13280, constant.13281), dimensions={0,1}, to_apply=AddComputation.13282
  divide.13293 = f32[] divide(reduce.13292, reduce.13286)
  ROOT tuple.13294 = (f32[64,3,7,7]{3,2,1,0}, f32[64]{0}, f32[64]{0}, f32[64]{0}, f32[64]{0}, /*index=5*/s64[], f32[64,64,1,1]{3,2,1,0}, f32[64]{0}, f32[64]{0}, f32[64]{0}, /*index=10*/f32[64]{0}, s64[], f32[64,64,3,3]{3,2,1,0}, f32[64]{0}, f32[64]{0}, /*index=15*/f32[64]{0}, f32[64]{0}, s64[], f32[256,64,1,1]{3,2,1,0}, f32[256]{0}, /*index=20*/f32[256]{0}, f32[256]{0}, f32[256]{0}, s64[], f32[256,64,1,1]{3,2,1,0}, /*index=25*/f32[256]{0}, f32[256]{0}, f32[256]{0}, f32[256]{0}, s64[], /*index=30*/f32[64,256,1,1]{3,2,1,0}, f32[64]{0}, f32[64]{0}, f32[64]{0}, f32[64]{0}, /*index=35*/s64[], f32[64,64,3,3]{3,2,1,0}, f32[64]{0}, f32[64]{0}, f32[64]{0}, /*index=40*/f32[64]{0}, s64[], f32[256,64,1,1]{3,2,1,0}, f32[256]{0}, f32[256]{0}, /*index=45*/f32[256]{0}, f32[256]{0}, s64[], f32[64,256,1,1]{3,2,1,0}, f32[64]{0}, /*index=50*/f32[64]{0}, f32[64]{0}, f32[64]{0}, s64[], f32[64,64,3,3]{3,2,1,0}, /*index=55*/f32[64]{0}, f32[64]{0}, f32[64]{0}, f32[64]{0}, s64[], /*index=60*/f32[256,64,1,1]{3,2,1,0}, f32[256]{0}, f32[256]{0}, f32[256]{0}, f32[256]{0}, /*index=65*/s64[], f32[128,256,1,1]{3,2,1,0}, f32[128]{0}, f32[128]{0}, f32[128]{0}, /*index=70*/f32[128]{0}, s64[], f32[128,128,3,3]{3,2,1,0}, f32[128]{0}, f32[128]{0}, /*index=75*/f32[128]{0}, f32[128]{0}, s64[], f32[512,128,1,1]{3,2,1,0}, f32[512]{0}, /*index=80*/f32[512]{0}, f32[512]{0}, f32[512]{0}, s64[], f32[512,256,1,1]{3,2,1,0}, /*index=85*/f32[512]{0}, f32[512]{0}, f32[512]{0}, f32[512]{0}, s64[], /*index=90*/f32[128,512,1,1]{3,2,1,0}, f32[128]{0}, f32[128]{0}, f32[128]{0}, f32[128]{0}, /*index=95*/s64[], f32[128,128,3,3]{3,2,1,0}, f32[128]{0}, f32[128]{0}, f32[128]{0}, /*index=100*/f32[128]{0}, s64[], f32[512,128,1,1]{3,2,1,0}, f32[512]{0}, f32[512]{0}, /*index=105*/f32[512]{0}, f32[512]{0}, s64[], f32[128,512,1,1]{3,2,1,0}, f32[128]{0}, /*index=110*/f32[128]{0}, f32[128]{0}, f32[128]{0}, s64[], f32[128,128,3,3]{3,2,1,0}, /*index=115*/f32[128]{0}, f32[128]{0}, f32[128]{0}, f32[128]{0}, s64[], /*index=120*/f32[512,128,1,1]{3,2,1,0}, f32[512]{0}, f32[512]{0}, f32[512]{0}, f32[512]{0}, /*index=125*/s64[], f32[128,512,1,1]{3,2,1,0}, f32[128]{0}, f32[128]{0}, f32[128]{0}, /*index=130*/f32[128]{0}, s64[], f32[128,128,3,3]{3,2,1,0}, f32[128]{0}, f32[128]{0}, /*index=135*/f32[128]{0}, f32[128]{0}, s64[], f32[512,128,1,1]{3,2,1,0}, f32[512]{0}, /*index=140*/f32[512]{0}, f32[512]{0}, f32[512]{0}, s64[], f32[256,512,1,1]{3,2,1,0}, /*index=145*/f32[256]{0}, f32[256]{0}, f32[256]{0}, f32[256]{0}, s64[], /*index=150*/f32[256,256,3,3]{3,2,1,0}, f32[256]{0}, f32[256]{0}, f32[256]{0}, f32[256]{0}, /*index=155*/s64[], f32[1024,256,1,1]{3,2,1,0}, f32[1024]{0}, f32[1024]{0}, f32[1024]{0}, /*index=160*/f32[1024]{0}, s64[], f32[1024,512,1,1]{3,2,1,0}, f32[1024]{0}, f32[1024]{0}, /*index=165*/f32[1024]{0}, f32[1024]{0}, s64[], f32[256,1024,1,1]{3,2,1,0}, f32[256]{0}, /*index=170*/f32[256]{0}, f32[256]{0}, f32[256]{0}, s64[], f32[256,256,3,3]{3,2,1,0}, /*index=175*/f32[256]{0}, f32[256]{0}, f32[256]{0}, f32[256]{0}, s64[], /*index=180*/f32[1024,256,1,1]{3,2,1,0}, f32[1024]{0}, f32[1024]{0}, f32[1024]{0}, f32[1024]{0}, /*index=185*/s64[], f32[256,1024,1,1]{3,2,1,0}, f32[256]{0}, f32[256]{0}, f32[256]{0}, /*index=190*/f32[256]{0}, s64[], f32[256,256,3,3]{3,2,1,0}, f32[256]{0}, f32[256]{0}, /*index=195*/f32[256]{0}, f32[256]{0}, s64[], f32[1024,256,1,1]{3,2,1,0}, f32[1024]{0}, /*index=200*/f32[1024]{0}, f32[1024]{0}, f32[1024]{0}, s64[], f32[256,1024,1,1]{3,2,1,0}, /*index=205*/f32[256]{0}, f32[256]{0}, f32[256]{0}, f32[256]{0}, s64[], /*index=210*/f32[256,256,3,3]{3,2,1,0}, f32[256]{0}, f32[256]{0}, f32[256]{0}, f32[256]{0}, /*index=215*/s64[], f32[1024,256,1,1]{3,2,1,0}, f32[1024]{0}, f32[1024]{0}, f32[1024]{0}, /*index=220*/f32[1024]{0}, s64[], f32[256,1024,1,1]{3,2,1,0}, f32[256]{0}, f32[256]{0}, /*index=225*/f32[256]{0}, f32[256]{0}, s64[], f32[256,256,3,3]{3,2,1,0}, f32[256]{0}, /*index=230*/f32[256]{0}, f32[256]{0}, f32[256]{0}, s64[], f32[1024,256,1,1]{3,2,1,0}, /*index=235*/f32[1024]{0}, f32[1024]{0}, f32[1024]{0}, f32[1024]{0}, s64[], /*index=240*/f32[256,1024,1,1]{3,2,1,0}, f32[256]{0}, f32[256]{0}, f32[256]{0}, f32[256]{0}, /*index=245*/s64[], f32[256,256,3,3]{3,2,1,0}, f32[256]{0}, f32[256]{0}, f32[256]{0}, /*index=250*/f32[256]{0}, s64[], f32[1024,256,1,1]{3,2,1,0}, f32[1024]{0}, f32[1024]{0}, /*index=255*/f32[1024]{0}, f32[1024]{0}, s64[], f32[512,1024,1,1]{3,2,1,0}, f32[512]{0}, /*index=260*/f32[512]{0}, f32[512]{0}, f32[512]{0}, s64[], f32[512,512,3,3]{3,2,1,0}, /*index=265*/f32[512]{0}, f32[512]{0}, f32[512]{0}, f32[512]{0}, s64[], /*index=270*/f32[2048,512,1,1]{3,2,1,0}, f32[2048]{0}, f32[2048]{0}, f32[2048]{0}, f32[2048]{0}, /*index=275*/s64[], f32[2048,1024,1,1]{3,2,1,0}, f32[2048]{0}, f32[2048]{0}, f32[2048]{0}, /*index=280*/f32[2048]{0}, s64[], f32[512,2048,1,1]{3,2,1,0}, f32[512]{0}, f32[512]{0}, /*index=285*/f32[512]{0}, f32[512]{0}, s64[], f32[512,512,3,3]{3,2,1,0}, f32[512]{0}, /*index=290*/f32[512]{0}, f32[512]{0}, f32[512]{0}, s64[], f32[2048,512,1,1]{3,2,1,0}, /*index=295*/f32[2048]{0}, f32[2048]{0}, f32[2048]{0}, f32[2048]{0}, s64[], /*index=300*/f32[512,2048,1,1]{3,2,1,0}, f32[512]{0}, f32[512]{0}, f32[512]{0}, f32[512]{0}, /*index=305*/s64[], f32[512,512,3,3]{3,2,1,0}, f32[512]{0}, f32[512]{0}, f32[512]{0}, /*index=310*/f32[512]{0}, s64[], f32[2048,512,1,1]{3,2,1,0}, f32[2048]{0}, f32[2048]{0}, /*index=315*/f32[2048]{0}, f32[2048]{0}, s64[], f32[1000,2048]{1,0}, f32[1000]{0}, /*index=320*/f32[1000]{0}, f32[1000,2048]{1,0}, f32[2048]{0}, f32[2048]{0}, f32[2048,512,1,1]{3,2,1,0}, /*index=325*/f32[512]{0}, f32[512]{0}, f32[512,512,3,3]{3,2,1,0}, f32[512]{0}, f32[512]{0}, /*index=330*/f32[512,2048,1,1]{3,2,1,0}, f32[2048]{0}, f32[2048]{0}, f32[2048,512,1,1]{3,2,1,0}, f32[512]{0}, /*index=335*/f32[512]{0}, f32[512,512,3,3]{3,2,1,0}, f32[512]{0}, f32[512]{0}, f32[512,2048,1,1]{3,2,1,0}, /*index=340*/f32[2048]{0}, f32[2048]{0}, f32[2048,1024,1,1]{3,2,1,0}, f32[2048]{0}, f32[2048]{0}, /*index=345*/f32[2048,512,1,1]{3,2,1,0}, f32[512]{0}, f32[512]{0}, f32[512,512,3,3]{3,2,1,0}, f32[512]{0}, /*index=350*/f32[512]{0}, f32[512,1024,1,1]{3,2,1,0}, f32[1024]{0}, f32[1024]{0}, f32[1024,256,1,1]{3,2,1,0}, /*index=355*/f32[256]{0}, f32[256]{0}, f32[256,256,3,3]{3,2,1,0}, f32[256]{0}, f32[256]{0}, /*index=360*/f32[256,1024,1,1]{3,2,1,0}, f32[1024]{0}, f32[1024]{0}, f32[1024,256,1,1]{3,2,1,0}, f32[256]{0}, /*index=365*/f32[256]{0}, f32[256,256,3,3]{3,2,1,0}, f32[256]{0}, f32[256]{0}, f32[256,1024,1,1]{3,2,1,0}, /*index=370*/f32[1024]{0}, f32[1024]{0}, f32[1024,256,1,1]{3,2,1,0}, f32[256]{0}, f32[256]{0}, /*index=375*/f32[256,256,3,3]{3,2,1,0}, f32[256]{0}, f32[256]{0}, f32[256,1024,1,1]{3,2,1,0}, f32[1024]{0}, /*index=380*/f32[1024]{0}, f32[1024,256,1,1]{3,2,1,0}, f32[256]{0}, f32[256]{0}, f32[256,256,3,3]{3,2,1,0}, /*index=385*/f32[256]{0}, f32[256]{0}, f32[256,1024,1,1]{3,2,1,0}, f32[1024]{0}, f32[1024]{0}, /*index=390*/f32[1024,256,1,1]{3,2,1,0}, f32[256]{0}, f32[256]{0}, f32[256,256,3,3]{3,2,1,0}, f32[256]{0}, /*index=395*/f32[256]{0}, f32[256,1024,1,1]{3,2,1,0}, f32[1024]{0}, f32[1024]{0}, f32[1024,512,1,1]{3,2,1,0}, /*index=400*/f32[1024]{0}, f32[1024]{0}, f32[1024,256,1,1]{3,2,1,0}, f32[256]{0}, f32[256]{0}, /*index=405*/f32[256,256,3,3]{3,2,1,0}, f32[256]{0}, f32[256]{0}, f32[256,512,1,1]{3,2,1,0}, f32[512]{0}, /*index=410*/f32[512]{0}, f32[512,128,1,1]{3,2,1,0}, f32[128]{0}, f32[128]{0}, f32[128,128,3,3]{3,2,1,0}, /*index=415*/f32[128]{0}, f32[128]{0}, f32[128,512,1,1]{3,2,1,0}, f32[512]{0}, f32[512]{0}, /*index=420*/f32[512,128,1,1]{3,2,1,0}, f32[128]{0}, f32[128]{0}, f32[128,128,3,3]{3,2,1,0}, f32[128]{0}, /*index=425*/f32[128]{0}, f32[128,512,1,1]{3,2,1,0}, f32[512]{0}, f32[512]{0}, f32[512,128,1,1]{3,2,1,0}, /*index=430*/f32[128]{0}, f32[128]{0}, f32[128,128,3,3]{3,2,1,0}, f32[128]{0}, f32[128]{0}, /*index=435*/f32[128,512,1,1]{3,2,1,0}, f32[512]{0}, f32[512]{0}, f32[512,256,1,1]{3,2,1,0}, f32[512]{0}, /*index=440*/f32[512]{0}, f32[512,128,1,1]{3,2,1,0}, f32[128]{0}, f32[128]{0}, f32[128,128,3,3]{3,2,1,0}, /*index=445*/f32[128]{0}, f32[128]{0}, f32[128,256,1,1]{3,2,1,0}, f32[256]{0}, f32[256]{0}, /*index=450*/f32[256,64,1,1]{3,2,1,0}, f32[64]{0}, f32[64]{0}, f32[64,64,3,3]{3,2,1,0}, f32[64]{0}, /*index=455*/f32[64]{0}, f32[64,256,1,1]{3,2,1,0}, f32[256]{0}, f32[256]{0}, f32[256,64,1,1]{3,2,1,0}, /*index=460*/f32[64]{0}, f32[64]{0}, f32[64,64,3,3]{3,2,1,0}, f32[64]{0}, f32[64]{0}, /*index=465*/f32[64,256,1,1]{3,2,1,0}, f32[256]{0}, f32[256]{0}, f32[256,64,1,1]{3,2,1,0}, f32[256]{0}, /*index=470*/f32[256]{0}, f32[256,64,1,1]{3,2,1,0}, f32[64]{0}, f32[64]{0}, f32[64,64,3,3]{3,2,1,0}, /*index=475*/f32[64]{0}, f32[64]{0}, f32[64,64,1,1]{3,2,1,0}, f32[64]{0}, f32[64]{0}, /*index=480*/f32[64,3,7,7]{3,2,1,0}, f32[], f32[], f32[], f32[], /*index=485*/f32[], f32[], f32[], f32[], f32[], /*index=490*/f32[], f32[], f32[], f32[], f32[], /*index=495*/f32[], f32[], f32[], f32[], f32[], /*index=500*/f32[], f32[], f32[], f32[], f32[], /*index=505*/f32[], f32[], f32[], f32[], f32[], /*index=510*/f32[], f32[], f32[], f32[], f32[], /*index=515*/f32[], f32[], f32[], f32[], f32[], /*index=520*/f32[], f32[], f32[], f32[], f32[], /*index=525*/f32[], f32[], f32[], f32[], f32[], /*index=530*/f32[], f32[], f32[], f32[], f32[], /*index=535*/f32[], f32[], f32[], f32[], f32[], /*index=540*/f32[], f32[], f32[], f32[], f32[], /*index=545*/f32[], f32[], f32[], f32[], f32[], /*index=550*/f32[], f32[], f32[], f32[], f32[], /*index=555*/f32[], f32[], f32[], f32[], f32[], /*index=560*/f32[], f32[], f32[], f32[], f32[], /*index=565*/f32[], f32[], f32[], f32[], f32[], /*index=570*/f32[], f32[], f32[], f32[], f32[], /*index=575*/f32[], f32[], f32[], f32[], f32[], /*index=580*/f32[], f32[], f32[], f32[], f32[], /*index=585*/f32[], f32[], f32[], f32[], f32[], /*index=590*/f32[], f32[], f32[], f32[], f32[], /*index=595*/f32[], f32[], f32[], f32[], f32[], /*index=600*/f32[], f32[], f32[], f32[], f32[], /*index=605*/f32[], f32[], f32[], f32[], f32[], /*index=610*/f32[], f32[], f32[], f32[], f32[], /*index=615*/f32[], f32[], f32[], f32[], f32[], /*index=620*/f32[], f32[], f32[], f32[], f32[], /*index=625*/f32[], f32[], f32[], f32[], f32[], /*index=630*/f32[], f32[], f32[], f32[], f32[], /*index=635*/f32[], f32[], f32[], f32[], f32[], /*index=640*/f32[], f32[], f32[64,3,7,7]{3,2,1,0}, f32[64]{0}, f32[64]{0}, /*index=645*/f32[64,64,1,1]{3,2,1,0}, f32[64]{0}, f32[64]{0}, f32[64,64,3,3]{3,2,1,0}, f32[64]{0}, /*index=650*/f32[64]{0}, f32[256,64,1,1]{3,2,1,0}, f32[256]{0}, f32[256]{0}, f32[256,64,1,1]{3,2,1,0}, /*index=655*/f32[256]{0}, f32[256]{0}, f32[64,256,1,1]{3,2,1,0}, f32[64]{0}, f32[64]{0}, /*index=660*/f32[64,64,3,3]{3,2,1,0}, f32[64]{0}, f32[64]{0}, f32[256,64,1,1]{3,2,1,0}, f32[256]{0}, /*index=665*/f32[256]{0}, f32[64,256,1,1]{3,2,1,0}, f32[64]{0}, f32[64]{0}, f32[64,64,3,3]{3,2,1,0}, /*index=670*/f32[64]{0}, f32[64]{0}, f32[256,64,1,1]{3,2,1,0}, f32[256]{0}, f32[256]{0}, /*index=675*/f32[128,256,1,1]{3,2,1,0}, f32[128]{0}, f32[128]{0}, f32[128,128,3,3]{3,2,1,0}, f32[128]{0}, /*index=680*/f32[128]{0}, f32[512,128,1,1]{3,2,1,0}, f32[512]{0}, f32[512]{0}, f32[512,256,1,1]{3,2,1,0}, /*index=685*/f32[512]{0}, f32[512]{0}, f32[128,512,1,1]{3,2,1,0}, f32[128]{0}, f32[128]{0}, /*index=690*/f32[128,128,3,3]{3,2,1,0}, f32[128]{0}, f32[128]{0}, f32[512,128,1,1]{3,2,1,0}, f32[512]{0}, /*index=695*/f32[512]{0}, f32[128,512,1,1]{3,2,1,0}, f32[128]{0}, f32[128]{0}, f32[128,128,3,3]{3,2,1,0}, /*index=700*/f32[128]{0}, f32[128]{0}, f32[512,128,1,1]{3,2,1,0}, f32[512]{0}, f32[512]{0}, /*index=705*/f32[128,512,1,1]{3,2,1,0}, f32[128]{0}, f32[128]{0}, f32[128,128,3,3]{3,2,1,0}, f32[128]{0}, /*index=710*/f32[128]{0}, f32[512,128,1,1]{3,2,1,0}, f32[512]{0}, f32[512]{0}, f32[256,512,1,1]{3,2,1,0}, /*index=715*/f32[256]{0}, f32[256]{0}, f32[256,256,3,3]{3,2,1,0}, f32[256]{0}, f32[256]{0}, /*index=720*/f32[1024,256,1,1]{3,2,1,0}, f32[1024]{0}, f32[1024]{0}, f32[1024,512,1,1]{3,2,1,0}, f32[1024]{0}, /*index=725*/f32[1024]{0}, f32[256,1024,1,1]{3,2,1,0}, f32[256]{0}, f32[256]{0}, f32[256,256,3,3]{3,2,1,0}, /*index=730*/f32[256]{0}, f32[256]{0}, f32[1024,256,1,1]{3,2,1,0}, f32[1024]{0}, f32[1024]{0}, /*index=735*/f32[256,1024,1,1]{3,2,1,0}, f32[256]{0}, f32[256]{0}, f32[256,256,3,3]{3,2,1,0}, f32[256]{0}, /*index=740*/f32[256]{0}, f32[1024,256,1,1]{3,2,1,0}, f32[1024]{0}, f32[1024]{0}, f32[256,1024,1,1]{3,2,1,0}, /*index=745*/f32[256]{0}, f32[256]{0}, f32[256,256,3,3]{3,2,1,0}, f32[256]{0}, f32[256]{0}, /*index=750*/f32[1024,256,1,1]{3,2,1,0}, f32[1024]{0}, f32[1024]{0}, f32[256,1024,1,1]{3,2,1,0}, f32[256]{0}, /*index=755*/f32[256]{0}, f32[256,256,3,3]{3,2,1,0}, f32[256]{0}, f32[256]{0}, f32[1024,256,1,1]{3,2,1,0}, /*index=760*/f32[1024]{0}, f32[1024]{0}, f32[256,1024,1,1]{3,2,1,0}, f32[256]{0}, f32[256]{0}, /*index=765*/f32[256,256,3,3]{3,2,1,0}, f32[256]{0}, f32[256]{0}, f32[1024,256,1,1]{3,2,1,0}, f32[1024]{0}, /*index=770*/f32[1024]{0}, f32[512,1024,1,1]{3,2,1,0}, f32[512]{0}, f32[512]{0}, f32[512,512,3,3]{3,2,1,0}, /*index=775*/f32[512]{0}, f32[512]{0}, f32[2048,512,1,1]{3,2,1,0}, f32[2048]{0}, f32[2048]{0}, /*index=780*/f32[2048,1024,1,1]{3,2,1,0}, f32[2048]{0}, f32[2048]{0}, f32[512,2048,1,1]{3,2,1,0}, f32[512]{0}, /*index=785*/f32[512]{0}, f32[512,512,3,3]{3,2,1,0}, f32[512]{0}, f32[512]{0}, f32[2048,512,1,1]{3,2,1,0}, /*index=790*/f32[2048]{0}, f32[2048]{0}, f32[512,2048,1,1]{3,2,1,0}, f32[512]{0}, f32[512]{0}, /*index=795*/f32[512,512,3,3]{3,2,1,0}, f32[512]{0}, f32[512]{0}, f32[2048,512,1,1]{3,2,1,0}, f32[2048]{0}, /*index=800*/f32[2048]{0}, f32[1000,2048]{1,0}, f32[1000]{0}, f32[128,1000]{1,0}, f32[]) tuple(select.5578, select.5619, select.5660, add.5671, add.5679, /*index=5*/add.5684, select.5722, select.5763, select.5804, add.5815, /*index=10*/add.5823, add.5828, select.5866, select.5907, select.5948, /*index=15*/add.5959, add.5967, add.5972, select.6010, select.6051, /*index=20*/select.6092, add.6103, add.6111, add.6116, select.6154, /*index=25*/select.6195, select.6236, add.6247, add.6255, add.6260, /*index=30*/select.6298, select.6339, select.6380, add.6391, add.6399, /*index=35*/add.6404, select.6442, select.6483, select.6524, add.6535, /*index=40*/add.6543, add.6548, select.6586, select.6627, select.6668, /*index=45*/add.6679, add.6687, add.6692, select.6730, select.6771, /*index=50*/select.6812, add.6823, add.6831, add.6836, select.6874, /*index=55*/select.6915, select.6956, add.6967, add.6975, add.6980, /*index=60*/select.7018, select.7059, select.7100, add.7111, add.7119, /*index=65*/add.7124, select.7162, select.7203, select.7244, add.7255, /*index=70*/add.7263, add.7268, select.7306, select.7347, select.7388, /*index=75*/add.7399, add.7407, add.7412, select.7450, select.7491, /*index=80*/select.7532, add.7543, add.7551, add.7556, select.7594, /*index=85*/select.7635, select.7676, add.7687, add.7695, add.7700, /*index=90*/select.7738, select.7779, select.7820, add.7831, add.7839, /*index=95*/add.7844, select.7882, select.7923, select.7964, add.7975, /*index=100*/add.7983, add.7988, select.8026, select.8067, select.8108, /*index=105*/add.8119, add.8127, add.8132, select.8170, select.8211, /*index=110*/select.8252, add.8263, add.8271, add.8276, select.8314, /*index=115*/select.8355, select.8396, add.8407, add.8415, add.8420, /*index=120*/select.8458, select.8499, select.8540, add.8551, add.8559, /*index=125*/add.8564, select.8602, select.8643, select.8684, add.8695, /*index=130*/add.8703, add.8708, select.8746, select.8787, select.8828, /*index=135*/add.8839, add.8847, add.8852, select.8890, select.8931, /*index=140*/select.8972, add.8983, add.8991, add.8996, select.9034, /*index=145*/select.9075, select.9116, add.9127, add.9135, add.9140, /*index=150*/select.9178, select.9219, select.9260, add.9271, add.9279, /*index=155*/add.9284, select.9322, select.9363, select.9404, add.9415, /*index=160*/add.9423, add.9428, select.9466, select.9507, select.9548, /*index=165*/add.9559, add.9567, add.9572, select.9610, select.9651, /*index=170*/select.9692, add.9703, add.9711, add.9716, select.9754, /*index=175*/select.9795, select.9836, add.9847, add.9855, add.9860, /*index=180*/select.9898, select.9939, select.9980, add.9991, add.9999, /*index=185*/add.10004, select.10042, select.10083, select.10124, add.10135, /*index=190*/add.10143, add.10148, select.10186, select.10227, select.10268, /*index=195*/add.10279, add.10287, add.10292, select.10330, select.10371, /*index=200*/select.10412, add.10423, add.10431, add.10436, select.10474, /*index=205*/select.10515, select.10556, add.10567, add.10575, add.10580, /*index=210*/select.10618, select.10659, select.10700, add.10711, add.10719, /*index=215*/add.10724, select.10762, select.10803, select.10844, add.10855, /*index=220*/add.10863, add.10868, select.10906, select.10947, select.10988, /*index=225*/add.10999, add.11007, add.11012, select.11050, select.11091, /*index=230*/select.11132, add.11143, add.11151, add.11156, select.11194, /*index=235*/select.11235, select.11276, add.11287, add.11295, add.11300, /*index=240*/select.11338, select.11379, select.11420, add.11431, add.11439, /*index=245*/add.11444, select.11482, select.11523, select.11564, add.11575, /*index=250*/add.11583, add.11588, select.11626, select.11667, select.11708, /*index=255*/add.11719, add.11727, add.11732, select.11770, select.11811, /*index=260*/select.11852, add.11863, add.11871, add.11876, select.11914, /*index=265*/select.11955, select.11996, add.12007, add.12015, add.12020, /*index=270*/select.12058, select.12099, select.12140, add.12151, add.12159, /*index=275*/add.12164, select.12202, select.12243, select.12284, add.12295, /*index=280*/add.12303, add.12308, select.12346, select.12387, select.12428, /*index=285*/add.12439, add.12447, add.12452, select.12490, select.12531, /*index=290*/select.12572, add.12583, add.12591, add.12596, select.12634, /*index=295*/select.12675, select.12716, add.12727, add.12735, add.12740, /*index=300*/select.12778, select.12819, select.12860, add.12871, add.12879, /*index=305*/add.12884, select.12922, select.12963, select.13004, add.13015, /*index=310*/add.13023, add.13028, select.13066, select.13107, select.13148, /*index=315*/add.13159, add.13167, add.13172, select.13210, select.13251, /*index=320*/multiply.5555, multiply.5551, multiply.5543, multiply.5547, multiply.5539, /*index=325*/multiply.5531, multiply.5535, multiply.5527, multiply.5519, multiply.5523, /*index=330*/multiply.5515, multiply.5507, multiply.5511, multiply.5503, multiply.5495, /*index=335*/multiply.5499, multiply.5491, multiply.5483, multiply.5487, multiply.5479, /*index=340*/multiply.5471, multiply.5475, multiply.5467, multiply.5459, multiply.5463, /*index=345*/multiply.5455, multiply.5447, multiply.5451, multiply.5443, multiply.5435, /*index=350*/multiply.5439, multiply.5431, multiply.5423, multiply.5427, multiply.5419, /*index=355*/multiply.5411, multiply.5415, multiply.5407, multiply.5399, multiply.5403, /*index=360*/multiply.5395, multiply.5387, multiply.5391, multiply.5383, multiply.5375, /*index=365*/multiply.5379, multiply.5371, multiply.5363, multiply.5367, multiply.5359, /*index=370*/multiply.5351, multiply.5355, multiply.5347, multiply.5339, multiply.5343, /*index=375*/multiply.5335, multiply.5327, multiply.5331, multiply.5323, multiply.5315, /*index=380*/multiply.5319, multiply.5311, multiply.5303, multiply.5307, multiply.5299, /*index=385*/multiply.5291, multiply.5295, multiply.5287, multiply.5279, multiply.5283, /*index=390*/multiply.5275, multiply.5267, multiply.5271, multiply.5263, multiply.5255, /*index=395*/multiply.5259, multiply.5251, multiply.5243, multiply.5247, multiply.5239, /*index=400*/multiply.5231, multiply.5235, multiply.5227, multiply.5219, multiply.5223, /*index=405*/multiply.5215, multiply.5207, multiply.5211, multiply.5203, multiply.5195, /*index=410*/multiply.5199, multiply.5191, multiply.5183, multiply.5187, multiply.5179, /*index=415*/multiply.5171, multiply.5175, multiply.5167, multiply.5159, multiply.5163, /*index=420*/multiply.5155, multiply.5147, multiply.5151, multiply.5143, multiply.5135, /*index=425*/multiply.5139, multiply.5131, multiply.5123, multiply.5127, multiply.5119, /*index=430*/multiply.5111, multiply.5115, multiply.5107, multiply.5099, multiply.5103, /*index=435*/multiply.5095, multiply.5087, multiply.5091, multiply.5083, multiply.5075, /*index=440*/multiply.5079, multiply.5071, multiply.5063, multiply.5067, multiply.5059, /*index=445*/multiply.5051, multiply.5055, multiply.5047, multiply.5039, multiply.5043, /*index=450*/multiply.5035, multiply.5027, multiply.5031, multiply.5023, multiply.5015, /*index=455*/multiply.5019, multiply.5011, multiply.5003, multiply.5007, multiply.4999, /*index=460*/multiply.4991, multiply.4995, multiply.4987, multiply.4979, multiply.4983, /*index=465*/multiply.4975, multiply.4967, multiply.4971, multiply.4963, multiply.4955, /*index=470*/multiply.4959, multiply.4951, multiply.4943, multiply.4947, multiply.4939, /*index=475*/multiply.4931, multiply.4935, multiply.4927, multiply.4919, multiply.4923, /*index=480*/multiply.4915, add.5581, add.5622, add.5663, add.5725, /*index=485*/add.5766, add.5807, add.5869, add.5910, add.5951, /*index=490*/add.6013, add.6054, add.6095, add.6157, add.6198, /*index=495*/add.6239, add.6301, add.6342, add.6383, add.6445, /*index=500*/add.6486, add.6527, add.6589, add.6630, add.6671, /*index=505*/add.6733, add.6774, add.6815, add.6877, add.6918, /*index=510*/add.6959, add.7021, add.7062, add.7103, add.7165, /*index=515*/add.7206, add.7247, add.7309, add.7350, add.7391, /*index=520*/add.7453, add.7494, add.7535, add.7597, add.7638, /*index=525*/add.7679, add.7741, add.7782, add.7823, add.7885, /*index=530*/add.7926, add.7967, add.8029, add.8070, add.8111, /*index=535*/add.8173, add.8214, add.8255, add.8317, add.8358, /*index=540*/add.8399, add.8461, add.8502, add.8543, add.8605, /*index=545*/add.8646, add.8687, add.8749, add.8790, add.8831, /*index=550*/add.8893, add.8934, add.8975, add.9037, add.9078, /*index=555*/add.9119, add.9181, add.9222, add.9263, add.9325, /*index=560*/add.9366, add.9407, add.9469, add.9510, add.9551, /*index=565*/add.9613, add.9654, add.9695, add.9757, add.9798, /*index=570*/add.9839, add.9901, add.9942, add.9983, add.10045, /*index=575*/add.10086, add.10127, add.10189, add.10230, add.10271, /*index=580*/add.10333, add.10374, add.10415, add.10477, add.10518, /*index=585*/add.10559, add.10621, add.10662, add.10703, add.10765, /*index=590*/add.10806, add.10847, add.10909, add.10950, add.10991, /*index=595*/add.11053, add.11094, add.11135, add.11197, add.11238, /*index=600*/add.11279, add.11341, add.11382, add.11423, add.11485, /*index=605*/add.11526, add.11567, add.11629, add.11670, add.11711, /*index=610*/add.11773, add.11814, add.11855, add.11917, add.11958, /*index=615*/add.11999, add.12061, add.12102, add.12143, add.12205, /*index=620*/add.12246, add.12287, add.12349, add.12390, add.12431, /*index=625*/add.12493, add.12534, add.12575, add.12637, add.12678, /*index=630*/add.12719, add.12781, add.12822, add.12863, add.12925, /*index=635*/add.12966, add.13007, add.13069, add.13110, add.13151, /*index=640*/add.13213, add.13254, select.5574, select.5615, select.5656, /*index=645*/select.5718, select.5759, select.5800, select.5862, select.5903, /*index=650*/select.5944, select.6006, select.6047, select.6088, select.6150, /*index=655*/select.6191, select.6232, select.6294, select.6335, select.6376, /*index=660*/select.6438, select.6479, select.6520, select.6582, select.6623, /*index=665*/select.6664, select.6726, select.6767, select.6808, select.6870, /*index=670*/select.6911, select.6952, select.7014, select.7055, select.7096, /*index=675*/select.7158, select.7199, select.7240, select.7302, select.7343, /*index=680*/select.7384, select.7446, select.7487, select.7528, select.7590, /*index=685*/select.7631, select.7672, select.7734, select.7775, select.7816, /*index=690*/select.7878, select.7919, select.7960, select.8022, select.8063, /*index=695*/select.8104, select.8166, select.8207, select.8248, select.8310, /*index=700*/select.8351, select.8392, select.8454, select.8495, select.8536, /*index=705*/select.8598, select.8639, select.8680, select.8742, select.8783, /*index=710*/select.8824, select.8886, select.8927, select.8968, select.9030, /*index=715*/select.9071, select.9112, select.9174, select.9215, select.9256, /*index=720*/select.9318, select.9359, select.9400, select.9462, select.9503, /*index=725*/select.9544, select.9606, select.9647, select.9688, select.9750, /*index=730*/select.9791, select.9832, select.9894, select.9935, select.9976, /*index=735*/select.10038, select.10079, select.10120, select.10182, select.10223, /*index=740*/select.10264, select.10326, select.10367, select.10408, select.10470, /*index=745*/select.10511, select.10552, select.10614, select.10655, select.10696, /*index=750*/select.10758, select.10799, select.10840, select.10902, select.10943, /*index=755*/select.10984, select.11046, select.11087, select.11128, select.11190, /*index=760*/select.11231, select.11272, select.11334, select.11375, select.11416, /*index=765*/select.11478, select.11519, select.11560, select.11622, select.11663, /*index=770*/select.11704, select.11766, select.11807, select.11848, select.11910, /*index=775*/select.11951, select.11992, select.12054, select.12095, select.12136, /*index=780*/select.12198, select.12239, select.12280, select.12342, select.12383, /*index=785*/select.12424, select.12486, select.12527, select.12568, select.12630, /*index=790*/select.12671, select.12712, select.12774, select.12815, select.12856, /*index=795*/select.12918, select.12959, select.13000, select.13062, select.13103, /*index=800*/select.13144, select.13206, select.13247, add.1146, divide.13293)
}

